Model/logistic_model.pth (torch, 41602 bytes, 1 tensors)

fc.weight f4 [1, 10000]
0	0x3c2b6315	0.010460635
1	0xbbf21818	-0.007388126
2	0x3b24a35d	0.0025121786
3	0xbc247966	-0.010038709
4	0x3c5ed053	0.013599473
5	0x3c98ea61	0.018666448
6	0x3c967390	0.018365651
7	0x3c861c97	0.016371055
8	0x3c6d3fee	0.014480574
9	0x3be20cef	0.0068985145
10	0xbbddb0d2	-0.0067654634
11	0xbc71a356	-0.014748415
12	0x3c8d91b2	0.017281387
13	0xbc64f052	-0.013973312
14	0x3b2491ad	0.0025111244
15	0xbc87cda4	-0.01657755
16	0xbbd1e247	-0.006405148
17	0x3c24696e	0.010034902
18	0x3bb8efaf	0.005643807
19	0xbbe5b7fa	-0.007010457
20	0xbc8a0f1c	-0.016852908
21	0x3c14614c	0.0090564005
22	0xbc8d7e5a	-0.017272163
23	0xbc8cb8c1	-0.017177941
24	0x3ca39678	0.01996921
25	0x3bf05ab4	0.0073350314
26	0x3c48334c	0.012219261
27	0x3c7a34ee	0.0152714085
28	0xbca41417	-0.02002911
29	0xbc979152	-0.018501911
30	0x3b91a3b0	0.004444562
31	0x3c5d0b00	0.013491392
32	0xbb9b11b8	-0.004732337
33	0x3c5d68f5	0.013513793
34	0x3c21b7f3	0.009870517
35	0x3c116fa9	0.0088767195
36	0x3c6f3eea	0.014602402
37	0xbc717070	-0.01473628
38	0x3a82733e	0.0009952558
39	0xbafc9360	-0.0019269995
40	0x3c8bc3b8	0.0170611
41	0x3c6b2091	0.014351026
42	0x3c82485f	0.01590365
43	0x3c4cb97f	0.012495398
44	0xbc8708a7	-0.016483618
45	0xbbe5d005	-0.0070133233
46	0xbb17dd31	-0.0023172612
47	0xbc08c915	-0.008348723
48	0x3c0060a9	0.007835546
49	0x3b12fcef	0.0022428592
50	0x3c7997b5	0.015233924
51	0xbc865cf9	-0.016401755
52	0x3acc0116	0.0015564288
53	0xbc0ecf20	-0.008716375
54	0x3c967eaf	0.018370954
55	0xbc80c81d	-0.015720421
56	0x3c3ff1e7	0.011715389
57	0x3bc84289	0.0061114472
58	0xbc011855	-0.007879336
59	0x3b7d50f0	0.003865298
60	0x3c96a472	0.01838896
61	0x3b2b64e8	0.0026152674
62	0xbc1fd8d1	-0.009756283
63	0x3b22bcae	0.00248317
64	0xbc32f600	-0.010922909
65	0x3c117737	0.008878521
66	0xbc4da440	-0.012551367
67	0xbc8f7a7b	-0.017514458
68	0x3b91f544	0.004454287
69	0xbc2c85ce	-0.010529948
70	0xbbeb9b3e	-0.007190137
71	0xbc717f2d	-0.014739794
72	0x3b34f2b8	0.0027610492
73	0x3b9ef5c0	0.004851073
74	0x3c65ce3f	0.014026224
75	0xbb7d16a4	-0.0038618231
76	0xbba6bec8	-0.005088661
77	0xbb6be82e	-0.0035996544
78	0xbc32b493	-0.01090731
79	0x3bc4176c	0.0059842374
80	0xbc8f03a3	-0.017457789
81	0x3c83a659	0.016070532
82	0x3c79dfc2	0.015251102
83	0xbbdfcbc2	-0.0068297097
84	0x3bbc7a37	0.005751874
85	0xbc4f84bd	-0.012665925
86	0xbc732a6c	-0.014841657
87	0x3c9152d0	0.017739683
88	0x3c649026	0.013950383
89	0x3c460103	0.012085202
90	0x3c021544	0.00793964
91	0x3c0786dd	0.0082719
92	0x3be087be	0.006852119
93	0xbb3bc6e5	-0.0028652486
94	0x3c719d96	0.014747044
95	0xbbf8bd12	-0.0075908983
96	0x3c7dd76e	0.015493257
97	0xbb7e6982	-0.0038820212
98	0xbc45adb7	-0.012065343
99	0xba60941a	-0.0008566991
100	0x3b8ee635	0.004360939
101	0x3b85da3d	0.004084854
102	0xbbaddbba	-0.0053057345
103	0xbb21bab8	-0.0024677943
104	0x3c533499	0.012890958
105	0x3c9076ca	0.017634768
106	0xb770f080	-1.43611105e-05
107	0x3b1c2cbc	0.0023830375
108	0xbb1d2c1c	-0.002398259
109	0xbc897e06	-0.016783725
110	0x3b98d11d	0.0046636
111	0x3baf5a0c	0.0053513106
112	0x3c4579d8	0.012052976
113	0xbbd90035	-0.006622339
114	0x3c406c0f	0.011744513
115	0xbc9498f6	-0.018139344
116	0x3c9edacc	0.01939144
117	0x3c09ae46	0.008403366
118	0xbc86bf74	-0.016448714
119	0x3c03156e	0.008000715
120	0x3c1a50c4	0.00941867
121	0x3a133c33	0.00056165754
122	0xbc37ca57	-0.011217675
123	0xbc80192e	-0.015637007
124	0x3c76daea	0.015066842
125	0xbc188dd6	-0.00931116
126	0x3c00f7e8	0.007871605
127	0x3c444953	0.0119803725
128	0xbc9d88ee	-0.019230332
129	0x3b09476c	0.0020947112
130	0x3bd430d9	0.0064755497
131	0x3a899f35	0.0010499718
132	0x3c80b960	0.015713394
133	0xbc69064f	-0.0142226955
134	0xba55b4ae	-0.00081522285
135	0x3c5ddd25	0.0135414945
136	0xbb4ba252	-0.0031072092
137	0x3c8f160e	0.017466571
138	0x3aa488e2	0.0012553001
139	0x3bdba6f8	0.006703254
140	0xbbb008f5	-0.0053721615
141	0x3c5e866a	0.0135818515
142	0x3bf292ad	0.007402739
143	0x3c100054	0.008789141
144	0x3c899fd6	0.016799849
145	0xbc998eee	-0.018744912
146	0x3bd7d98f	0.0065872143
147	0x3c9a0c5a	0.018804718
148	0xbc0d55aa	-0.008626381
149	0xbc87d7cd	-0.016582394
150	0xbc89768e	-0.016780164
151	0x3bdcc907	0.0067378315
152	0x3b76fb86	0.003768654
153	0xbc490e30	-0.012271449
154	0xbb7037d8	-0.003665438
155	0x3c71e943	0.014765087
156	0x3adf5fdc	0.0017042118
157	0xbbf91516	-0.0076013906
158	0x3c1506e9	0.009095886
159	0x3c90cfbe	0.017677184
160	0xbc2a6429	-0.010399857
161	0xbc773606	-0.015088564
162	0xbae7778f	-0.0017659533
163	0x3bdb7ec0	0.0066984594
164	0x3ad8c8f1	0.0016539377
165	0xbc3ceba1	-0.011530788
166	0x3c8658fa	0.01639985
167	0x3b2c2a76	0.0026270426
168	0x3c17231d	0.00922468
169	0x3bde96cc	0.0067928787
170	0x3c5de169	0.0135425115
171	0x3b4f9a34	0.0031677606
172	0x3c983b87	0.018583072
173	0x3c4d2db7	0.012523106
174	0xbc315036	-0.010822346
175	0x3c49a262	0.0123067815
176	0x3c928562	0.017885868
177	0xbc36b725	-0.0111520635
178	0xbbbf3662	-0.0058353404
179	0x3bfbc0c4	0.0076828916
180	0x3c97ec17	0.018545194
181	0x3c261dbe	0.010138927
182	0x3a2a7f64	0.0006503968
183	0x3bb0fe2e	0.0054013943
184	0xbb8721bc	-0.0041238945
185	0x3bed1f7e	0.00723642
186	0xbc3cef3c	-0.011531647
187	0xbbfc7376	-0.0077041937
188	0xb82fa5a0	-4.18775e-05
189	0x3c88e90f	0.016712693
190	0x3c62423f	0.01380974
191	0x3bf2f488	0.0074144043
192	0x3c9e903f	0.019355891
193	0xbb409fa8	-0.0029392038
194	0x3bfd31b9	0.0077268747
195	0x3c9df3d8	0.019281313
196	0xbc126fd9	-0.008937799
197	0xbca1d35e	-0.019754108
198	0x3c8a5523	0.0168863
199	0x3c902606	0.017596256
200	0x3c990862	0.018680755
201	0x3b17d9ec	0.0023170663
202	0x3a9f4997	0.0012152669
203	0x3bc4411a	0.005989206
204	0x3ac23563	0.0014816936
205	0xba83abf0	-0.0010045748
206	0xbc487e20	-0.012237102
207	0xbb838c4c	-0.0040145274
208	0x3bcf59fe	0.0063278666
209	0x3c5a7b9a	0.013335133
210	0x3c6589de	0.014009921
211	0xbc60a083	-0.013710144
212	0x3c5974d3	0.013272482
213	0xbca15cb1	-0.019697519
214	0xbc7d268f	-0.015451088
215	0xbb40fe68	-0.0029448513
216	0x3b501e57	0.0031756365
217	0xbb0b9b1d	-0.0021302172
218	0xbc90556b	-0.017618855
219	0xbca2330f	-0.019799737
220	0x3b92760a	0.0044696378
221	0x3c0bb8f1	0.00852798
222	0xbc617af4	-0.013762224
223	0x3c6a8324	0.014313493
224	0x3a455dd4	0.0007528935
225	0x3c5162ff	0.01277995
226	0xbbb63e28	-0.005561609
227	0xbc009bb1	-0.00784962
228	0x3c5b2931	0.01337652
229	0x3c2f7c42	0.010710778
230	0x3af201eb	0.0018463706
231	0x3c757287	0.014980919
232	0x3c3d5d10	0.011557832
233	0x3c304831	0.010759399
234	0x3c5aad86	0.013347035
235	0xbab41118	-0.0013738004
236	0x3c3f53ec	0.011677723
237	0x3b855947	0.0040694806
238	0xbb8ad210	-0.004236467
239	0x3c9afcc3	0.018919354
240	0x3beb947f	0.007189333
241	0xbc8c989f	-0.01716262
242	0xbc2e2720	-0.010629445
243	0xbc23f35c	-0.010006752
244	0xbb9e20e4	-0.004825698
245	0xbc57728c	-0.013149869
246	0xbbc720e5	-0.0060769194
247	0x3a8db7b6	0.0010812196
248	0x3c331630	0.010930583
249	0x3c693b9e	0.014235405
250	0xbb5b1f59	-0.0033435433
251	0x3a92b5f4	0.0011193142
252	0x3c8d4f4e	0.01724973
253	0xbc051e1e	-0.008124856
254	0xbc7010dc	-0.014652457
255	0xbbd84439	-0.0065999296
