Model/logistic_model.pth (torch, 123330 bytes, 1 tensors)

fc.weight f4 [1, 30442]
00000000: 3ad5 0abc b105 1c3b 0fd8 91bb b9d4 483c
00000010: 7c66 013c a5aa 39bc 4f09 be3b d806 0a3c
00000020: 51f2 74bc 4a9e 36bc c1db 61bb d629 ffbb
00000030: cd88 1d3c 9244 28bc 73f2 21bc de19 3abc
00000040: 88bb 6ebc 8054 12bc 7527 85bb 3c4a 44bc
00000050: 688a 62bc 3fae 2b3c 94e8 4bbc ff54 7d3c
00000060: 3c18 8bbb 7a12 753c 2fd5 103c d508 cf3b
00000070: 5a81 f33b b8a5 8d3b 2165 d23b 1b88 553c
00000080: 00e1 4a3c e80b 94bb 2bfa 873b 5458 9d3b
00000090: 90a8 033c 4273 d73b 95e1 043c b82e d8bb
000000a0: a600 bd3b cc74 333c 770e 413c dc42 52bc
000000b0: 3777 00bc 852b a83b 02a8 5dbc 8080 6dbc
000000c0: 8899 eebb 6a6e f9bb 80cc 5fbc aee8 6b3c
000000d0: e9fd 3bbc 9725 533c ef00 e6bb 6696 1dbc
000000e0: e33b f03b 0d06 1ebc 21ad 36bc 4f5a 6bbc
000000f0: 3f91 173c 4edc 63bc 93e0 28bc c5be debb
00000100: f96e c33b f9f5 4f3a 5600 7bbc cc63 0b3c
00000110: 2da2 1ebc 3af8 36bc 7880 5cbc 7f3b 12bc
00000120: a72a dd3b e597 413c 7928 1fbc 531f 203c
00000130: a368 1c3c 2fef 673c 76e3 f2bb 2817 1abc
00000140: ca55 e53b 3ce1 503c f32d 253c 6dec 51bc
00000150: 9bb8 d23b d527 933b c383 33bc 4dbd ccbb
00000160: c384 433c 7d6f b73b f0d7 573c a212 f43b
00000170: a9bc 23bc fe2d 8cbb da48 79bc da2d 223c
00000180: cfc0 123c 24b0 2dbc a1af 33bc 0fdf 6a3c
00000190: 6071 3ebc 940b 153c b35e 88bb b15f 183c
000001a0: 0368 1d3c 17c3 153c 2c95 8a3b 6df3 41bc
000001b0: 8e91 a63b 6d0b ea3b 63f4 51bc a10d ccbb
000001c0: 7a9b 2d3c 39e5 12bc 4dad 563c 44ed f13b
000001d0: 2c6d 123c 7207 373c 6588 033c 6d82 293c
000001e0: df29 4b3c c230 b13b 1ee0 79bc 37fb 24bc
000001f0: 66aa a5bb e696 553c 10a6 57bc e425 96bb
00000200: 2135 3a3c 3640 2dbc f3a2 803b 4666 a53b
00000210: e07e 283c c57c f83b 79d7 573c 2e68 e83b
00000220: 2d3c 6a3c a3a1 3abc 3c73 623c 95df a73b
00000230: 063b 0d3c 972a b63b 21a9 343c 1eb6 efbb
00000240: a8b1 543c 30a3 bdbb 7e85 12bc b72f 6dbc
00000250: 531c 36bc 35b0 49bc 0631 59bc b388 ef3b
00000260: e601 7c3c ea32 9c3b 1a63 d73b b133 97bb
00000270: e5e5 46bc a7f4 d7bb e69e f93b 70c4 fdbb
00000280: 3bb6 f1bb 117a 343c c4d1 993b 0e36 703c
00000290: 1e12 30bc 0f64 373c 29b4 613c 77e3 17bc
000002a0: 8f61 323c 3b73 41bc d603 473c 9b6b cf3b
000002b0: 01bd ed3b b450 98bb 8506 783b a20e a53a
000002c0: 8b17 a73a d8bd e8bb b7d4 0c3c e01c 68bc
000002d0: c41a 333c e1c9 2ebc a0bb f73b 08c4 2f3c
000002e0: b355 6f3c 6c27 5abc c92c 24bc 1fbc 5b3c
000002f0: 4923 223c c877 28bc 5121 073c d6e1 12bc
00000300: 34a8 0dbc 4f2e 12bc 799c c03b f560 2bbc
00000310: d78f cc3b 3b2b f7bb bd85 073c 2ca6 a73b
00000320: a67f b7bb 451f 5abc fe7e 2c3c cd2b 55bc
00000330: 5f0b 213c 2360 8a3b 19c8 5b3c 4839 783c
00000340: 0b79 30bc c2d0 ce3b 9169 ebbb a518 0ebc
00000350: 0c80 81bb 3ca2 acbb 5668 fabb 0425 b4bb
00000360: 900a 353c 1c73 58bc bb25 1bbc eadf 903b
00000370: c7b1 08bc 49f7 213c 38e7 43bc b022 0f3c
00000380: 81d5 533c 928f b83b 4e01 4dbc f5fe dfbb
00000390: b202 1cbc cd30 55bc 0c3d f6bb 1782 78bc
000003a0: 6eec 983b fa53 03bc 9e73 c83b 7eb7 e93b
000003b0: f5d6 073c 133c 493c 327e 54bc 81b0 2d3c
000003c0: 4d43 3f3c cc96 4f3c b3ce 33bc a98f 44bc
000003d0: c8e0 d23b d082 4fbc 5976 353b 092e 34bc
000003e0: e993 3d3c 669a 6a3c 2b44 513c 6dc0 223c
000003f0: 3dcb 413c 8776 6cbc 6ca4 383c acf3 583c
-0.008473689 0.0023807103 -0.004450805 0.012257748 0.007897969 -0.011332189 0.0057994495 0.008424483
-0.014950351 -0.0111461375 -0.003446326 -0.0077869697 0.009615135 -0.010270255 -0.009884465 -0.011358706
-0.014571078 -0.008931279 -0.0040635415 -0.0119805895 -0.013826944 0.010478555 -0.012445588 0.015462159
-0.0042448323 0.014958018 0.008839889 0.0063181915 0.0074311914 0.0043227337 0.006420747 0.013032938
0.012382746 -0.004518021 0.0041496954 0.0048017893 0.008035794 0.006575019 0.008110424 -0.006597366
0.0057678996 0.0109531395 0.011783234 -0.012833323 -0.007840923 0.005132141 -0.013528826 -0.014495969
-0.007281486 -0.0076120393 -0.013659596 0.014398737 -0.011474111 0.01288738 -0.0070191543 -0.009618377
0.007331358 -0.009644997 -0.011149676 -0.014364793 0.009250938 -0.013907505 -0.010307449 -0.006797644
0.0059641567 0.0007933076 -0.015319904 0.00850768 -0.00968222 -0.01116758 -0.013458364 -0.008925318
0.0067494693 0.011816 -0.009714239 0.009773093 0.009546432 0.014156147 -0.0074123694 -0.009404935
0.0069987522 0.012749013 0.010081756 -0.012812716 0.006430698 0.0044908323 -0.010956707 -0.0062481523
0.011933508 0.0055980072 0.013174042 0.0074485103 -0.009993711 -0.0042779436 -0.015215123 0.009898627
0.008957102 -0.010601077 -0.010967166 0.014335408 -0.01162371 0.009096999 -0.0041616797 0.009300158
0.009607318 0.009140751 0.0042292085 -0.011837822 0.0050832694 0.0071424753 -0.012814614 -0.0062272106
0.0105961505 -0.008965784 0.013102842 0.0073830206 0.008937161 0.011171209 0.008028124 0.010346037
0.01240012 0.0054074237 -0.015251188 -0.01006966 -0.0050557135 0.013036465 -0.013162151 -0.0045821536
0.011365206 -0.010574391 0.003925675 0.0050475923 0.010284156 0.007583233 0.013173931 0.0070924973
0.014296574 -0.011391076 0.013821419 0.0051230886 0.008620029 0.0055592763 0.011026652 -0.007315411
0.01298181 -0.0057872757 -0.00894296 -0.014476708 -0.011115151 -0.012310077 -0.013256317 0.007309997
0.015381312 0.0047668116 0.006573093 -0.0046143164 -0.012139772 -0.006590444 0.007617819 -0.0077443644
-0.00737646 0.011015431 0.0046941955 0.014661325 -0.010746507 0.011193289 0.013775864 -0.00927054
0.010887518 -0.011807258 0.012146911 0.0063299662 0.007255197 -0.0046482924 0.0037845683 0.0012592862
0.0012748105 -0.0071027093 0.008595637 -0.014167041 0.010931674 -0.010668249 0.0075602084 0.01072789
0.014607835 -0.013315063 -0.010020443 0.013411551 0.009896108 -0.010282464 0.008247689 -0.008964976
-0.00864606 -0.008922174 0.005878028 -0.010460128 0.006242733 -0.0075429953 0.008271632 0.005116245
-0.0055999337 -0.013313119 0.010528324 -0.013010931 0.009829371 0.004222886 0.013414406 0.015150376
-0.010771046 0.006311507 -0.0071842154 -0.008672868 -0.003952032 -0.0052683633 -0.0076418323 -0.0054975767
0.011049882 -0.013211038 -0.009469445 0.004421224 -0.008343167 0.0098856175 -0.011956982 0.0087362975
0.012929321 0.0056323493 -0.012512518 -0.006835813 -0.009522127 -0.013012123 -0.0075146016 -0.015167735
0.0046668565 -0.008015627 0.0061172983 0.0071324697 0.008290996 0.012282389 -0.01296954 0.010601164
0.011673761 0.01267023 -0.010974574 -0.011997142 0.0064354874 -0.0126654655 0.002768895 -0.010997304
0.011570909 0.014319038 0.0127726 0.009933573 0.011828241 -0.014432556 0.01126967 0.01324169
