Model/model.pth (torch, 74060 bytes, 1 tensors)

fc.weight f4 [1, 18151]
-0.0056358436 -0.0007866272 -0.0023191064 -0.002833747 -0.005575123 0.002387867 -0.0069572465 -0.0037864859
-0.0053314576 0.0067886664 -0.0028266597 0.0029968661 0.005962992 0.0007092623 -0.0056808367 -0.0051868455
-0.0062571573 2.8758973e-06 0.0010216441 -0.0026724564 0.0021846052 0.0010791474 -0.0021361432 0.0025308807
-0.0049501862 -0.00013936902 -0.005450926 0.0029436199 -0.005870887 -0.0016101421 0.0014493851 -0.002104148
-0.004077517 0.001512542 -0.0050516934 0.0058598695 0.0025914162 0.006550981 -3.308165e-05 -0.0015207154
-0.0073358775 -0.0052602813 0.0018632855 -0.006751382 -0.0056849094 -0.0009361957 -0.0038020618 -0.0010931847
0.0022016815 -0.0004573389 0.0001469809 -0.0013205942 -0.0011736208 0.0023050364 0.0063727745 0.005105405
-0.0049456237 -0.003934756 0.0021056936 -0.0026122807 0.0069615026 0.0023608753 0.002099543 0.007390045
0.0056542805 -0.0042450037 0.0022769538 -0.0013389401 0.004070446 0.005590193 -0.004674038 0.0013193283
-0.003397742 -0.0049393666 -0.003134046 -0.0070665698 0.005521855 -0.0069542304 0.006471606 0.0016857894
0.0006027715 0.005671137 -0.006484872 -0.0051312502 0.0038254112 0.0050027575 -0.0050249496 0.0023491243
-0.0038858356 -0.00019370031 -0.0005925662 0.002422319 0.0021155684 0.0041211066 -0.0035117408 -0.0041964184
0.005690399 -0.004431772 0.0013309484 -0.0034638848 0.0011422294 -0.0022295658 -0.0042386795 -0.0053045633
-0.006462205 0.0014263989 -0.003798868 0.00513444 -0.006363103 0.0074021304 -0.0073504625 0.0021405828
-0.0027142449 -0.00301853 -0.0008471887 -0.0006322297 -0.0056245737 0.0039460366 0.005922227 0.0070556216
0.0066804686 -0.0062013958 0.0036261291 0.00528237 -0.0070409924 0.0041711368 -0.0065394305 -0.0052584163
-0.006348704 0.0035541556 0.00677089 -0.00014034632 0.0027548184 -0.006368936 0.001086753 0.0011768868
0.0066088275 0.0072595514 0.0061512655 0.000842776 -0.0043520248 0.0039481726 -0.0022963532 0.0054752612
-0.004216321 -0.0035679247 -0.0017793495 0.0009646142 0.0048977314 0.005736946 -0.005143356 -0.004982195
0.00029903837 -0.0016388369 -0.0014284295 -0.004286796 -0.0015185311 -0.0025808397 0.0029359704 0.0069971946
0.003096663 -0.0071411487 -0.0038347591 -0.0054734917 0.0029892304 0.0014303128 -0.0016201397 -0.0044464665
0.00062149344 0.006747679 -0.006216194 0.0043133786 -0.0012276829 0.002772903 0.0044783717 0.005848036
0.0063174576 0.0045453524 -0.00030330473 0.0021190634 0.0010268594 -0.006013851 -0.0039288243 0.00736726
-0.0063374382 0.0003808996 0.0015250867 0.0057811826 -0.005954745 0.007308581 0.0066971034 0.0059036165
-0.004240521 -0.0009918861 -0.0032209558 -0.0011866644 -0.0026748502 0.003940274 -0.0017944277 -0.00011755668
-0.005516794 0.003569122 0.0021231915 -0.005259582 -0.0012716798 0.0061917882 0.0027832678 -0.0048611704
-0.00041784797 -0.0048834435 0.0019251563 0.0015253003 0.0072419033 0.0007509126 0.0024033645 0.0053722616
0.007223006 -0.003419652 -0.0037798553 -0.0017549498 -0.0056670364 -0.0010726114 0.00016861611 -0.004334599
-0.0055820844 0.0041672736 0.004705304 0.006718449 0.0054633035 -0.0017729603 -0.003255611 0.006914115
0.00256899 0.0064938776 0.0070494977 0.003223873 0.007104884 -0.00031354744 -0.004368251 0.0013786778
0.0019271784 0.0069196085 -0.0068755834 0.004525477 0.005624971 6.358607e-05 -0.0010057351 -0.00064242503
0.0048837834 0.0059647113 0.0019501045 -0.00030670548 -0.0012208837 0.0027252128 -0.0045303823 0.0014025738
00000000: e2ac b8bb a835 4eba 26fc 17bb 63b6 39bb
00000010: 85af b6bb c37d 1c3b 9df9 e3bb b126 78bb
00000020: 82b3 aebb 7673 de3b 7b3f 39bb 1267 443b
00000030: 3465 c33b caed 393a 5026 babb 6af6 a9bb
00000040: d708 cdbb 8aff 4036 b0e8 853a 6124 2fbb
00000050: 982b 0f3b 2e72 8d3a 89fe 0bbb 22dd 253b
00000060: 2c35 a2bb 9623 12b9 ae9d b2bb bfe9 403b
00000070: 9260 c0bb 670b d3ba 4bf9 bd3a bfe5 09bb
00000080: b19c 85bb 7d40 c63a ad88 a5bb 2604 c03b
00000090: c0d4 293b 9da9 d63b 27c1 0ab8 be52 c7ba
000000a0: cd61 f0bb 705e acbb 7d39 f43a b23a ddbb
000000b0: 7a48 babb 086b 75ba 032c 79bb 3149 8fba
000000c0: 164a 103b fdc6 efb9 e31e 1a39 ca17 adba
000000d0: 2ed4 99ba 1810 173b b5d2 d03b 3e4b a73b
000000e0: e60e a2bb 20ef 80bb adff 093b cc32 2bbb
000000f0: 511d e43b eab8 1a3b 7d98 093b 3128 f23b
00000100: 8b47 b93b ac19 8bbb f238 153b 607f afba
00000110: 6061 853b f02d b73b ac28 99bb 50ed ac3a
00000120: a7ac 5ebb 69da a1bb 9164 4dbb af8e e7bb
00000130: adf0 b43b 50e0 e3bb c40f d43b b5f5 dc3a
00000140: 5003 1e3a f2d4 b93b 0d7f d4bb 0c24 a8bb
00000150: c0b3 7a3b 2cee a33b 55a8 a4bb c4f3 193b
00000160: 81a9 7ebb 081c 4bb9 7256 1bba c5bf 1e3b
00000170: 59a5 0a3b 590a 873b 3c25 66bb 1c82 89bb
00000180: 8776 ba3b 6638 91bb 3873 ae3a 5802 63bb
00000190: dcb6 953a e81d 12bb 9fe4 8abb e7d1 adbb
000001a0: e8c0 d3bb 01f6 ba3a 6ef6 78bb ce3e a83b
000001b0: 9481 d0bb 928d f23b 26dc f0bb 0549 0c3b
000001c0: 79e1 31bb 88d2 45bb df15 5eba 38bc 25ba
000001d0: 584e b8bb c14d 813b 3e0f c23b d832 e73b
000001e0: d5e7 da3b 1435 cbbb 5aa4 6d3b bb17 ad3b
000001f0: 20b8 e6bb 08ae 883b b848 d6bb cb4e acbb
00000200: ca08 d0bb d6ec 683b 58de dd3b ee29 13b9
00000210: 2f8a 343b 82b2 d0bb 6171 8e3a c541 9a3a
00000220: dd8e d83b 88e1 ed3b 8e90 c93b bded 5c3a
00000230: 6e9b 8ebb ac5f 813b 6a7e 16bb d269 b33b
00000240: 1029 8abb d8d3 69bb 1039 e9ba 2ade 7c3a
00000250: 267d a03b fefc bb3b 9989 a8bb ae41 a3bb
00000260: 40c8 9c39 3ece d6ba 243a bbba 4078 8cbb
00000270: 7309 c7ba 4e23 29bb 6969 403b b948 e53b
00000280: 62f1 4a3b 4c00 eabb 9550 7bbb fa5a b3bb
00000290: f7e6 433b 5579 bb3a de5a d4ba aab3 91bb
000002a0: b8eb 223a a21b dd3b 37b1 cbbb 3e57 8d3b
000002b0: 34ea a0ba 98b9 353b 4ebf 923b e2a0 bf3b
000002c0: ad02 cf3b 2ef1 943b df04 9fb9 fcdf 0a3b
000002d0: af97 863a d70f c5bb 5ebd 80bb 0e69 f13b
000002e0: 49aa cfbb 7bb3 c739 6be5 c73a 1370 bd3b
000002f0: 0620 c3bb d27c ef3b 6073 db3b 2073 c13b
00000300: 12f4 8abb 2d02 82ba ac16 53bb da89 9bba
00000310: 8a4c 2fbb 6a1d 813b 0133 ebba c388 f6b8
00000320: 39c6 b4bb eee7 693b 3e25 0b3b 9258 acbb
00000330: 7eae a6ba 7ce4 ca3b 7c67 363b 744a 9fbb
00000340: 9b12 dbb9 4b05 a0bb 8755 fc3a 96ec c73a
00000350: 7d4d ed3b e4d8 443a c481 1d3b cc09 b03b
00000360: f7ae ec3b 3e1c 60bb 73b7 77bb 5806 e6ba
00000370: 8cb2 b9bb de96 8cba 8bce 3039 4009 8ebb
00000380: ebe9 b6bb a08d 883b f32e 9a3b 6f26 dc3b
00000390: 8305 b33b ad62 e8ba 175c 55bb cd8f e23b
000003a0: 805c 283b 98ca d43b 79ff e63b 9d47 533b
000003b0: 16d0 e83b a063 a4b9 8c23 8fbb c0b4 b43a
000003c0: 6099 fc3a e2bd e23b 934c e1bb 744a 943b
000003d0: ad51 b83b 8359 8538 dfd2 83ba 6a68 28ba
000003e0: 2508 a03b a073 c33b a69a ff3a 50cd a0b9
000003f0: 0f06 a0ba 7c99 323b 9a73 94bb 91d6 b73a
