Model/model.pth (torch, 9420 bytes, 2 tensors)

fc.weight f4 [4, 500]
00000000: 900a 6c37 c7c4 8738 5d5c ab3d a48c 7539
00000010: 40d9 57bc 6c25 29ba 4d87 1a38 2d4f 463d
00000020: b3cd d038 91b6 7638 7795 96bc 1fea 333c
00000030: ddf0 92bc aaf1 d5bc a709 06be 07ff c8bd
00000040: ae06 2bbd 7f60 babd 85a2 b9b8 37d1 9d3c
00000050: 1ad5 1439 afdd f838 04fd 8e39 c7b1 443d
00000060: 1b20 c3bd 81f5 f8bc dcbd 69b5 5f81 9ebc
00000070: f492 e835 e7cf 923d 65d1 61bc 0e93 cab8
00000080: a3be 05bd 9cd7 0a39 ef21 1735 df46 003c
00000090: 6d03 313c 8ecc 4a37 c14a 14bd 058a 68bb
000000a0: 858b 063a 1b44 07bb ea6c 7638 23e1 8f3d
000000b0: b8ed bb3c add3 6fbd 1ca7 f8b4 5e4f 9db6
000000c0: 1253 093a 8e29 833d 5e5f 4335 2dc7 fc37
000000d0: 3963 323d d318 3437 1829 a3b4 8676 0d37
000000e0: 37fc 37bc 8f47 853c f698 1fbd ca75 1539
000000f0: 6338 adb7 60e8 8d3b d9e4 bc3d 8390 2cbd
00000100: 62e0 6a35 ff6e 873c 9b87 0bb6 d44b 50b8
00000110: 2093 20b9 d8b4 6cba d756 72ba 1029 cb3c
00000120: 3fb8 2fb7 8301 3c39 2f17 a137 8416 4d3b
00000130: 6c49 1438 5dd9 993d 969d e1bd 6fdd a636
00000140: f296 c73b 26b8 ee3c 35c3 203d d16f 9dba
00000150: 81e0 64bc 7241 46bd 3cc6 91b8 6112 4c38
00000160: 60c1 13bd a1f8 f5ba 6c80 55b8 b848 d939
00000170: 2e07 19ba eee6 183a b879 933a face 3b38
00000180: b250 8d37 22e0 b93c b7a0 e4b8 10bf 9337
00000190: 2671 d73b bfed a836 9800 8fb9 dc42 f837
000001a0: 6ef1 5538 bf3f 04b8 a425 2939 cbc1 19b9
000001b0: 34df 78b7 3575 12b8 4d0e bf3a 24a3 5e3d
000001c0: 0ab8 b7bc c4fd 5e3c 45f8 4938 42fa 283d
000001d0: 9266 4339 53a7 50b8 4c80 f0ba 11be 8ebc
000001e0: 5153 c4bd 36f5 59bc 69b8 35ba 9ea7 f636
000001f0: 51ee ec36 f042 ac37 bebe f937 7888 453d
00000200: 9ce3 5ab7 bd00 87b8 6458 8238 cebe 4538
00000210: 5619 d637 8224 1836 df1c 553a d115 973b
00000220: a0cd 1e3a 9abf 74b9 271d 0cbd dc48 2cbd
00000230: 02e7 1c3d 3488 f5b7 6464 71b8 6ca1 94bd
00000240: 6b4f 0c3d 32e6 9a3c 1956 153b 8dcc fcba
00000250: 3559 a4b8 75d4 1a3c 3118 9239 5cba a6b8
00000260: f23f 5cb6 da71 273b 4892 31b9 d34d b6bc
00000270: 1fac 6838 f229 c5b4 895f 0ebd 9a23 beb7
00000280: f2a9 0cb8 58bf f2b4 7c50 0637 7ef8 8d37
00000290: 98d2 7abc a5df 453c 9b82 a837 31c9 0b39
000002a0: 2842 beb9 0745 d83a 8c62 de39 62f1 4fb8
000002b0: 79f6 93b8 3d82 d53a e558 e33d b127 17b9
000002c0: a0e2 3b3d 322f c93d 7de9 8739 9eee 743d
000002d0: 5570 cebd b02e b83d 1fb2 a33c c11c aabd
000002e0: 0828 c437 8140 c536 b81f 0cb3 82a8 1eb9
000002f0: da04 82b9 5a4a 52b7 b136 e338 e37e 83b8
00000300: 1cf4 18ba 4e1c 9e38 3da6 5138 fe3a 0f37
00000310: d480 9038 8c22 21bd 3bf5 1d3c 2197 7e3d
00000320: aeb6 1a38 6224 97bc 949a c0bc 283a 2bbb
00000330: 1b0d 853c 227e 7938 99b3 f13b c01d 5ab9
00000340: c876 68bd 2a28 0b3b b505 2637 f68c 6cbd
00000350: 38ee 5338 119e 8338 6273 88bb 6321 57b8
00000360: 7458 9837 9fef 7a3d a01b 3236 eeba b538
00000370: fe44 ec3a 94a4 483e 8808 ecbd f167 a8bc
00000380: 022d fe3c b600 923c 8e2e f53b e8ec 82bc
00000390: ff2e 1838 c340 15b8 147a 25b8 1848 fe37
000003a0: d34c fc3d 760e 4e37 7acf e3b7 c065 1f34
000003b0: 3ebf 86b8 014b 9cbd ddbb 2eb9 2242 10bc
000003c0: 3293 53b8 6e91 4bb9 d2fc 5038 bb68 82b5
000003d0: 4556 8937 1756 2f3a 963a 5db9 a980 26bd
000003e0: 4b7e 5038 1976 4939 9f3f 81bc b287 afbc
000003f0: 2b15 06bc 41f2 afb7 f697 3738 f7c2 de3b
1.4069155e-05 6.473954e-05 0.08367226 0.00023417413 -0.013174355 -0.00064524147 3.684247e-05 0.04841535
9.956527e-05 5.8821e-05 -0.018381817 0.010981112 -0.017937118 -0.026116211 -0.1308962 -0.098142676
-0.041754417 -0.091004364 -8.851759e-05 0.0192648 0.00014193766 0.00011866853 0.00027272862 0.048021104
-0.09527608 -0.030390503 -8.7075546e-07 -0.019348798 1.7328116e-06 0.071685605 -0.013782834 -9.659502e-05
-0.03265251 0.00013241026 5.6301263e-07 0.007829397 0.010804039 1.2087765e-05 -0.036204103 -0.0035482657
0.00051324844 -0.002063996 5.8752405e-05 0.07025363 0.022940502 -0.05855148 -4.6315188e-07 -4.688204e-06
0.00052385137 0.0640441 7.278194e-07 3.013349e-05 0.043551657 1.0734616e-05 -3.0391016e-07 8.431851e-06
-0.011229566 0.016269473 -0.038964234 0.00014253627 -2.0649464e-05 0.00433068 0.09223337 -0.042130005
8.7498313e-07 0.01653242 -2.0791547e-06 -4.9661685e-05 -0.00015313597 -0.00090296334 -0.00092445075 0.024799854
-1.0473711e-05 0.0001792964 1.9203491e-05 0.0031293938 3.535433e-05 0.07512162 -0.11016385 4.972964e-06
0.006090992 0.029140543 0.039248664 -0.0012011473 -0.0139695415 -0.048402257 -6.951063e-05 4.8654507e-05
-0.03607309 -0.0018766114 -5.090276e-05 0.00041443645 -0.00058375567 0.0005832751 0.0011251485 4.4777036e-05
1.6846087e-05 0.022689883 -0.00010901823 1.7612736e-05 0.0065747676 5.0344674e-06 -0.00027275528 2.9595038e-05
5.1008006e-05 -3.153062e-05 0.00016131118 -0.0001466341 -1.483392e-05 -3.491827e-05 0.0014576406 0.0543548
-0.022426624 0.013610307 4.8153353e-05 0.04125429 0.0001863486 -4.9746897e-05 -0.0018348782 -0.017424615
-0.09586204 -0.013303092 -0.00069320813 7.3508845e-06 7.0610918e-06 2.0535168e-05 2.9771934e-05 0.04822585
-1.3046807e-05 -6.437439e-05 6.215347e-05 4.714616e-05 2.5522586e-05 2.2671015e-06 0.00081296073 0.004610755
0.0006057862 -0.0002334103 -0.03420749 -0.04206167 0.038306244 -2.92697e-05 -5.7552374e-05 -0.07257351
0.034255426 0.018908594 0.0022786914 -0.0019287035 -7.8367455e-05 0.009450068 0.00027865314 -7.950209e-05
-3.2819776e-06 0.0025550039 -0.0001693453 -0.022253906 5.547341e-05 -3.672463e-07 -0.03475908 -2.2666343e-05
-3.3536875e-05 -4.5215234e-07 8.005762e-06 1.6924223e-05 -0.0153089985 0.012077247 2.0087979e-05 0.00013331023
-0.00036288914 0.0016500064 0.00042416563 -4.957745e-05 -7.055415e-05 0.0016289424 0.1110094 -0.00014415268
0.045870423 0.09823455 0.0002592317 0.059797876 -0.100800194 0.0899328 0.019982396 -0.083062656
2.3383662e-05 5.8785668e-06 -3.2625138e-08 -0.00015130828 -0.00024799147 -1.2534287e-05 0.000108343906 -6.270201e-05
-0.0005834715 7.539299e-05 4.9984304e-05 8.537199e-06 6.890451e-05 -0.039339587 0.009640987 0.062155847
3.6886595e-05 -0.018449966 -0.023511209 -0.0026127193 0.0162416 5.9483697e-05 0.007376146 -0.00020801183
-0.056753904 0.0021233656 9.8957e-06 -0.05775162 5.052818e-05 6.276009e-05 -0.0041641453 -5.129109e-05
1.8161001e-05 0.061263677 2.6540147e-06 8.665571e-05 0.0018025932 0.19594032 -0.11525065 -0.020557376
0.03102732 0.017822605 0.0074823564 -0.015982106 3.6283393e-05 -3.5584682e-05 -3.945276e-05 3.031273e-05
0.123193406 1.2281924e-05 -2.7157123e-05 1.4845045e-07 -6.4252396e-05 -0.07631493 -0.00016663918 -0.00880483
-5.0443407e-05 -0.00019413765 4.982652e-05 -9.716235e-07 1.6371845e-05 0.00066885486 -0.00021098027 -0.040650044
4.9708684e-05 0.00019212849 -0.015777407 -0.02142701 -0.008183758 -2.0974434e-05 4.3772125e-05 0.006798144

fc.bias f4 [4]
00000000: 903d e43e 471c 8b3b 2c21 1fbe 0865 77be
0.44578218 0.0042453143 -0.15539998 -0.24159634
