Model/model.pth (torch, 2636 bytes, 2 tensors)

fc.weight f4 [3, 100]
0	0xbe27a9e6	-0.16373405
1	0xbdb97d74	-0.090571314
2	0xbe3e3502	-0.18574908
3	0x3eac80bc	0.33691967
4	0x3e4a5200	0.19757843
5	0xbe991af0	-0.29903364
6	0x3e05565d	0.13021226
7	0x3eb6f165	0.35731044
8	0xbdb42089	-0.08795268
9	0xbdad2697	-0.08454626
10	0x3df75024	0.120758325
11	0x3d029441	0.031879667
12	0x3b6ecbc7	0.0036437379
13	0xbc3bb1ee	-0.011455996
14	0x3e2c54b4	0.16829187
15	0xbe78d942	-0.24301627
16	0x3e48e005	0.19616707
17	0x3e315dee	0.17320988
18	0xbea51b00	-0.32247162
19	0x3e86def5	0.26341978
20	0xbe8f0a0a	-0.27937347
21	0x3d09a45c	0.03360401
22	0xbe4aa335	-0.19788821
23	0xbea150e7	-0.31507036
24	0xbead1109	-0.3380206
25	0xbd072b42	-0.03300024
26	0xbe354324	-0.17701393
27	0xbd1d2902	-0.038369186
28	0xbe9cf83e	-0.30658144
29	0xbe94c7ac	-0.29058588
30	0x3d64d7f2	0.055870004
31	0xbe9a3c47	-0.30124113
32	0xbd636b8f	-0.055522498
33	0xbdfef417	-0.124489
34	0x3dfb8cd9	0.12282724
35	0x3e086638	0.13320243
36	0x3e123262	0.14277032
37	0xbe8d0ef3	-0.27550468
38	0x3e56f973	0.20993595
39	0xbd400404	-0.04687883
40	0xbe01a17e	-0.1265926
41	0xbe073a18	-0.13205755
42	0x3c21e69b	0.009881641
43	0xbcd3d68e	-0.025859144
44	0x3e609ada	0.21934071
45	0xbe6427e1	-0.22280838
46	0xbe5fb2d9	-0.21845569
47	0xb8bcf3e7	-9.009969e-05
48	0x3d9ba393	0.07599559
49	0x3dbe140a	0.09281166
50	0x3dd9c411	0.106331
51	0xbe818aba	-0.25301152
52	0xbeaf5f29	-0.3425229
53	0x3e751f3a	0.23937693
54	0x3d1fddc3	0.039029848
55	0xbe3a2e27	-0.18181668
56	0xbd9b2ea9	-0.07577259
57	0x3dadc0fc	0.084840745
58	0xbe816450	-0.25271845
59	0x3e512ef6	0.2042807
60	0xbeabdcbe	-0.3356685
61	0xbdfc55b1	-0.12321032
62	0x3c5828a4	0.013193283
63	0xbe7002a5	-0.23438509
64	0xbdaf6bb2	-0.08565463
65	0xbd329ac0	-0.043604612
66	0xbe1a6137	-0.15076147
67	0x3e894dac	0.2681707
68	0x3d1178fa	0.035515763
69	0x3e74df30	0.23913264
70	0xbde56495	-0.11200825
71	0xbd81207a	-0.063050225
72	0xbd6a7a2f	-0.05724543
73	0x3e0d097a	0.13773146
74	0x3ec27cfc	0.3798598
75	0xbec40bc6	-0.38290232
76	0xbd72bef6	-0.059264146
77	0x3e65df4b	0.22448461
78	0xbe9da92d	-0.30793133
79	0x3dc78b37	0.0974335
80	0xbd41f970	-0.047357023
81	0xbe42f683	-0.1903935
82	0xbe545b2e	-0.20737907
83	0x3e0d405d	0.13794084
84	0xbe540fd4	-0.20709163
85	0xbe501fef	-0.20324682
86	0x3d8f6659	0.07001943
87	0xbde1aefe	-0.11019705
88	0x3d98fc5e	0.0747001
89	0x3e130d7d	0.14360614
90	0xbe5afa89	-0.21384634
91	0xbd06525a	-0.03279338
92	0xbea8dd6f	-0.3298144
93	0x3e284aa3	0.16434722
94	0xbdf76e59	-0.12081594
95	0xbcdce21d	-0.026963288
96	0xbcf3bf8a	-0.029754419
97	0xbdedaf74	-0.11605731
98	0x3db3d28e	0.087803945
99	0xbe78ee6c	-0.243097
100	0x3dfe7ea1	0.12426496
101	0xbd8c86ef	-0.06861674
102	0x3e0f5e6d	0.14000864
103	0xbda06be3	-0.07833078
104	0xbc28a114	-0.01029231
105	0x3e9fcf61	0.31212905
106	0xbe4a3f87	-0.19750796
107	0xbe9c90e9	-0.30579308
108	0x3d99c808	0.07508856
109	0x3e466e1f	0.19377945
110	0xbe4425b7	-0.19155012
111	0x3c3cf0e2	0.01153204
112	0x3d10fc77	0.03539702
113	0xbe2f7a1d	-0.17136426
114	0xbd9e4022	-0.07727076
115	0x3e8c4328	0.27394986
116	0x3d5db248	0.0541251
117	0xbe840d92	-0.25791603
118	0x3e852576	0.26005143
119	0x3dc3acc3	0.09554436
120	0x3e1a3534	0.15059358
121	0xbe8a63d3	-0.27029285
122	0xbd54bffd	-0.051940907
123	0x3e97f8b8	0.29681945
124	0x3f0e773c	0.5565069
125	0x3d135d52	0.03597767
126	0x3d0851a9	0.033281002
127	0xbe093bb5	-0.13401683
128	0xbdf2b436	-0.11850779
129	0x3ea285e7	0.31742784
130	0x3ce41474	0.027841784
131	0x3e12d205	0.14337929
132	0xbb4ca707	-0.0031227486
133	0x3eb2f979	0.34955958
134	0x3e65e447	0.22450362
135	0x3e8a8e8e	0.27061886
136	0xbdb6f226	-0.08932905
137	0x3e6d5008	0.23175061
138	0xbe68b033	-0.22723465
139	0x3d91df57	0.07122677
140	0xbcdf1aea	-0.027234513
141	0x3d4e7cab	0.05041186
142	0x3e6d1228	0.23151457
143	0x3da9ab4b	0.08284625
144	0xbcd004cb	-0.02539291
145	0xbc5109fc	-0.012758728
146	0xbe0f8460	-0.14015341
147	0xbe81b543	-0.25333604
148	0xbd0ee510	-0.03488642
149	0xbe3b1a53	-0.1827176
150	0xbd1b40f6	-0.03790375
151	0xbe44ffae	-0.19238159
152	0x3dd485d2	0.10377087
153	0xbe21e9e0	-0.15811872
154	0x3de59878	0.11210722
155	0x3e2be40f	0.16786216
156	0xbd7e91e7	-0.062150862
157	0xbd7b7d1e	-0.061398618
158	0x3eaf13a6	0.34194678
159	0x3caa4663	0.020785516
160	0x3e91fbc7	0.28512403
161	0x3ec1517e	0.37757486
162	0xbec3ba0e	-0.38227886
163	0x3ea98901	0.33112338
164	0x3f042535	0.51619273
165	0xbe337977	-0.17526804
166	0x3e0cd61a	0.13753548
167	0xbee06a71	-0.43831208
168	0x3cf4488a	0.029819746
169	0xbe08400c	-0.13305682
170	0x3d69bafc	0.057063088
171	0xbd44e8d0	-0.04807359
172	0xbe01e3ee	-0.12684605
173	0xbe67d48a	-0.22639671
174	0xbe6509f9	-0.22367086
175	0x3ebe776e	0.37200493
176	0x3c94f7b8	0.018184528
177	0xbd563b19	-0.052302454
178	0x3e4d7cbf	0.20067118
179	0x3e29a019	0.16564979
180	0x3cdc61c2	0.026902083
181	0x3e3050f1	0.17218377
182	0x3e99c7b1	0.30035165
183	0x3df255a4	0.11832741
184	0xbea60d05	-0.32431808
185	0x3ea63226	0.32460135
186	0xbe42f972	-0.19040468
187	0xbe6003aa	-0.21876398
188	0xbb69d1d4	-0.0035678046
189	0xbc2b8351	-0.01046832
190	0x3e8fc5de	0.28080648
191	0xbe05b3ff	-0.13056944
192	0x3e55c3f3	0.2087553
193	0xbe0b6ab2	-0.1361492
194	0x3e014697	0.12624584
195	0xbe8c7208	-0.2743075
196	0x3e23858c	0.15968913
197	0xbd9a1479	-0.07523436
198	0xbeab8c69	-0.33505562
199	0x3d83a845	0.06428579
200	0x3d216536	0.039403163
201	0x3e22e9d6	0.15909514
202	0x3d35d044	0.04438807
203	0xbe84942c	-0.25894296
204	0xbe3ef3a0	-0.18647623
205	0xbc65e572	-0.014031755
206	0x3d872211	0.065982945
207	0xbd5038cd	-0.05083542
208	0x3c52b192	0.012859719
209	0xbddfa812	-0.10920729
210	0x3d914495	0.07093159
211	0xbd31bcbe	-0.04339289
212	0xbd205bd6	-0.03915008
213	0x3e3ba1df	0.18323468
214	0xbdbac70d	-0.09119997
215	0xbcfb9343	-0.030709868
216	0xbe8056af	-0.25066134
217	0x3daf2f35	0.08553926
218	0x3d80820b	0.06274804
219	0xbeb6f86a	-0.357364
220	0x3e0369b2	0.12833288
221	0x3e7277ce	0.23678514
222	0x3e800e26	0.25010794
223	0x3c9375d1	0.018000515
224	0xbe5f9707	-0.21834956
225	0xbb7189d4	-0.0036855834
226	0x3e147fb0	0.14501834
227	0x3e30016a	0.1718804
228	0x3ed9f506	0.4256975
229	0xbcdfcf1e	-0.02732044
230	0xbdaad2a4	-0.08340958
231	0x3e216f61	0.15765144
232	0x3d72145c	0.059101447
233	0xbe67a057	-0.22619759
234	0xbeb23f94	-0.3481413
235	0xbece9eb9	-0.4035547
236	0xbd632833	-0.05545826
237	0x3d35d03a	0.044388033
238	0x3c912135	0.01771603
239	0xbcc65c7e	-0.024214026
240	0x3e1e4655	0.15456517
241	0x3da9517a	0.082674935
242	0xbe770316	-0.24122271
243	0xbd6b3875	-0.05742689
244	0xbe4744e0	-0.19459867
245	0x3e712c0d	0.2355196
246	0x3eb7d6f7	0.35906193
247	0x3e816ba0	0.25277424
248	0xbd2a827b	-0.041628342
249	0x3db97ff0	0.09057605
250	0xbd8db1fc	-0.069187135
251	0x3ee4a5e6	0.4465782
252	0x3e756047	0.23962508
253	0xbda812c4	-0.08206704
254	0xbe1b38c9	-0.1515838
255	0x3c68b984	0.014204387

fc.bias f4 [3]
0	0xbee53d71	-0.4477344
1	0x3ece2fa3	0.4027072
2	0x3d3276e4	0.043570414
