Model/model.pth (torch, 314252 bytes, 2 tensors)

fc.weight f4 [3, 26068]
-0.00061886304 -0.0062724063 6.4546366e-05 -8.122012e-05 -0.00031052937 -0.00019700757 8.7008804e-05 -0.008662678
-0.0032076784 -0.05207065 -0.028452046 -0.0019146771 -0.007847401 -0.005505416 -0.00045627565 -0.0050411616
-5.986589e-05 -0.00038253938 -0.0026479422 -0.00284381 0.009746607 -0.0033783552 -8.746531e-05 -8.541494e-05
-0.004584018 -0.003902635 -0.0016161943 -0.0014860586 0.008779183 0.00023695998 -1.3119269e-06 -0.0027076704
0.0065492294 -0.022488697 -0.005751242 -0.0664957 -0.0055859974 0.007859974 -0.06702074 -0.003818816
-0.00058267853 -0.0019729799 0.004401723 0.0093803825 -0.0043721637 0.012412213 -0.009936464 -0.009296818
-0.003452247 -0.011840478 -0.0010892412 0.004624045 -0.0026117011 -0.0050334614 -0.0020260375 0.0014480836
0.00039500173 -0.0053419126 -0.00055890874 0.0039831204 0.00042323605 -0.0044200816 -0.009463082 -0.002331961
-0.0031266466 -0.002982557 -0.0032143856 0.010677228 -0.0146013815 2.9794535e-05 9.339251e-05 0.029793032
-0.0050856126 -0.005193431 -0.006632017 -0.0029552702 -0.0031879118 -0.29700273 8.03457e-05 -0.107612975
-0.003149494 -6.649429e-05 -0.0015522696 0.00019900588 -0.0012185938 0.005516906 0.0054985792 -0.003559907
0.0013741467 -0.001725817 0.014249785 -0.005524009 -0.006040955 0.00965791 -0.00010930905 0.0016814554
-0.009114425 -0.003782383 5.966066e-05 -0.13992225 -0.00064151926 -0.0037763747 -0.0105154 -0.00018006668
0.006158978 -0.093667306 9.9060984e-05 -0.0039276397 -0.0023517923 -0.009439916 -0.0043886653 -9.8901284e-05
0.11842115 0.054655503 0.008918323 0.03479795 0.014176418 0.01615181 -0.012332785 -0.004237419
0.004040516 0.0009185099 -3.9923667e-05 0.016254298 -0.0131457755 -0.004902309 -0.012110401 -0.008120387
8.223035e-05 -0.0006992149 -0.0026307274 0.010224434 0.0038029063 0.0033000319 0.000626067 -0.0005295113
-0.00085649354 -0.0056130127 -0.081564695 -0.0046864226 -0.013697352 -0.0060666003 -0.009733516 -0.0045216936
-0.06462925 -0.005450988 -0.0032496632 0.00013481834 0.009415603 -0.008098094 -0.0042674197 -0.008864027
-0.0014958214 9.127342e-05 0.016325643 0.07018059 0.10472682 -0.017989961 0.13803928 -0.004653133
-0.0018300517 -0.0055781133 0.012191006 -0.0008848458 0.04240672 -0.0042393715 0.054702472 0.013462899
0.009546175 0.006562191 -0.028241111 -0.08217517 -0.00868618 0.0077751013 -0.018251382 -0.03908873
-0.066554084 -0.00056351384 -0.0060890745 -0.015936343 -0.017482975 0.0019360697 0.10702576 -0.0053222254
-0.00373613 -0.0020208799 0.017042248 -0.002708306 -0.005016216 -0.0076307408 -8.29195e-05 -0.002863364
-0.0020757555 0.01038804 -0.0005094219 0.0044818353 0.012369072 -0.012413478 0.050926182 0.027035171
0.009048134 -0.008335446 0.011229372 -0.0024516308 0.0009248339 0.013525403 -0.0015394447 -0.020332372
-0.00761645 -0.002527146 -0.006770676 0.013960924 0.018875644 -0.009259026 -0.0018401351 -0.0028042428
-0.015223413 -0.061382633 -0.03855393 -0.013910877 -0.019126428 -0.00091419235 -0.01969895 -0.005932131
-0.036948085 0.023852056 -9.330224e-05 -0.001662024 -0.018991454 -0.0040240115 0.0041275094 -0.017801968
-0.0029545906 -5.8384467e-06 -0.002241209 -9.176357e-05 0.006076629 0.005778626 0.000102668375 -0.0018289041
-0.007523841 -0.0011754215 -0.032714974 -7.535373e-06 -0.017712142 -0.004776433 0.0047617354 0.0046345526
-0.031540427 -0.026777057 4.3400552e-05 -0.030502282 -0.024697492 0.024893811 -0.0028963317 0.015901249
00000000: 323b 22ba c288 cdbb 115d 8738 b854 aab8
00000010: 8cce a2b9 d193 4eb9 7f78 b638 e8ed 0dbc
00000020: ea37 52bb 0948 55bd 4414 e9bc e7f5 faba
00000030: 6392 00bc c766 b4bb 4838 efb9 5430 a5bb
00000040: 8318 7bb8 918f c8b9 1989 2dbb 375f 3abb
00000050: 3cb0 1f3c 6567 5dbb 956d b7b8 cc20 b3b8
00000060: 8835 96bb 5ac3 7fbb 7bd6 d3ba dac7 c2ba
00000070: 90d6 0f3c 7678 7839 7715 b0b5 2c73 31bb
00000080: eb9a d63b 373a b8bc ea74 bcbb e62e 88bd
00000090: be0a b7bb 1fc7 003c 2b42 89bd 1a45 7abb
000000a0: e5be 18ba 1c4d 01bb 543c 903b 2db0 193c
000000b0: 5e44 8fbb 985c 4b3c 8dcc 22bc ae51 18bc
000000c0: 183f 62bb 90fe 41bc dfc4 8eba 4d85 973b
000000d0: 1329 2bbb bcef a4bb 45c7 04bb 9fcd bd3a
000000e0: 3c18 cf39 360b afbb bb83 12ba d684 823b
000000f0: c8e5 dd39 55d6 90bb 0b0b 1bbc d0d3 18bb
00000100: 6de8 4cbb 0177 43bb 71a8 52bb 8aef 2e3c
00000110: a23a 6fbc 47ef f937 b9db c338 8410 f43c
00000120: 36a5 a6bb a82d aabb 6451 d9bb 35ad 41bb
00000130: 49ec 50bb be10 98be 457f a838 3164 dcbd
00000140: be67 4ebb da72 8bb8 8675 cbba 3cac 5039
00000150: 39b9 9fba 29c7 b43b 6d2d b43b 544d 69bb
00000160: b61c b43a cf34 e2ba ee77 693c bf02 b5bb
00000170: 34f3 c5bb 363c 1e3c d93c e5b8 4864 dc3a
00000180: ab54 15bc dbe1 77bb 253c 7a38 c747 0fbe
00000190: a12b 28ba 0e7d 77bb c948 2cbc 48d0 3cb9
000001a0: 41d1 c93b a5d4 bfbd f6be cf38 6eb3 80bb
000001b0: 8720 1abb e1a9 1abc cbce 8fbb 3969 cfb8
000001c0: ca86 f23d 73de 5f3d 281e 123c 4c88 0e3d
000001d0: 3544 683c cd50 843c 730f 4abc 0cda 8abb
000001e0: 4e66 843b 28c8 703a b673 27b8 bc27 853c
000001f0: 6161 57bc 8ca3 a0bb b46a 46bc 5f0b 05bc
00000200: 1573 ac38 854b 37ba 4868 2cbb 6284 273c
00000210: 2e3a 793b 5945 583b a51e 243a e7ce 0aba
00000220: 4f86 60ba 5ded b7bb 640b a7bd 9090 99bb
00000230: dc6a 60bc 55ca c6bb 5379 1fbc b72a 94bb
00000240: 575c 84bd 349e b2bb 4df8 54bb 065e 0d39
00000250: e743 1a3c dead 04bc b6d5 8bbb 6d3a 11bc
00000260: 700f c4ba 0b6a bf38 5bbd 853c d7ba 8f3d
00000270: 047b d63d af5f 93bc 2b5a 0d3e 4f79 98bb
00000280: 58de efba 9bc8 b6bb c9bc 473c fff4 67ba
00000290: abb2 2d3d 6dea 8abb b30f 603d 7e93 5c3c
000002a0: 8f67 1c3c a607 d73b e759 e7bc 754b a8bd
000002b0: 7b50 0ebc 47c6 fe3b ec83 95bc 811b 20bd
000002c0: 824d 88bd c6b8 13ba dc86 c7bb ef8c 82bc
000002d0: 7538 8fbc b8c3 fd3a 5230 db3d 1066 aebb
000002e0: dcd9 74bb bd70 04bb 2f9c 8b3c d67d 31bb
000002f0: 125f a4bb 4b0b fabb 11e5 adb8 47a7 3bbb
00000300: 6609 08bb 9932 2a3c ba8a 05ba 5cdc 923b
00000310: a6a7 4a3c e761 4bbc f997 503d dd78 dd3c
00000320: a03e 143c 6591 08bc 66fb 373c 8aab 20bb
00000330: 8d70 723a a799 5d3c 31c7 c9ba 1390 a6bc
00000340: 6a93 f9bb 799e 25bb 8cdc ddbb 5cbc 643c
00000350: 18a1 9a3c 2bb3 17bc b030 f1ba 63c7 37bb
00000360: 9f6b 79bc 5b6c 7bbd baea 1dbd 72ea 63bc
00000370: 07af 9cbc 69a6 6fba b15f a1bc 5262 c2bb
00000380: e056 17bd 6365 c33c 42ab c3b8 45d8 d9ba
00000390: f793 9bbc dbdb 83bb 0f40 873b 6fd5 91bc
000003a0: cea1 41bb e0e7 c3b6 3fe1 12bb 3171 c0b8
000003b0: 751e c73b a15a bd3b aa4f d738 d7b7 efba
000003c0: 8e8a f6bb 9a10 9aba 2300 06bd 5cd8 fcb6
000003d0: 0e19 91bc a083 9cbb 5508 9c3b 72dd 973b
000003e0: 8930 01bd 8f5b dbbc fd08 3638 ecdf f9bc
000003f0: 6552 cabc 1bee cb3c 62d0 3dbb 5643 823c

fc.bias f4 [3]
-0.07798228 -0.19462873 0.27265143
00000000: 2cb5 9fbd c14c 47be f898 8b3e
