Model/model.pth (torch, 9420 bytes, 2 tensors)

fc.weight f4 [4, 500]
0.02937175 0.0162172 0.026178636 -0.013208642 -0.00016892361 -0.01761456 -0.006519057 0.0050352165
0.0112703135 -0.00953682 -0.0007614507 -0.0075276066 0.00447773 -0.0005702597 -0.042139005 -0.0078353435
-0.014720455 -0.09714319 0.0072949976 0.006018932 -4.8154783e-05 0.01923486 0.028244296 0.06493099
-0.01196533 -0.025608739 0.006180155 -0.010182299 -0.000988088 0.04006484 -0.0017972674 -0.0066145873
-0.024816558 0.03373782 -0.020049077 0.026270712 -0.00020035105 -0.00695722 -0.00083776144 -0.070118584
0.03941815 -0.019663736 -0.017330918 0.03478888 2.154838e-05 -0.022803694 -0.044919945 0.0002409149
-0.03678123 0.053605754 0.070354015 -2.88895e-06 -0.0042869723 -0.025695141 0.0076697557 -0.011852116
-0.016141135 0.029767405 -0.09150629 0.05149214 0.020332022 0.005789818 0.026688224 -0.057054766
-1.0128635e-06 0.03380013 -0.0056226505 5.239536e-07 -0.03450095 -0.004559559 0.003099331 0.061494797
-0.00095579174 -0.0036887142 8.0947095e-05 0.011425725 0.017680325 0.04299996 -0.067325994 0.00046572703
0.048157744 0.10234718 -0.00031022888 2.0040696e-05 -0.038586915 -0.024609016 -4.5386772e-05 0.016018905
3.6337823e-07 -1.7564998e-06 0.007485161 -0.0081958175 -0.070789516 0.010698762 0.05773132 -0.0115993535
-0.018973436 0.013268239 0.010507894 -0.020764207 0.003061853 0.021073109 -0.0109386835 0.04917797
0.0011164625 0.00022949665 -0.0011429478 -0.011924571 -3.9306306e-06 -0.005479368 0.04539631 0.031721834
0.006666811 0.009787918 0.008193639 -0.018163051 -0.0048083635 0.005780426 -0.049038827 2.0579364e-05
-0.013614648 -0.026017457 -0.035401475 -3.3906222e-08 -0.0068607437 0.010528991 -3.3622072e-08 0.046636198
-5.549033e-08 -0.024768483 0.04764156 0.02356947 -0.007412107 -0.004402478 0.014651142 0.015632963
-0.010886085 -0.008602613 -0.035285946 -0.06681309 0.049063135 -0.022412898 0.00059239706 -0.11180527
0.005524092 1.4321249e-06 0.027491156 -0.0088370135 -0.012953772 -0.009214936 0.008040568 0.019158369
3.7104205e-06 -0.00076338707 0.0035130125 -0.06657886 0.06849039 -0.025477985 -0.04281834 -1.2289822e-06
-0.074537665 0.04683659 0.031158825 -0.0032840678 -0.07930985 0.029973133 -0.013131964 -0.035716645
-0.01619834 -0.0005704498 0.0055815973 0.0048765456 -0.025579976 0.07189819 0.06223669 -0.014671826
0.008116952 0.04324104 -0.008790432 0.07998521 -0.060634293 0.05019779 0.004507873 -0.06133009
-0.0037606081 3.7340978e-06 -0.025741097 -0.003987508 -0.0126591455 0.026220376 0.00583209 -0.006983612
0.026864164 0.00040762694 -0.0043735723 0.00400828 -0.018151762 -0.008567627 3.3627162e-05 -5.874199e-07
-0.01200424 -0.011690454 0.0001993997 -0.015275379 0.026833419 -0.026952568 0.007949258 0.0032426678
0.00011053675 -0.0013029018 0.0067339456 -0.024194669 -0.010853898 -0.00051256694 -0.012224262 0.008765993
-5.662032e-09 0.02283159 -0.024721088 0.031084133 -0.014961552 0.0030503562 -0.061796676 -0.0911464
0.027716815 2.0113223e-06 1.6233428e-06 -0.0145980865 -0.008674696 0.008183407 0.009810473 -0.0007225005
0.042392354 -0.021026712 0.016501246 -0.007103444 0.0021706962 -0.050535124 -0.060512956 -0.03234613
-2.4903042e-07 0.016957708 -0.0053669545 -0.015194695 -0.015049049 0.02906435 0.034076426 -0.018615443
-0.012492539 -0.0045169736 -0.009876197 8.3479114e-07 -0.052372616 -0.012669354 -0.0080307005 0.03221067
00000000: 069d f03c efd9 843c 9474 d63c 0f69 58bc
00000010: 1621 31b9 694c 90bc d09d d5bb 75fe a43b
00000020: 1fa7 383c 5340 1cbc 179c 47ba 24aa f6bb
00000030: ecb9 923b 7b7d 15ba f399 2cbd d05f 00bc
00000040: 102e 71bc 02f3 c6bd e00a ef3b 763a c53b
00000050: cef9 49b8 6d92 9d3c 9560 e73c 8afa 843d
00000060: 3b0a 44bc 6bc9 d1bc e682 ca3b a8d3 26bc
00000070: bb82 81ba 081b 243d 4992 ebba 2ebf d8bb
00000080: 184c cbbc ab30 0a3d f63d a4bc ad35 d73c
00000090: 5315 52b9 64f9 e3bb 389d 5bba 559a 8fbd
000000a0: ed74 213d d815 a1bc 92f9 8dbc c97e 0e3d
000000b0: cbc2 b437 d0ce babc fafd 37bd 1a9e 7c39
000000c0: eaa7 16bd b591 5b3d c415 903d c8df 41b6
000000d0: bb79 8cbb 9e7e d2bc 9352 fb3b 612f 42bc
000000e0: 6a3a 84bc c6da f33c a667 bbbd 6ce9 523d
000000f0: 578f a63c 83b8 bd3b 43a1 da3c 42b2 69bd
00000100: baf1 87b5 0172 0a3d 363e b8bb d1a5 0c35
00000110: de50 0dbd 5a68 95bb 251e 4b3b f8e1 7b3d
00000120: 198e 7aba 5bbe 71bb 24c2 a938 f732 3b3c
00000130: 54d6 903c ba20 303d 36e2 89bd d32c f439
00000140: 0e41 453d 669b d13d 37a6 a2b9 111d a837
00000150: 500d 1ebd d998 c9bc ad5d 3eb8 143a 833c
00000160: 5316 c334 e0c0 ebb5 1546 f53b c047 06bc
00000170: 18fa 90bd dc49 2f3c ad77 6c3d 370b 3ebc
00000180: 2e6e 9bbc 0763 593c 4d29 2c3c b319 aabc
00000190: 5fa9 483b 83a1 ac3c 2a38 33bc d76e 493d
000001a0: 4456 923a 0aa5 7039 f7ce 95ba 475f 43bc
000001b0: dce3 83b6 458c b3bb 7bf1 393d c1ee 013d
000001c0: 4475 da3b 815d 203c 9d3e 063c aeca 94bc
000001d0: 7a8f 9dbb ba69 bd3b f0dc 48bd d9a1 ac37
000001e0: f90f 5fbc 9022 d5bc 2301 11bd 49a0 11b3
000001f0: 17d0 e0bb ca81 2c3c dc67 10b3 9905 3f3d
00000200: 4354 6eb3 46e7 cabc cc23 433d c314 c13c
00000210: 43e1 f2bb aa42 90bb 580b 703c b310 803c
00000220: 8d5b 32bc f9f1 0cbc ff87 10bd 4dd5 88bd
00000230: 6df6 483d 419b b7bc 184b 1b3a 29fa e4bd
00000240: 7103 b53b 7037 c035 2235 e13c 1fc9 10bc
00000250: 0f3c 54bc 3efa 16bc 96bc 033c 03f2 9c3c
00000260: 8a00 7936 0a1e 48ba 923a 663b 7f5a 88bd
00000270: b144 8c3d 35b7 d0bc 4962 2fbd 82f3 a4b5
00000280: 34a7 98bd b9d7 3f3d cb40 ff3c 8439 57bb
00000290: 346d a2bd 378a f53c 7327 57bc 9e4b 12bd
000002a0: 62b2 84bc 3d8a 15ba d5e5 b63b 6ecb 9f3b
000002b0: 198d d1bc 5c3f 933d e6eb 7e3d 1962 70bc
000002c0: f7fc 043c 841d 313d be05 10bc 49cf a33d
000002d0: aa5b 78bd 339c 4d3d c8b6 933b 4335 7bbd
000002e0: 8974 76bb 5097 7a36 fede d2bc a4a9 82bb
000002f0: 4e68 4fbc 1dcc d63c 1e1b bf3b c9d6 e4bb
00000300: 3c12 dc3c c3b6 d539 2f50 8fbb e457 833b
00000310: 01b3 94bc 3b5f 0cbc e40a 0d38 30af 1db5
00000320: 6fad 44bc 5189 3fbc f315 5139 9545 7abc
00000330: c2d1 db3c a2cb dcbc 9b3d 023c f082 543b
00000340: f7cf e738 21c6 aaba 6ea8 dc3b e633 c6bc
00000350: 8cd4 31bc c95d 06ba 4548 48bc 3d9f 0f3c
00000360: c38b c2b1 5109 bb3c e183 cabc 27a4 fe3c
00000370: 4c21 75bc 7ce8 473b 831e 7dbd f7aa babd
00000380: 600e e33c 41fa 0636 a2e1 d935 d02c 6fbc
00000390: 5020 0ebc b213 063c 1bbc 203c 3066 3dba
000003a0: 9ba3 2d3d 3640 acbc 9f2d 873c 02c4 e8bb
000003b0: 3d42 0e3b ebfd 4ebd 6fdc 77bd 607d 04bd
000003c0: 7bb2 85b4 e4ea 8a3c 47dd afbb 2cf3 78bc
000003d0: 4990 76bc 5c18 ee3c b993 0b3d 6a7f 98bc
000003e0: 82ad 4cbc 1f03 94bb c6cf 21bc 6916 6035
000003f0: ab84 56bd 1f93 4fbc 3393 03bc 56ef 033d

fc.bias f4 [4]
0.3562794 0.00012892428 -0.058922738 -0.15969022
00000000: 416a b63e d92f 0739 f858 71bd d585 23be
