NN/Model/fnn_model.pth (torch, 428128 bytes, 4 tensors)

fc1.weight f4 [1024, 100]
00000000: 3c3f edbd 591b 973e 8cf6 0c3d 8a77 863e
00000010: 370a 7a3d dab4 b53d d0e2 f63d 2a46 b73d
00000020: 19ba 4bbe 347b 943d 743a 83bc 302f cd3d
00000030: 34c8 42bd 19c6 903e eee6 973d 2265 d2bd
00000040: 9025 d7bc c051 89bd 500c 84be 4f74 593d
00000050: 871d b43d b4fc 8a3e 605b 043e c994 553d
00000060: b907 d7bc 25e0 ecbd 7f5b 173e 89a3 15be
00000070: 9d60 f2bd 7ddb 053e ed4e 053e 10bf 543d
00000080: 6c8d 2c3c cb03 02bc 2928 8cbb befe 31be
00000090: c56f e8bc 40fe 85bd 86a1 593d 8393 0c3d
000000a0: e59f eb3d beb8 80bc 121d 92bc 489a 57be
000000b0: c5f8 4d3e 23f1 0e3d 4ec0 fb3c 580f febc
000000c0: ac95 3ebd d06b 103e 7100 43bd 9056 d3b8
000000d0: 5a5c 37be e6d2 e3bd da14 39bd 47be 163d
000000e0: 33b8 85bc fbb7 ec3e da85 be3d 5fbe d5bc
000000f0: d054 c8bd 5176 b03d 40ca 553c 9371 ea3d
00000100: 1beb 163e edd8 913b 4777 0ebe 8637 3e3d
00000110: 50f2 04bd 44c6 cfbd edb7 bdbd e1ea 14bd
00000120: 6b1a c1bd af1f 0b3e f64d 12bd e660 7bbe
00000130: e076 27be 2f8c e2bc 4c40 253d ec0f 6abe
00000140: 91dd d0bd fb35 4abe 8e82 1e3a 2b98 7f3d
00000150: 4a34 82bd a1d9 6d3b d090 fdbc 8cab fb3c
00000160: 975b 813d c304 593d 5a92 8bbd 611d 9abe
00000170: 5cf9 663d 9a49 dabd b030 37be da1d 063d
00000180: 8470 393e 4e33 b6bb cdf9 7f3d 6b61 b1bd
00000190: 4195 1ebe 86f8 1b3e dc84 45bb 2786 863d
000001a0: f230 183e d6e4 babd 6333 3dbd 24b3 413c
000001b0: 016a e9bc 6f3c ac3c 03e5 c7bd 2b08 1c3e
000001c0: 06f3 1bbe aec0 fb3d 1454 313e 130d 04be
000001d0: ad4a 083e 6c1d dd3d b202 02bd 062a 123d
000001e0: eea2 c23d a501 233e e900 8abc 86fe 343c
000001f0: efb7 21be ecd5 a1bd 62e3 b63d a376 97bd
00000200: a421 dabd 3c22 43be 3e38 1b3c 74e4 693c
00000210: e5a4 bd3d d712 e13c a55f 9d3d 37ee 81bd
00000220: 0823 2d3e 4d7b 55bd d319 c93d 3fc8 3f3d
00000230: e453 eebc a602 23bd 8bbb 01be a854 83bc
00000240: a001 c83b 8359 1bbd a21f 433e 0f35 56be
00000250: 2a43 e73d b427 ab3d 4b6b ae3d 7673 b8bd
00000260: f8aa bebd 4887 043d be29 253d 7ea6 a7bd
00000270: 2800 a73d 1eef 553e d094 a1bc 4c6d b8bd
00000280: b063 583d 323c dcbc 4b50 0a3e 631e 453d
00000290: 1819 af3d f81d 873d 733d dabc 46f8 0f3d
000002a0: 3825 9dbd ec1c a5bd e7e3 b3bd 21bd a8bc
000002b0: a54f 0cbe a509 02bd a50b 023c e2c9 a3b9
000002c0: e495 7dbc f4c4 713c 3fac ed3d e5e5 d1bd
000002d0: 5a2a 13be 6c91 e33d cc89 623c ac4a f3ba
000002e0: 6d7d e7bd 66fa fc3d ed39 3f3d ac97 303d
000002f0: d45c 113a d29b b1bd 5c7d 82bd 2e17 2ebe
00000300: 9d31 183e 41c2 6e3d 848a 00bd bf09 a63d
00000310: 1297 fcbd d899 1e3d 1d3f e0bd 6b45 c9bc
00000320: 0bb6 a3bd 8d20 353e 54e2 4dbd f25b adbd
00000330: cc67 443e 1363 37bd 2c56 da3c 5a19 a73d
00000340: 9cc4 aa3d e082 20be 2fb1 223e db2e c23d
00000350: 1341 73bd 5ff9 083d bcfb cf3d 2e14 2abe
00000360: 2ee8 b3bd 9cc1 fc3d 325b 1cbd 968c 28bd
00000370: 10ac 97bd 6df7 84bc 9890 f13d f47b bbbd
00000380: 2bf1 503d fa2e c23c 5ed4 08be a4ef b0bd
00000390: 5917 26bd be5f ddbd 1142 c6bd 6a6a eabd
000003a0: 33a6 913d dd13 d53d 41eb 90bc 3d63 3fbd
000003b0: f4f9 50bc 285b e0bd 422c 1d3e 3109 e13d
000003c0: dad1 5c3c fc5d f53c 24d7 07bc e4d5 453d
000003d0: 5cda bebd 602c b2bd a74f 0d3e 2c6a 933d
000003e0: 2620 2dbd 01d1 dfbd 118d fdbd 1305 6e3d
000003f0: 3ad5 4d3c f7b1 86bd 4678 f4bd b861 cb3d
-0.115843266 0.29513052 0.034414813 0.26263076 0.061044898 0.08872385 0.1205498 0.089489296
-0.1989521 0.07250062 -0.016019084 0.10018766 -0.04755421 0.28276137 0.07417093 -0.10273196
-0.026263028 -0.06705046 -0.25790644 0.053089436 0.087946944 0.27145922 0.12925482 0.052143846
-0.0262488 -0.1156619 0.14780997 -0.14613165 -0.11834834 0.1307201 0.13018389 0.051940024
0.0105317645 -0.007935475 -0.0042772484 -0.17382333 -0.028373608 -0.06542635 0.053132556 0.034320366
0.11505107 -0.015713092 -0.017836127 -0.21054947 0.2011443 0.034897935 0.030731346 -0.031013176
-0.046529457 0.14103627 -0.047607843 -0.000100773876 -0.17906323 -0.1112421 -0.0451859 0.036802556
-0.016323185 0.46234116 0.09302874 -0.026091753 -0.09781802 0.08616317 0.013048708 0.11447444
0.14738123 0.0044509084 -0.13912688 0.04643967 -0.03245765 -0.10145238 -0.09263597 -0.03635681
-0.09428867 0.13586305 -0.03571888 -0.24548683 -0.16353941 -0.027654735 0.04034452 -0.22857636
-0.101985104 -0.19747154 0.0006046676 0.062400978 -0.063576296 0.0036293047 -0.030952841 0.030721448
0.063162975 0.052983057 -0.06815024 -0.3010054 0.05639015 -0.1065857 -0.17889667 0.032743312
0.18109328 -0.005560315 0.062494088 -0.08661159 -0.15486623 0.15231523 -0.0030139005 0.06568556
0.14862421 -0.09125678 -0.046191584 0.011822496 -0.02849293 0.02102491 -0.097604774 0.15237491
-0.15229425 0.1229261 0.1731723 -0.12895612 0.13309737 0.107966274 -0.03174085 0.035684608
0.095037326 0.15918596 -0.016846137 0.011047011 -0.15792821 -0.079021305 0.089300886 -0.07395675
-0.10650948 -0.19056028 0.009473858 0.014275659 0.09259967 0.027474804 0.07684258 -0.06344264
0.16907895 -0.052119542 0.09819379 0.04682183 -0.029092737 -0.039797448 -0.12669198 -0.016031578
0.0061037093 -0.037927162 0.19055036 -0.20918678 0.112921074 0.08357182 0.08516558 -0.090063974
-0.093099535 0.032355577 0.04032301 -0.08186053 0.08154327 0.20891997 -0.01972428 -0.09005222
0.052829444 -0.026884172 0.13507192 0.048124682 0.08549708 0.06597513 -0.02664063 0.03514888
-0.076731145 -0.08062157 -0.08783703 -0.020597996 -0.13702257 -0.03174748 0.007937347 -0.00031240197
-0.015477631 0.01475643 0.11605119 -0.10248927 -0.14371625 0.111117214 0.013826799 -0.0018561683
-0.1130322 0.12352447 0.0466861 0.043113396 0.00055451435 -0.086722985 -0.06371567 -0.1700103
0.14862676 0.058290724 -0.0313821 0.08107328 -0.12333502 0.038720936 -0.10949538 -0.024569234
-0.07993706 0.17688198 -0.05026467 -0.08464803 0.1918022 -0.04477222 0.026652418 0.08159132
0.083382815 -0.15674925 0.15887903 0.09481593 -0.05938823 0.033440944 0.101554364 -0.1660926
-0.08784519 0.123416156 -0.038172908 -0.0411497 -0.07405865 -0.016231263 0.11795157 -0.091545016
0.051011246 0.02370404 -0.13362262 -0.08639458 -0.04054961 -0.10809277 -0.0968057 -0.11446078
0.07111778 0.10404179 -0.017690303 -0.0467255 -0.012754906 -0.10954887 0.15348914 0.10988081
0.013477767 0.029952042 -0.00829104 0.048299685 -0.093189925 -0.0869987 0.13799916 0.07197985
-0.042266987 -0.10928536 -0.12380422 0.058110308 0.012563044 -0.06576913 -0.11937003 0.09930748

fc1.bias f4 [1024]
00000000: cc66 c4bd 743b acbd bb14 0fbd c049 78bd
00000010: 03b9 78bd adc8 aabc e849 72be a2cf fdbc
00000020: fe14 e9bd 9e33 12be b1dd 4ebc 6dfb b13d
00000030: 36d2 38bd 7d62 f0bd 2457 663e d343 71be
00000040: 7960 20be 4664 94bd 26cc 49be cf02 afbe
00000050: e96b 6fbc 002c 513e 26fd 23bc 99b2 c03d
00000060: d151 9bbd 709a bfbd 7c37 db3d d877 6bbe
00000070: fba8 3ebe 2ca8 abbc c49f f6bd c5fb 30bc
00000080: e6e8 1abe de71 6bbd 9ae1 ebbd 301c 33be
00000090: 012d 3c3c 43d8 2dbd 9757 62bd 48c4 04bd
000000a0: 0ef3 27be 9391 a8bd 9877 68bd 8529 4e3d
000000b0: a03e a2bb 2fa7 80bd 48b9 13bd fef8 1b3e
000000c0: c9ec 99be 3684 0abd 6b3d d33b 58c5 ac3d
000000d0: 822e e8bd b7a5 3abe a5c3 e6bc 129a 5bbe
000000e0: 643b 59be 33cd b7bd 9f87 f5bd 2668 89be
000000f0: 76e3 20be 85f0 01be 5241 08be bbc1 41bd
00000100: 4337 963d 7d8b a0bd ed26 3a3e 719b a2be
00000110: 9820 1ebe 07ba 84bd 9a47 45be 215c cebd
00000120: dc6e 66be a732 043e 525a a7bd 61f7 6e3e
00000130: ec2a ae3d ec1d 263e 5740 9bbd 55bf ef3d
00000140: 8c95 d1bd c7aa 16be 228f 133e e29c 20be
00000150: 7051 18bc b171 93bd 3277 023e 8c00 58be
00000160: 2c0a a9bd e267 82be ed73 3abe 964a b4bd
00000170: 00cb 50be 5616 9abd d992 81bd ff2b fd3d
00000180: da1a 6c3d d17e 563c e31a c23d 5f02 b5bd
00000190: 0885 20bc 228b 26be 66fa 1c3b eaec 51be
000001a0: c7b5 263e 18b4 3d3d 897c 33be 47e1 113d
000001b0: 91fc 3bbd c92f 513d 8c6e f23d 7ef7 993d
000001c0: 7328 b4bd e8b4 d0b9 9f88 acbd 674a 10be
000001d0: 6e02 a9be 0a6b 27be c72a 82bd 9ece 4bbd
000001e0: 1fe8 a93c ecf9 76bb 979e 29bc 16cf e5bd
000001f0: 033c 29be c0af 9ebe 953a 8dbd e325 b03d
00000200: e975 42be 3b51 5abe b0d7 8dbc 96f6 e6bb
00000210: 999e 8dbd 89c4 4bbe c98f dabd 5fea 543c
00000220: 3dfa 17bd 2792 853d 425d 80bc c46e b83d
00000230: 9edf 18be 00cc 4ebd 0ff3 14be bcdb 163e
00000240: 46ea 62be e1d7 6e3c 51cd babc eba0 e3bc
00000250: 6c5e 77bd a76c 523d a666 db3d 6420 b83d
00000260: b650 fb3c 1141 8bbd c64f cbbd bd36 16bb
00000270: 9b61 f8bc 4c61 bfba 3a28 233c 6726 e13d
00000280: ef8a b4bb 1339 083d 19f6 e5bc eedb 0cbc
00000290: e45e 0abb 7501 1abe 0d3d bd3d 9755 f5bd
000002a0: e947 03bd d47a babc 8c61 21bd 04e1 233b
000002b0: 09b3 003e 7ab9 ddbc 41b7 3fbe 0f10 123e
000002c0: a872 613d 740d ee3b 0b09 2ebe 208f 42bd
000002d0: 5591 d33d ad00 23bd 22e3 57be 5cf8 bcbd
000002e0: f573 aa3d f815 86be c751 0dbe c54b 2dbe
000002f0: f986 2bbe 9b05 673c 3109 b63d d925 27bb
00000300: 158d 1f3e c72c cebd 7af1 c0bd cb2a 99bc
00000310: 9ca1 c6bc 4235 9bbd cc94 f2be c112 73be
00000320: 426c 533d fe6d c8b9 5eb4 9cbe 7642 6cbb
00000330: 2da2 613d 2c23 e4bd 6e21 49bd 34f4 b83c
00000340: 5615 a6bd 0a4d babd ca51 683d 2bb4 803e
00000350: 793f 16bd 036e 28be aff6 cdbd 4181 1abd
00000360: 51ca 023b ac80 043e 8610 183e 0a9e 143d
00000370: 7c9e 00bb d7e5 b43d 1678 a53b be4c c13c
00000380: 0c75 08be 423e a13c 7bfc dbbd 6aa9 28bc
00000390: b4bd 66bd 7b7a 24be 219d fdbc 8fcb ffbb
000003a0: f217 4cbd bcc7 00be 4f1a 983b aded 2ebe
000003b0: 8ce2 a43d 7d4c 26bd d420 213e 69d1 efbd
000003c0: 07f6 6ebd 904f c7bd 3677 49bc 24b2 ccbc
000003d0: e526 a0bc ce86 59be 1fa3 07be 4b30 a03d
000003e0: aa68 4fbd ad60 1ebe 4800 66be fcb3 2cbd
000003f0: 4352 4f3d e515 823e 9148 43be 7ef8 9fbd
-0.095899194 -0.08409777 -0.03493188 -0.06061721 -0.060723316 -0.020847643 -0.23661005 -0.030982796
-0.11380957 -0.14277503 -0.012626098 0.08690534 -0.045122348 -0.11737535 0.22494179 -0.23561029
-0.15661801 -0.07245688 -0.19706783 -0.3418183 -0.01461313 0.20426941 -0.010009086 0.09409065
-0.075839646 -0.093556285 0.10703942 -0.22994936 -0.18619148 -0.020954214 -0.120421916 -0.010802214
-0.15127906 -0.05748164 -0.115176395 -0.17491221 0.011485339 -0.04244257 -0.055259313 -0.03241375
-0.16401312 -0.08230891 -0.05675468 0.050332565 -0.004951313 -0.06281888 -0.03606537 0.15231702
-0.30063465 -0.033817492 0.0064465306 0.08436078 -0.11336996 -0.18227278 -0.028169462 -0.21445492
-0.21214062 -0.089746855 -0.11988758 -0.2683727 -0.1571177 -0.12689407 -0.13306168 -0.047303896
0.07334759 -0.07839105 0.18178912 -0.31759217 -0.15442121 -0.064807944 -0.19265595 -0.10076166
-0.22503227 0.12909947 -0.08171524 0.23336555 0.085042804 0.16222352 -0.07580631 0.117064156
-0.10233602 -0.14713584 0.1441007 -0.15684846 -0.00929676 -0.07199419 0.12740782 -0.21093959
-0.08253893 -0.2546988 -0.18208285 -0.08803289 -0.20389938 -0.075237915 -0.06326837 0.12361907
0.057642795 0.013091759 0.094777845 -0.08838343 -0.009797342 -0.16264012 0.002395296 -0.20500532
0.1628028 0.04631433 -0.17527975 0.03561523 -0.045895163 0.051070962 0.118374914 0.075179085
-0.087967776 -0.00039807637 -0.08424496 -0.14090882 -0.33009666 -0.16349426 -0.063558154 -0.049757592
0.020740567 -0.0037685586 -0.010352752 -0.11221139 -0.16526799 -0.30993462 -0.06895939 0.08600976
-0.18990292 -0.2132005 -0.017314762 -0.0070484383 -0.06915016 -0.19899191 -0.10671956 0.012995332
-0.03710388 0.06522017 -0.015669469 0.09005502 -0.14929053 -0.05048752 -0.14545844 0.1473226
-0.2215968 0.014577837 -0.02280298 -0.027786693 -0.060392782 0.05137315 0.10712938 0.08990553
0.030678134 -0.0679952 -0.09927325 -0.002292081 -0.03031998 -0.001460114 0.009958321 0.10993653
-0.0055097262 0.033257555 -0.02807145 -0.008597357 -0.0021113688 -0.15039618 0.0924016 -0.119792156
-0.032051 -0.022763647 -0.03939967 0.0025005946 0.12568296 -0.027065981 -0.1872225 0.14263938
0.055040985 0.0072647873 -0.16995637 -0.047499776 0.10330454 -0.039795566 -0.21082738 -0.09227058
0.08322898 -0.26188636 -0.13800727 -0.16923435 -0.16750707 0.014100458 0.08888472 -0.0025504737
0.15581162 -0.10067134 -0.09421058 -0.018697163 -0.024246983 -0.075785175 -0.47379148 -0.23737623
0.051616915 -0.00038228923 -0.3060636 -0.0036050356 0.055086304 -0.11139521 -0.049104147 0.022577383
-0.08109538 -0.09096725 0.056718625 0.25137457 -0.036681626 -0.16448216 -0.10056817 -0.037720922
0.0019957016 0.1293971 0.14850053 0.03628353 -0.0019625714 0.08832901 0.0050497157 0.023596164
-0.133259 0.019683007 -0.10741516 -0.010294298 -0.05633326 -0.16062348 -0.030958714 -0.0078062485
-0.049827524 -0.12576193 0.004641808 -0.17082854 0.08051023 -0.04060029 0.15735179 -0.11709864
-0.0583401 -0.09731972 -0.0122964885 -0.024987288 -0.019549796 -0.2124283 -0.1324582 0.07821711
-0.050636925 -0.15466566 -0.22461045 -0.042163834 0.05061556 0.2540733 -0.1907065 -0.07811068

fc2.weight f4 [3, 1024]
00000000: ddf9 943d da69 253d e828 573d 9c5f c4be
00000010: 1455 a6be 8fc7 41be 06cf 4bbe 3bc7 fa3c
00000020: 3aa5 883d 3ea6 9b3d 6056 263d 00ba 863d
00000030: cfcf a0bd 28fc 403b a7e7 70bd 5d44 2e3e
00000040: 1c5e edbe 1fff b03d f92c a83e 6ce4 8f3e
00000050: e9bf bebd a0f8 9abc fd92 6dbc 30e9 bebc
00000060: 2bd1 093d 07ab a93d 362b dcbd 4f94 45bc
00000070: eee3 263e fa24 2ebd 9a10 98be 1bd6 103e
00000080: 053a b03c 57f0 b7be 8302 9a3d a00d 71bd
00000090: 8add 63bd 737d 873d be7a 17be 0bf2 55bd
000000a0: a76a f5be 72cd 89be e0e4 0f3e 6ed1 553d
000000b0: 9cba 4d3d 4b75 febd c7a6 1c3e 4c65 f7bd
000000c0: 4b58 7e3d 9f4e f63d f1fc f9bd e7b7 9abd
000000d0: 2a4c 303d ab56 bd3d d661 913d 9b80 943d
000000e0: 41f5 893d a971 9bbd bfb9 8c3d 2008 0f3e
000000f0: 730f 1b3e da18 93bd 843c a03d f602 93bb
00000100: b767 83bc dd7a 8e3d a2ab 81bd ec8f 96bc
00000110: ccf6 2b3d f9f2 14bd d3aa 11be 00a4 773d
00000120: 8a8b 4abd 31b6 2b3e 6762 12bc 3441 72bd
00000130: aca7 dfbd e484 1cbf 9cb8 a7be e5cd 0fbc
00000140: 2a11 ce3d 770b 38be 5d62 e1bb 5ca2 bf3d
00000150: a3b7 043e c85b 6ebd 7ecb 513c 6460 893d
00000160: ffc0 03be 4e55 ad3e 91e9 113e 9f3a bfbc
00000170: 797e 213d 5134 333c 2678 d93d a647 b23e
00000180: 25dc a5be 63af 6f3d 540d 953d b599 b63b
00000190: 6ef5 203c eaf1 cd3d 61ed 3d3d f35f ba3c
000001a0: 9acf 9cbd 8b85 583e baae 2aba f080 d93d
000001b0: cc4e aabe 583d 2abc 3b1b 7f3d da8a 8abd
000001c0: 4bc7 113e 657e d5be a83b 0abe f2db 443d
000001d0: fa56 1b3d 4fb9 153d 21c8 ffbd 8968 1b3e
000001e0: 24e6 04be ae5d 943c 6f56 2d3c 936c f6bc
000001f0: 0c77 173e 0261 b33e ff7b 483d 9308 f6be
00000200: c66e c73c 0d58 0f3d 469a c9bc 55e1 8abe
00000210: 6e53 c539 209b 0a3e 48bb 873d cc9c 6bbd
00000220: 48cb a03d 51f0 003d 4cd7 5f3c b6a7 ed3d
00000230: ad41 933d 8524 b3bc 747d 363d d509 60bd
00000240: 1f91 623d ad5d cb3d 7f3c ffbd 7c45 303d
00000250: fe2a a73d 6ba0 4abd 76da ad3b b990 33bd
00000260: 02d9 71bc 1deb 0f3d f6df c139 dac5 ff3c
00000270: 7599 55bd 05a7 39be 3a1a c0be 966e 7bbd
00000280: df52 bdbe beee a13d 4de1 3b3e 6dbb 30bd
00000290: e793 5c3d cd9f acbd 7afa 24bd d123 c83d
000002a0: 44d0 a9bd 010c fd3c 400b 9f3c 7c60 e63d
000002b0: 32a5 d5bd 273c 873d d12b 8e3d cf0e 373e
000002c0: 78bc 43bd 2b97 333d 388e c9be bdb6 21bd
000002d0: 6d31 c3bd fb3b 2dbd 1296 253d 0c91 06be
000002e0: fc1a 74bd a811 9a3e fe83 4d3d bd47 24be
000002f0: 72b2 c13d f300 78bd c6a9 863c af3d f6bc
00000300: 6abf 13be 02d3 0abf 54d2 ed3b 986f 82be
00000310: cbac 1cbc 21cf aebd 8e03 ef3d 6f49 c93d
00000320: cca5 84bd 0851 873c 6ed8 483c aa2d 053d
00000330: e4a9 4e3d 5536 3dbd dc6c 743d 391c 4c3d
00000340: 7091 373d 545a ce3d 936c e5bc 6f36 9cbe
00000350: f6b0 f0bd 32f4 6f3e f12e a03c 795e 8fbc
00000360: e22c 5abd 6584 14be c551 e1bd a162 65bd
00000370: 0bb6 64bd afd0 553d 02f6 90be b097 c8bd
00000380: e07a 85bb 148b 303e 93b7 d1bd 53ad 573e
00000390: 8cab f5bd 0aee a43c 92e1 34bd e1d2 2a3d
000003a0: aa72 e9bd c50e 09be 2c10 8ebe 95ab 8f3d
000003b0: 90e2 213e 39e3 cdbe f006 9ebd 9caa af3d
000003c0: 0a06 b23e 9ebf 5a3e 9d94 6d3d 55d1 ebbc
000003d0: 3975 82bc f357 9cbd 19f3 ed3d 66c7 a0bd
000003e0: 5e23 973b dfb5 6b3d f488 74be 6cab 793d
000003f0: 7e38 4bbe 269b 5a3e 5078 383e ad53 233e
0.0727422 0.04038415 0.052529246 -0.38354194 -0.32486784 -0.18923782 -0.19903192 0.030612579
0.066721395 0.076000676 0.040609717 0.065784454 -0.07852136 0.0029447172 -0.05881467 0.17018266
-0.46360862 0.086424105 0.3284681 0.2810396 -0.09313948 -0.018917382 -0.014500377 -0.023304552
0.033646744 0.08284574 -0.10750429 -0.012059285 0.16297886 -0.042515732 -0.29700166 0.14144175
0.02151204 -0.35925552 0.0752001 -0.058850884 -0.055631198 0.066157244 -0.14792916 -0.052232783
-0.47932932 -0.26914555 0.14052153 0.05220168 0.050226793 -0.124247156 0.15297996 -0.12079868
0.06209592 0.120267145 -0.12206448 -0.07554608 0.043041386 0.09245046 0.07098739 0.07251092
0.067362316 -0.07590038 0.06871366 0.13967943 0.15142612 -0.071824744 0.078240424 -0.004486437
-0.016040666 0.06957028 -0.063315645 -0.018379174 0.04198341 -0.03636453 -0.1422532 0.060459137
-0.04944948 0.1676872 -0.008934594 -0.059144214 -0.10920653 -0.61140275 -0.32758033 -0.008777116
0.100618675 -0.17973123 -0.006878181 0.093571395 0.12960677 -0.058193 0.012804864 0.06707838
-0.12866591 0.33854145 0.14249255 -0.023343382 0.039427254 0.010937766 0.106186196 0.34820288
-0.3239452 0.05851687 0.07277933 0.0055725225 0.00982414 0.10055907 0.04636896 0.02275083
-0.07656784 0.21144693 -0.00065110216 0.10620296 -0.33263242 -0.010390602 0.06228183 -0.06764765
0.1423618 -0.41697994 -0.1349932 0.04806132 0.037924744 0.036553677 -0.124893434 0.15176596
-0.12978417 0.018111076 0.010579689 -0.03008107 0.14791507 0.3503495 0.048946377 -0.48053417
0.024344813 0.03499608 -0.024609696 -0.2712504 0.00037636928 0.13535738 0.06627518 -0.05752258
0.07851273 0.031479184 0.013662171 0.11604254 0.07190261 -0.021868 0.044553235 -0.054696877
0.05531418 0.099299766 -0.124627106 0.043035015 0.08162497 -0.049469393 0.0053055836 -0.04383919
-0.014761211 0.03513633 0.00036978693 0.031222273 -0.0521483 -0.18130119 -0.3752001 -0.06138476
-0.36977288 0.079068646 0.18347664 -0.043147493 0.05385199 -0.08428917 -0.040277936 0.097724564
-0.08291677 0.030889513 0.019414544 0.11248872 -0.10431899 0.0660327 0.06941951 0.17876743
-0.04778716 0.043845337 -0.39366317 -0.039480913 -0.095309116 -0.04229353 0.04042632 -0.13141268
-0.059596047 0.30091596 0.050174706 -0.16042991 0.09457864 -0.06054778 0.016438376 -0.03005871
-0.14428487 -0.5422822 0.007257739 -0.25475764 -0.009562681 -0.085356005 0.116706 0.098284595
-0.06476936 0.01651813 0.012258632 0.03251425 0.05045499 -0.046194393 0.05967413 0.049831603
0.044816434 0.100758225 -0.028005874 -0.3051028 -0.117525026 0.23432997 0.019553633 -0.017501103
-0.05326546 -0.1450363 -0.110019244 -0.056002263 -0.055837672 0.05220097 -0.2831269 -0.09794557
-0.0040734857 0.17240554 -0.10240092 0.21062212 -0.119956106 0.020133037 -0.044160433 0.041705016
-0.113988236 -0.1338454 -0.27746713 0.070151486 0.15809083 -0.4021242 -0.07716167 0.08577463
0.34770232 0.21362159 0.058003057 -0.02878634 -0.015925037 -0.076339625 0.11618633 -0.07850532
0.0046123704 0.057546493 -0.23880368 0.060954496 -0.19845769 0.21348247 0.18014646 0.15949889

fc2.bias f4 [3]
00000000: 878e 93bd f677 fe3d 872e c0bc
-0.07204919 0.124252245 -0.023459686
