NN/Model/fnn_model.pth (torch, 432224 bytes, 4 tensors)

fc1.weight f4 [1024, 100]
0	0xbcb984d3	-0.022646343
1	0x3dc89307	0.09793668
2	0xbd774860	-0.060371757
3	0x3c8eec17	0.01744656
4	0x3dc8aab9	0.09798188
5	0x3dbe3b81	0.09288693
6	0x3cbf051c	0.023317866
7	0x3df71561	0.120646246
8	0x3dcb8e52	0.09939255
9	0x3dbd360d	0.09238825
10	0xbd802904	-0.06257823
11	0x3e076d91	0.1322539
12	0xbd9ad9c9	-0.075610705
13	0xbdbf37c5	-0.09336809
14	0x3d5ecd69	0.054395113
15	0xbd6d2cba	-0.057903983
16	0xbe199c46	-0.1500102
17	0xbdcf09bc	-0.101092786
18	0x3ce67d40	0.028135896
19	0x3d42cdfc	0.047559723
20	0x3e344213	0.1760333
21	0xbd1f2c3f	-0.038860556
22	0x3d58e903	0.052956592
23	0x3dd0ebb3	0.10201206
24	0xbd9ac4e8	-0.07557088
25	0xbe075fa4	-0.13220078
26	0x3e277408	0.16352856
27	0x3b481fad	0.0030536458
28	0xbbc86dad	-0.00611659
29	0x3cc24e73	0.023719048
30	0x3d5199a3	0.05117191
31	0x3cbcf43b	0.023065677
32	0xbd46b5d5	-0.048513252
33	0xbd97c950	-0.07411444
34	0xbe11cc40	-0.14238071
35	0x3d2eefc0	0.042709112
36	0xbdac531f	-0.084142916
37	0xbde4c8e0	-0.11171126
38	0xbd9fa712	-0.07795538
39	0xbd623785	-0.05522873
40	0xbb7aa2b2	-0.0038243947
41	0xbd1bb3ea	-0.038013376
42	0xbc84e950	-0.016224533
43	0x3d634763	0.055488
44	0x3d5e43ec	0.054263994
45	0xbdd780ce	-0.105226144
46	0xbcfb9bf8	-0.03071402
47	0x3e0445a2	0.12917188
48	0xbb2afa37	-0.002608908
49	0xbdfb861c	-0.12281439
50	0x3c0f8808	0.00876046
51	0xbda74f0a	-0.081693724
52	0xbd90af5e	-0.07064699
53	0x3d929344	0.07156995
54	0xbd64a970	-0.05582565
55	0x3bccb82a	0.00624754
56	0xbdcf3a98	-0.10118598
57	0xbd15dd93	-0.036588263
58	0x3d97936d	0.07401166
59	0xbda2d10a	-0.07950027
60	0x3cbe9257	0.02326314
61	0x3d3fd242	0.046831377
62	0xbda0daf8	-0.07854265
63	0x3d95e672	0.073193446
64	0xbc61c09d	-0.013778833
65	0xbcc75787	-0.024333728
66	0xbd0e8b6c	-0.03480093
67	0xbbe3309c	-0.006933285
68	0x3d6655fd	0.05623435
69	0xbcff9027	-0.031196667
70	0x3dc7a0f2	0.09747495
71	0x3dadce00	0.08486557
72	0xbd4df144	-0.050278917
73	0x3abc87a6	0.0014383688
74	0x3d21409c	0.039368257
75	0xbd33786a	-0.043816008
76	0xbcb97da0	-0.02264291
77	0x3dc49ebd	0.096005894
78	0x3dbb14c2	0.091348186
79	0x3e176503	0.14784627
80	0x3de34788	0.11097628
81	0x3d7add12	0.061245985
82	0xbd4aa5b5	-0.049474437
83	0x3d5d33bf	0.054004427
84	0x3d24403a	0.040100314
85	0x3cc2c094	0.023773469
86	0xbc584035	-0.013198902
87	0x3d9213f4	0.07132712
88	0x3d820bba	0.06349893
89	0xbd94ee31	-0.07271994
90	0xbdd09f32	-0.10186614
91	0xbd4d2533	-0.050084304
92	0x3c20d111	0.00981547
93	0xbc5b2dda	-0.013377631
94	0xbc57a1bf	-0.013161122
95	0x3c8c4cc5	0.01712645
96	0x3dbd6faf	0.092498176
97	0xbc58dbc7	-0.013235993
98	0x3b01a0e0	0.0019779727
99	0xbd5289d4	-0.051400974
100	0x3ccae360	0.024766624
101	0xbd39db08	-0.0453749
102	0xbb30ecae	-0.002699654
103	0x3e0d0f76	0.13775429
104	0xbe1cc8d1	-0.1531098
105	0x3da87973	0.082262896
106	0xbbd11ee5	-0.0063818567
107	0x3c8bfdde	0.017088827
108	0xbdc60d0a	-0.09670456
109	0xbd83efc3	-0.06442215
110	0xbb65fe04	-0.0035094032
111	0xbbe46596	-0.006970118
112	0xbdc45df8	-0.095882356
113	0x3b826510	0.0039793327
114	0xbaccc73b	-0.001562334
115	0xbd10b2b3	-0.03532667
116	0x3d06ca2d	0.032907654
117	0xbc4b40aa	-0.012405554
118	0x3d752591	0.05985028
119	0x3e17acb0	0.14811969
120	0xbc4c29d8	-0.012461148
121	0x3bcaee13	0.0061929314
122	0x3b67894c	0.0035329638
123	0xbd809d31	-0.06279982
124	0x3df4978a	0.11942966
125	0xbc400b92	-0.011721509
126	0xbdcf4908	-0.101213515
127	0x3dc78c0e	0.0974351
128	0xbc7f4b78	-0.015581958
129	0xbbe7f717	-0.007079016
130	0xbcbf8650	-0.023379475
131	0xbd4b9d0a	-0.04971031
132	0x3b830710	0.0039986446
133	0xbc89e426	-0.016832422
134	0x3df4d06a	0.11953814
135	0x3d919428	0.07108337
136	0x3e065661	0.13118888
137	0xbcd62314	-0.026139773
138	0xbd9291fe	-0.07156752
139	0x3d1d6390	0.03842503
140	0x3d845cc6	0.06463008
141	0x3d00b093	0.031418394
142	0xbc2ec553	-0.010667163
143	0xbdb6a871	-0.089188464
144	0x3dc811fe	0.09769057
145	0xbbea817d	-0.0071565495
146	0xbe297a73	-0.16550617
147	0x3dd3445a	0.103157714
148	0xbd612146	-0.054963373
149	0xbd4b5f64	-0.04965152
150	0xbb1b8a0a	-0.00237334
151	0xbc98f79c	-0.018672757
152	0xbd6865e8	-0.05673781
153	0x3ce1f7b5	0.027583936
154	0x3c8a052a	0.016848166
155	0xbe0fbc8c	-0.14036769
156	0xbc611f4f	-0.013740375
157	0xbdab4512	-0.083627835
158	0x3aef930e	0.0018278079
159	0x3d2f6667	0.042822268
160	0xbc2dadeb	-0.010600547
161	0xbd080381	-0.033206467
162	0x3d7fc49d	0.062443364
163	0x3df00f7e	0.11721705
164	0xbd38c8a7	-0.045113232
165	0x3df7cc0a	0.12099464
166	0x3c536d80	0.012904525
167	0x3dd1337e	0.102148995
168	0x3d45040b	0.04809956
169	0xbe002ca1	-0.12517025
170	0x3d3799ef	0.044824537
171	0xbd1884ee	-0.037236147
172	0x3cd7209b	0.026260665
173	0x3e0ca0f0	0.13733268
174	0xbce3b2bc	-0.027795188
175	0xbbd5db23	-0.0065263673
176	0xbd44a142	-0.04800535
177	0x3cca47e8	0.02469249
178	0xbdccb198	-0.09994811
179	0xbc3547f6	-0.01106452
180	0x3cea5674	0.028605677
181	0x3d9fe50b	0.07807358
182	0x3d870658	0.06593007
183	0xbe0a27ea	-0.13491789
184	0x3dc9fc3b	0.09862562
185	0xbcb2d9c1	-0.021832349
186	0x3c3523be	0.011055885
187	0x3e1214b0	0.14265704
188	0x3ceecb42	0.029149655
189	0xbcb0eda6	-0.021597695
190	0x3d90c2f6	0.07068436
191	0x3d978bfe	0.07399748
192	0xbdca67dd	-0.098830916
193	0xbda5347f	-0.080666535
194	0x3dfe2f1c	0.12411329
195	0x3bcaefca	0.006193136
196	0xbdda1b6f	-0.10649764
197	0xbc0b68be	-0.008508859
198	0x3d5ec87b	0.05439041
199	0xba15caca	-0.0005714117
200	0xbcb5fb23	-0.022214478
201	0x3c663c1a	0.014052415
202	0x3db23af5	0.087026514
203	0xbda49bbb	-0.08037516
204	0xbdbc3f54	-0.091917664
205	0x3d029cdf	0.031887885
206	0xbccc6e0e	-0.024954822
207	0x3d315f74	0.04330392
208	0xbd03f0a4	-0.032211915
209	0xbb5d393e	-0.0033756043
210	0xbdc50000	-0.096191406
211	0xbd8f0345	-0.069830455
212	0xbdbe4b4d	-0.09291706
213	0x3d4f769e	0.05065023
214	0x3ddaba77	0.106800966
215	0xbd6a578f	-0.05721241
216	0x3d981838	0.07426494
217	0x3cc6ac51	0.024252089
218	0xbc510e42	-0.012759747
219	0xbc97a2bb	-0.018510213
220	0x3dcd1a34	0.100147635
221	0x3dbbf1da	0.09176989
222	0x3e1294a3	0.14314513
223	0x3c24a70a	0.010049591
224	0x3d495db6	0.049161635
225	0x3dd7ac27	0.10530882
226	0x3dd9e27a	0.106389
227	0x3d489498	0.048969835
228	0xbdf39e9e	-0.11895488
229	0x3d819dec	0.06328949
230	0x3ddf1b33	0.1089386
231	0xbc722c93	-0.014781135
232	0xbc5a623c	-0.013329085
233	0x3db945d9	0.090465255
234	0x3d70c011	0.05877692
235	0x3db83f3b	0.08996435
236	0x3da40ff3	0.080108546
237	0xbd2c1ff7	-0.04202267
238	0x3ddc7817	0.10765093
239	0x3d63f160	0.055650115
240	0x3eb2abf8	0.34896827
241	0x3d630108	0.055420905
242	0xbd68660e	-0.056737952
243	0x3d7a4545	0.061101217
244	0x3d9ed9ff	0.07756423
245	0xbd8d2308	-0.06891447
246	0x3d3c4d06	0.045971893
247	0x3d381150	0.044938385
248	0x3b99e8a0	0.0046969205
249	0xbd4c68e1	-0.049904708
250	0xbbe4f3da	-0.006987077
251	0x39bd7374	0.00036134908
252	0x3dbce598	0.09223479
253	0x3cef984e	0.02924743
254	0x3d450346	0.048098825
255	0x3e185ced	0.14879198

fc1.bias f4 [1024]
0	0x3c787c3e	0.01516634
1	0xbde164de	-0.11005567
2	0xbcc750d1	-0.024330528
3	0xbe206fa3	-0.15667586
4	0xbd07f04b	-0.033188146
5	0xbe1eb5a2	-0.15498975
6	0x3d79df26	0.061003827
7	0xbe903eb1	-0.2817283
8	0x3de3bc32	0.1111988
9	0x3d02ab00	0.03190136
10	0x3d7f898e	0.06238704
11	0x3bc1b8a8	0.0059119053
12	0xbdad3496	-0.084572956
13	0xbd5d3074	-0.054001287
14	0xbe005a3f	-0.12534426
15	0x3ca32fd3	0.019920265
16	0xbe88bfda	-0.2670887
17	0x3ca8be8b	0.02059867
18	0xbe205d0f	-0.15660499
19	0xb9e9ec50	-0.0004461729
20	0x3d2c9419	0.042133424
21	0xbe12cd71	-0.14336182
22	0xbda5d8a4	-0.080979615
23	0xbcd4ed01	-0.025991919
24	0xbd8d99de	-0.069141135
25	0x3cbae2b0	0.022813171
26	0x3c8768b1	0.016529413
27	0xbd8a081c	-0.06739828
28	0xbd2ef239	-0.04271147
29	0xbdb3fc28	-0.08788329
30	0x3e085fe4	0.1331783
31	0xbd8bcad2	-0.06825794
32	0xbdecfd37	-0.115717344
33	0xbaf0f9a6	-0.0018384948
34	0x3d55d0ed	0.0522012
35	0x3cccf720	0.025020182
36	0xb8ecd9b0	-0.000112939044
37	0xbd9a1e9f	-0.07525372
38	0xbdfa1c28	-0.12212402
39	0x3d99fbe1	0.07518745
40	0xbdd2f7fa	-0.10301204
41	0xbe6875d7	-0.22701202
42	0x3d93eebf	0.072232716
43	0xbdcc6d62	-0.099818006
44	0xbdc68279	-0.096928544
45	0xbdcafd4a	-0.09911592
46	0xbe100f4d	-0.14068337
47	0xbdf4e416	-0.119575664
48	0x3d439133	0.047745895
49	0xbd8c1af8	-0.068410814
50	0xbd31f631	-0.043447677
51	0x3dc02395	0.09381787
52	0xbe3e0541	-0.18556692
53	0x3d6d81cd	0.057985116
54	0xbe02cc8c	-0.12773341
55	0xbd8388b3	-0.06422558
56	0x3d4a9dba	0.049466826
57	0xbe4f57bb	-0.2024831
58	0xbe28228c	-0.16419429
59	0xbda2e46d	-0.07953725
60	0xbe2a4461	-0.16627647
61	0xbd4318fc	-0.04763125
62	0xbdbc964f	-0.092083566
63	0xbc951e5b	-0.018202951
64	0xbde54506	-0.11194806
65	0xbd6868b2	-0.05674047
66	0x3dc63748	0.09678513
67	0x3cff1526	0.031138014
68	0xbe572475	-0.21010001
69	0xbe0b7782	-0.13619807
70	0xbde792e5	-0.11307315
71	0x3dee531a	0.11636944
72	0xbd8a7dd8	-0.06762284
73	0x3d84dc4b	0.0648733
74	0xbd7e8fd4	-0.062148884
75	0xbda17c03	-0.078849815
76	0x3cb010c2	0.021492366
77	0xbd9b2159	-0.0757472
78	0xbe211696	-0.15731272
79	0xbd53a666	-0.05167236
80	0xbbe4d267	-0.0069830897
81	0xbc9f1b91	-0.019422324
82	0xbd0bbb48	-0.034114152
83	0xbdf04b92	-0.11733164
84	0xbe91f6c5	-0.28508583
85	0xbc7c971f	-0.015416889
86	0x3cc8b65b	0.024501016
87	0x3dbf5851	0.09343017
88	0xbe11d670	-0.14241958
89	0xbd4220f3	-0.047394704
90	0xbdba1d00	-0.090875626
91	0xbe65abf8	-0.22428882
92	0xbe10b74c	-0.14132422
93	0xbda8e8e5	-0.08247546
94	0xbe504eaf	-0.20342515
95	0xbdad7bec	-0.08470902
96	0xbc44f26c	-0.0120206885
97	0xbbf18dee	-0.0073716557
98	0x3cefa251	0.029252203
99	0xbbbbafbd	-0.0057277367
100	0x3d7d4929	0.06183735
101	0xbdd1c753	-0.10243096
102	0xbd7ebfde	-0.062194698
103	0xbd0a92db	-0.03383146
104	0x3de336b8	0.11094421
105	0xbdca4483	-0.09876349
106	0xbcae0cca	-0.021246333
107	0xbc006230	-0.00783591
108	0x3cbf5709	0.023356931
109	0xbd7613a4	-0.060077325
110	0xbde38d30	-0.11110914
111	0xbdae852b	-0.085214935
112	0x3b304192	0.0026894552
113	0xbdd4b189	-0.10385425
114	0xbd45abab	-0.04825942
115	0x3d61a6a2	0.055090554
116	0xbd7dd593	-0.06197126
117	0xbd711011	-0.058853213
118	0xbdf2e482	-0.11859991
119	0xbd3626ce	-0.0444706
120	0x3dcb95b1	0.09940661
121	0x3d4d6b30	0.05015105
122	0xbe2ea0ff	-0.17053603
123	0x3d90e740	0.070753574
124	0xbc5720fa	-0.013130421
125	0xbdd234ef	-0.102640025
126	0xbdc4074c	-0.09571704
127	0xbe107813	-0.14108305
128	0xbd9c2e8c	-0.076260656
129	0xbdc1b50b	-0.09458359
130	0xbe0b9fdb	-0.13635199
131	0x3d040028	0.03222671
132	0xbe3e3047	-0.18573104
133	0xbcacf21a	-0.021111537
134	0xbe00b112	-0.12567547
135	0xbd4f90ce	-0.050675206
136	0xbdb55b38	-0.08855289
137	0xbde9923d	-0.11404846
138	0xbd8b1d97	-0.06792753
139	0xbdc777b3	-0.09739628
140	0xbe1193f3	-0.14216594
141	0xbe6df36f	-0.23237394
142	0xbdb2a9e3	-0.087238096
143	0xbe79cf9d	-0.24395604
144	0xbe45ad6f	-0.19304441
145	0x3c3a5356	0.011372408
146	0xbe8dac01	-0.2767029
147	0xbdaed444	-0.0853658
148	0x3d8a0716	0.06739633
149	0xbc82738a	-0.015924234
150	0xbdc135c3	-0.09434082
151	0x3e063f3b	0.13110058
152	0x3c995eac	0.0187219
153	0xbd423c8b	-0.04742102
154	0xbdabf503	-0.08396342
155	0x3d266cd8	0.040631145
156	0xbe7368d0	-0.23770452
157	0xbce42237	-0.027848346
158	0xbe0cddac	-0.13756436
159	0x3d564bac	0.05231826
160	0xbd4e2a1e	-0.050333135
161	0x3c89417b	0.016754856
162	0xbdbf7b95	-0.09349743
163	0x3ce4c991	0.027928146
164	0xbc1b8035	-0.009491016
165	0xbca60922	-0.020268027
166	0xbe0d076d	-0.13772364
167	0x3b35cb11	0.0027739445
168	0x3daa8cf1	0.08327664
169	0x3c6dfd6b	0.014525752
170	0xbe1cf111	-0.15326335
171	0xbda28ccb	-0.079370104
172	0xbe220a1b	-0.15824167
173	0xbd4b5f0f	-0.0496512
174	0xbe5f3e4e	-0.21801111
175	0xbe372363	-0.17884593
176	0xbc3af3cf	-0.011410668
177	0xbd87b00e	-0.06625377
178	0xbcc5b658	-0.0241348
179	0xbdeb496a	-0.11488612
180	0xbd9a0da8	-0.07522136
181	0x3ceb8f67	0.028754903
182	0xbe5695da	-0.20955601
183	0xbda0f8a4	-0.078599244
184	0xbe8dc4d1	-0.27689222
185	0xbd126e2b	-0.035749596
186	0xbe01a918	-0.1266216
187	0x3caa492d	0.020786846
188	0xbe1455e1	-0.14485885
189	0xbe2a6bce	-0.16642687
190	0xbdbc2bc2	-0.09188034
191	0xbcd2ffb1	-0.025756689
192	0xbe087b6e	-0.13328335
193	0xbe058d72	-0.13042238
194	0xbdc96f46	-0.09835677
195	0xbd601b0c	-0.054713294
196	0x3d0692b0	0.032854736
197	0xbe86feac	-0.26366174
198	0x3de185d8	0.11011857
199	0xbe645adc	-0.22300285
200	0x3d93794b	0.07200869
201	0xb90f07a5	-0.0001364039
202	0xbe3a86c2	-0.18215469
203	0xbe22c1c9	-0.15894236
204	0x3dd453f7	0.103675775
205	0x3e02020c	0.12696093
206	0xbd3bdfaa	-0.0458676
207	0x3d2e3476	0.0425305
208	0xbd7b7c3f	-0.061397787
209	0xbca39b01	-0.019971373
210	0xbe06292c	-0.13101643
211	0xbdbc3b6f	-0.091910236
212	0xbe2e02e3	-0.16993289
213	0xbd3ad47b	-0.045612793
214	0x3cce03c0	0.025148273
215	0xbca11a35	-0.019665817
216	0xbd386d25	-0.045025963
217	0xbd0260f1	-0.03183073
218	0xbd184c36	-0.037182055
219	0xbe4f31ff	-0.20233916
220	0xbdc7d073	-0.097565554
221	0xbcb49121	-0.02204186
222	0x3a0d68b6	0.0005394326
223	0xbe54cae2	-0.20780519
224	0x3e11e040	0.14245701
225	0xbd12e82e	-0.035865955
226	0x3d755821	0.0598985
227	0xbdb13959	-0.08653516
228	0xbdf3f886	-0.119126365
229	0xbd8c1b2c	-0.0684112
230	0xbdbdd7f0	-0.092697024
231	0xbc471065	-0.012149905
232	0xbe8942dc	-0.26808822
233	0xbe046ea2	-0.12932828
234	0xbd967a54	-0.07347551
235	0xbda1fc14	-0.07909408
236	0xbd6289fb	-0.05530737
237	0xbd1105dd	-0.035405982
238	0x3db0351b	0.08603879
239	0xbc9f812d	-0.019470775
240	0xbe347cf2	-0.17625788
241	0x3d66375a	0.05620513
242	0xbe3b0019	-0.18261756
243	0xbdb2f47b	-0.08738037
244	0xbde7b755	-0.11314265
245	0xbe6ecf1e	-0.23321196
246	0x3bd9b463	0.006643818
247	0xbd6a01e1	-0.057130698
248	0xbe9c2a5d	-0.3050107
249	0xbdbd91ae	-0.09256302
250	0xbe5746e2	-0.21023133
251	0xbd52ee17	-0.05149659
252	0xbe5c275c	-0.2149939
253	0xbbfe36e7	-0.0077580097
254	0xbd958ec4	-0.07302621
255	0xbdc671e3	-0.09689691

fc2.weight f4 [4, 1024]
0	0xbce7f679	-0.02831577
1	0x3bab5ded	0.0052297027
2	0x3d00361f	0.031301614
3	0x3c12c028	0.008956946
4	0xbc2b2edd	-0.010448185
5	0x3c5ed43a	0.013600403
6	0xbb00c7ea	-0.0019650408
7	0x3b142d50	0.0022610016
8	0xb9ade1bd	-0.0003316532
9	0xbd1fd8ee	-0.03902524
10	0xbc202bf7	-0.009776107
11	0x3c878e1c	0.016547255
12	0xbc07f56f	-0.008298262
13	0xba52e77a	-0.0008045357
14	0xbcac745c	-0.021051578
15	0xbd796863	-0.060890567
16	0x3b58f24c	0.0033103405
17	0x3d0122a4	0.031527176
18	0x3a8fd92f	0.001097476
19	0x3ca4c4f6	0.02011345
20	0x3cfb34f9	0.030664908
21	0x3c7249fa	0.014788145
22	0x3b271604	0.00254953
23	0x3c7b3658	0.015332781
24	0x3b581bff	0.0032975671
25	0xbb50589c	-0.0031791097
26	0xba3eefcb	-0.0007283657
27	0xbb3d5c37	-0.0028894076
28	0x3cb53e4d	0.022124434
29	0x3be937dc	0.0071172547
30	0x3c7b12ee	0.015324337
31	0xbd25ff29	-0.040526543
32	0xbc9392cf	-0.01801434
33	0xbcc0f025	-0.02355201
34	0x3c61e65c	0.013787832
35	0xbd20f00c	-0.039291427
36	0x3c90b419	0.017664002
37	0x3cae5758	0.021281883
38	0x3d4212be	0.047381155
39	0x3bc82886	0.0061083464
40	0xbb90f11d	-0.004423274
41	0xbd3aad47	-0.045575406
42	0x3ce615a3	0.028086489
43	0xbaee0de6	-0.0018162101
44	0x3d167181	0.03672934
45	0x3c95e7c6	0.018298995
46	0x3ba771fe	0.0051100245
47	0x3c0fe2f3	0.008782136
48	0x3cb0ba8a	0.021573324
49	0x3b52b6b6	0.0032152361
50	0xbd2c6fda	-0.042098857
51	0x3c2c16e7	0.010503507
52	0x3b304483	0.0026896305
53	0x3a2f43d1	0.00066858256
54	0xbd6be084	-0.05758716
55	0xbc724291	-0.0147863785
56	0x3d016bb1	0.031596843
57	0x3c1f5689	0.009725221
58	0xbd1ebd8f	-0.038754996
59	0xbcb5368e	-0.02212074
60	0x3cbd0d6b	0.023077687
61	0x3c1bd53f	0.009511291
62	0x3cbc8bef	0.023015944
63	0x3cfe6114	0.03105215
64	0xbd0e699b	-0.034768682
65	0xbd01a8b9	-0.031655047
66	0xbc7797e3	-0.015111896
67	0xbccb7550	-0.024836212
68	0x3d49a803	0.049232494
69	0x3cda3e91	0.026641162
70	0x3bc9a796	0.006154011
71	0x3bddd0f1	0.0067692925
72	0x3b5b2136	0.0033436543
73	0x3caba98b	0.020954868
74	0xbc9531b9	-0.018212186
75	0xbb6fc003	-0.0036582954
76	0xbbf8407d	-0.007576047
77	0x3cffdbda	0.031232763
78	0xbc0709bf	-0.00824207
79	0x3cac8666	0.02106018
80	0xbc8281ad	-0.015930975
81	0x3cd3970d	0.025828863
82	0xbb7e53a3	-0.0038807176
83	0x3c064d2b	0.008197109
84	0xbd109d4d	-0.035306264
85	0xbc898596	-0.016787332
86	0x3c6bb172	0.014385568
87	0xbcba10e5	-0.022713134
88	0xbbfd8564	-0.0077368487
89	0x3cb4ed47	0.022085799
90	0x3cb575c1	0.022150876
91	0x3d36fb85	0.04467346
92	0xbb20cd3e	-0.0024536396
93	0xbc9f779b	-0.019466212
94	0x3b2d0e7b	0.0026406336
95	0x3cc143d6	0.023591917
96	0x3bd1564b	0.0063884608
97	0x3be2e514	0.006924281
98	0xbb6b7d52	-0.003593285
99	0x3a33b97f	0.0006855949
100	0xbcbf3884	-0.023342378
101	0xbb4965ec	-0.0030730916
102	0x3c769916	0.015051147
103	0x3d1958c0	0.037438154
104	0x3c229ab5	0.00992458
105	0x3c8e1f49	0.017348902
106	0x3b437df1	0.0029829706
107	0x3a0f4dfc	0.00054666377
108	0x3cde7d9d	0.027159506
109	0x3c40bcb2	0.0117637385
110	0x3d4e5a69	0.05037919
111	0xbacedf8e	-0.0015783177
112	0x3cccb2ea	0.024987657
113	0xbcbf6b91	-0.023366721
114	0xbbe6d57e	-0.007044493
115	0x3cb9ffee	0.022705045
116	0x3bdbbe4e	0.0067060357
117	0x3b492311	0.0030691067
118	0xbac11c37	-0.001473314
119	0x3bf77a3d	0.0075524137
120	0x3c84833f	0.016175864
121	0x3d349b5e	0.044093482
122	0x3cc16560	0.02360791
123	0xbb913fc4	-0.0044326503
124	0x3cabd02c	0.020973288
125	0x3ce92831	0.028461548
126	0x3c745eee	0.014915211
127	0xbbd4e720	-0.006497279
128	0xbc56729f	-0.013088851
129	0xbad097de	-0.00159144
130	0x3c902095	0.017593661
131	0x3c9e5b27	0.019330574
132	0x3c78f2ed	0.015194637
133	0xba2a1d34	-0.0006489337
134	0xba4d0d60	-0.00078221224
135	0xbc0e6a9a	-0.008692408
136	0x3ba5de52	0.005061903
137	0xba291baa	-0.00064509606
138	0x3ccde886	0.02513529
139	0x3b276088	0.0025539715
140	0x3c7d040f	0.015442862
141	0xbceb79af	-0.028744547
142	0x3cbb2690	0.022845536
143	0x3cbf481e	0.023349818
144	0xbcb4cf6e	-0.022071566
145	0xbb93535e	-0.004496022
146	0xbd38d520	-0.045125127
147	0xbce8eee8	-0.028434232
148	0x3c4c811d	0.012481955
149	0xbaf20cc0	-0.0018466935
150	0x3bee071b	0.0072640306
151	0xbd04cb49	-0.03242043
152	0x3c91fe0a	0.01782133
153	0x3acf387d	0.0015809681
154	0xbb332464	-0.0027334923
155	0xbc97dc2c	-0.018537603
156	0xbb5b9f4f	-0.0033511703
157	0x3cea0ead	0.028571451
158	0x3b256ced	0.0025241927
159	0xbba1d93a	-0.0049392255
160	0x3bbc35d0	0.0057437196
161	0xbc93769e	-0.018000897
162	0x3cbad26a	0.022805411
163	0x3c06683b	0.008203561
164	0x3cc46a1d	0.02397638
165	0x3af6fddc	0.0018843967
166	0xbd444224	-0.04791464
167	0x3c942398	0.018083379
168	0x3d3d35cb	0.04619388
169	0x3bd53db2	0.006507599
170	0xbd28da3b	-0.041223746
171	0x3b884bf7	0.0041594463
172	0xbc04dfe8	-0.008110024
173	0x3c900d3c	0.017584436
174	0xbcddb70a	-0.027064819
175	0x3ba6b1a6	0.0050870953
176	0x3c0ae250	0.008476809
177	0x3c598721	0.013276846
178	0xbd1c7b42	-0.038203485
179	0x3cacfc63	0.021116441
180	0xbc800fed	-0.015632594
181	0xbc3d3f41	-0.011550725
182	0xbcb7f72f	-0.022456734
183	0x3c6c5f6b	0.014427046
184	0xbd38a398	-0.04507789
185	0x39e733e0	0.00044098403
186	0x3d009fbc	0.031402335
187	0xbc83dc83	-0.01609636
188	0xbbc74ee5	-0.006082403
189	0x3cbceb9d	0.023061568
190	0x3c436891	0.011926786
191	0x3c6bc30c	0.0143897645
192	0x3cb608d5	0.022221008
193	0xbc97a42d	-0.018510902
194	0x3986f8e2	0.00025743904
195	0x3c6c8421	0.014435799
196	0x3c44260e	0.011971964
197	0xbc14811c	-0.009063985
198	0x3b945d18	0.004527699
199	0xbd0897fc	-0.03334807
200	0xbc7f11d2	-0.015568214
201	0x3cda2128	0.026627138
202	0x3b3b9571	0.002862301
203	0x3c980730	0.018558115
204	0x3b2566cb	0.0025238271
205	0xbd8030de	-0.06259321
206	0xbcca9b07	-0.024732126
207	0xbc7ef754	-0.015561897
208	0xbbb1b7be	-0.005423515
209	0x3c1074fb	0.008816953
210	0x3ca154d0	0.019693762
211	0x3cbcd28a	0.023049612
212	0x3bbd2d9d	0.00577326
213	0x3ce48816	0.027896922
214	0xbc93c9b5	-0.018040517
215	0x3c6f23d9	0.014595949
216	0xbacc7878	-0.0015599867
217	0xbbaf5940	-0.0053512156
218	0x3bd37ff0	0.0064544603
219	0xbc93dcc5	-0.018049607
220	0x3d0962af	0.033541378
221	0x3c888450	0.016664654
222	0xbcb5eaad	-0.022206629
223	0xbce8e829	-0.028431015
224	0x3c919aa8	0.017773941
225	0xbd7d3321	-0.06181634
226	0x3c967ede	0.018371042
227	0xbc106bc8	-0.00881476
228	0x3cd2cb24	0.02573163
229	0xbcbc0036	-0.02294932
230	0x3d24dfc2	0.040252455
231	0x3c2f0364	0.010681961
232	0x3cd191b5	0.025582174
233	0xbc14f0f6	-0.009090653
234	0xbcc3040f	-0.023805646
235	0xbb89dae3	-0.0042070015
236	0x3c9e9214	0.019356765
237	0xbc885f48	-0.016646996
238	0xbcd723d9	-0.02626221
239	0x3ce051ae	0.027382698
240	0xbc5a12e0	-0.013310164
241	0xbd02ef03	-0.03196622
242	0xbc6edf12	-0.014579551
243	0x3cadd4c8	0.021219626
244	0xbd197ba9	-0.037471447
245	0xbce630df	-0.028099475
246	0xbd0da341	-0.03457952
247	0x3bf8539c	0.0075783264
248	0x3d890e4c	0.0669218
249	0x3cb5aa52	0.022175942
250	0x3cc90df3	0.024542784
251	0xbd0e99c7	-0.034814622
252	0xbd1582d6	-0.036501728
253	0xbccf790d	-0.025326276
254	0x3c92733f	0.01787722
255	0xbc451e39	-0.012031131

fc2.bias f4 [4]
0	0x3d0ea237	0.03482267
1	0x3d7f611c	0.06234847
2	0xbdae8cbe	-0.08522938
3	0xbbb96919	-0.0056582806
