NN/Model/fnn_model.pth (torch, 753870 bytes, 14 tensors)

fc1.weight f4 [512, 100]
000000 ce 4e a3 bd 30 0e 53 be f0 b9 b1 bb 1b 25 f2 bd
       -0.07974015 -0.20610881 -0.005423777 -0.118234836
000010 e3 80 78 bb 8a e6 f7 3c 1e 35 a3 bd b4 65 4f bd
       -0.003791862 0.030261297 -0.07969116 -0.0506341
000020 d5 36 c7 3d a3 dc 89 bc 47 d2 64 bc de 3a b4 3d
       0.09727255 -0.01682884 -0.01396615 0.088002905
000030 7c 50 f3 3c 24 e0 26 3d 28 fd 42 bd aa 83 a3 3c
       0.029701464 0.0407411 -0.04760471 0.019960243
000040 da 1a ca bd 2d ed 9a bd e2 4c cf 3d 91 3b b8 bb
       -0.09868403 -0.07564769 0.10122086 -0.0056223352
000050 cc 92 ad 3d 43 a2 9d bd c3 ae 58 bd cf c6 14 3d
       0.08475265 -0.076969646 -0.05290104 0.03632241
000060 b3 e8 48 3d 6c 2d b0 bd 78 75 71 bb 4e 4b 01 3d
       0.049050044 -0.086024135 -0.0036843698 0.031565957
000070 98 b1 c4 3c 32 7a c5 3d 1c eb 88 3c f7 68 0b be
       0.024010465 0.096424475 0.016713671 -0.1361426
000080 a0 9e 58 3c 07 70 38 3d 5e ea 39 3d 2c f3 35 3d
       0.013221413 0.045028713 0.045389526 0.04442136
000090 54 cc ae 3c a1 5c ea 3d 11 06 7e bd e9 89 c5 3d
       0.021337666 0.11443449 -0.062017504 0.09645445
0000a0 a4 e2 91 bd 8a 7d a6 3d fd 81 51 3d 02 2e 03 3d
       -0.071233064 0.081294134 0.051149357 0.0320263
0000b0 67 5c fa 3c 80 37 b3 3c 85 ed e4 3c f6 58 40 3d
       0.030561639 0.02187705 0.02794529 0.04695984
0000c0 52 02 a9 3c f0 fc b7 3c 32 b7 82 bd 01 60 b5 3d
       0.02063099 0.022459477 -0.06382598 0.08856202
0000d0 33 cf ef 3c 11 d6 aa bc 9b 23 a7 bc b8 2d 36 bd
       0.029273605 -0.020854028 -0.02040272 -0.044477195
0000e0 8d 42 c0 bb 0d 85 d3 bb 8d 11 3d 3d a1 0b c4 bd
       -0.0058673085 -0.00645507 0.046159316 -0.095725305
0000f0 b2 9f ac 3d f7 55 75 3d ae 05 a1 bd bd e2 a6 bd
       0.08428897 0.059896436 -0.078624114 -0.08148716
000100 eb fb a4 3c c7 93 22 bd b3 76 9a bd 4d 4c 81 bd
       0.020139655 -0.039691713 -0.07542171 -0.06313381
000110 da 22 a4 bd cc 37 ea bd 90 40 36 3d 5a 97 19 3e
       -0.0801446 -0.11436424 0.044495165 0.14999142
000120 71 ae 03 3d 85 a0 4e bd 10 42 c3 bc 6b 11 61 bc
       0.032148782 -0.050446052 -0.023835212 -0.013737063
000130 80 f8 48 3d ca 6d a4 3d e0 0b 2e 3e f6 da 97 3c
       0.049065113 0.08028753 0.16996717 0.018537026
000140 4f f3 e3 bc 80 e4 94 3d ae 7b b4 bc 55 9d 00 3e
       -0.02782598 0.072701454 -0.022031631 0.12560017
000150 66 ff d1 bc 28 86 f4 bc 34 23 17 3e 0e 7c db bc
       -0.025634479 -0.029849127 0.14759523 -0.026792552
000160 63 cf 18 3b b8 e9 f9 3d 06 ce e9 3b c5 5a 7f bd
       0.0023316971 0.122027814 0.0071351556 -0.062342424
000170 b8 e4 a0 3d ca 2a 0a 3d 52 f3 97 bc 57 cd a0 3d
       0.07856125 0.033732213 -0.018548641 0.078516655
000180 f1 44 e8 3a 89 4c 2b 3d 19 92 2f 3c 85 52 f5 3d
       0.0017720741 0.041821036 0.010715985 0.1197863
000190 fb 6a 49 bd 80 c1 ab 3d 4a d0 d2 3d 2b 4f c1 3c
       -0.04917429 0.083865166 0.10293634 0.02359732
0001a0 03 dc 1a bd 35 2b d3 bd 0e 24 bf bd 90 4a 3b be
       -0.037807476 -0.103109755 -0.09333049 -0.18290162
0001b0 87 a1 70 bc 6e 14 0a 3b e9 0e 06 3e ce 09 9b bd
       -0.014686949 0.0021069306 0.13091625 -0.075702295
0001c0 85 4c e4 bc f8 fd d2 bd 87 9e 8d bd fd 3e eb 3c
       -0.027868519 -0.10302347 -0.06915002 0.028716559
0001d0 93 62 ce 3d a5 15 7b bc 31 29 0f bd 5b 61 0b 3d
       0.10077395 -0.015324985 -0.034951393 0.034028392
0001e0 9e 5b 6f 3d cb 8e ea bd 35 d3 85 3d 8f 50 f3 3a
       0.058436982 -0.11453017 0.06534425 0.0018563437
0001f0 08 73 70 bd dd 5f 27 bd e4 ad 1d bc 51 d0 de 3d
       -0.058703452 -0.040862907 -0.009623978 0.10879577
000200 5e fc a1 3d 18 30 ab bc a7 4f d8 bb 4b 1c 6a bd
       0.07909463 -0.020896956 -0.006601292 -0.05715589
000210 52 08 d6 3b 73 04 f5 3c e1 2f de 3d a9 f1 80 3c
       0.0065317536 0.029909348 0.10848976 0.015740233
000220 ca 1d c2 bd 8e 5b 5d 3e 6e 74 cc 3c 5e b2 e5 3c
       -0.09478338 0.21616957 0.024957862 0.028039154
000230 2d 96 0b 3d 37 5f 75 bc 3e 63 88 bc 72 8a f9 bd
       0.034078766 -0.014976314 -0.016648885 -0.121846095
000240 83 ce 65 bc 9f f5 85 3d 53 c3 5b bd a2 30 23 3a
       -0.014026287 0.06540989 -0.053653073 0.00062252034
000250 27 ab 14 3d 8c 5f 1a bd 0f df b5 ba 09 62 55 be
       0.036296036 -0.037688777 -0.0013875681 -0.20838179
000260 34 f8 c5 bc c3 b9 89 3c a0 d3 be bd dd cc 30 3d
       -0.024166204 0.01681221 -0.09317708 0.043164123
000270 1c c6 31 bd a0 95 7b 3d e6 45 ef bc ce 55 a8 3d
       -0.043401822 0.06142199 -0.029208135 0.08219491
000280 78 21 57 3d 85 dd 49 bc e5 4e 26 bb 14 28 44 be
       0.052522153 -0.012320881 -0.0025376615 -0.19155914
000290 fe e0 2c bd be 63 0c bc d7 47 56 bd dc 98 97 bc
       -0.042206757 -0.008568702 -0.052314606 -0.018505506
0002a0 0e 23 18 bd e0 4a 91 3d 1a 56 6f 3b 9f 7d 5a 3d
       -0.037142806 0.070943594 0.0036519826 0.053342458
0002b0 cf b1 09 be 50 34 c8 bc 32 c8 95 bd 99 7a 0c 3d
       -0.13446735 -0.024439007 -0.07313575 0.034296606
0002c0 70 55 11 be 5c 84 7b 3c f8 fa b8 3c bc be 1d 3d
       -0.14192748 0.015351381 0.022580609 0.038511977
0002d0 2c b8 0c be 63 e4 d7 3c 32 ca 58 3d 2f fb ae bd
       -0.13742131 0.02635402 0.052927203 -0.08544003
0002e0 d3 98 4a bb 39 18 6d 3b bf a7 c8 bb b4 f7 0d 3c
       -0.0030913844 0.0036177768 -0.0061235125 0.008665014
0002f0 df 97 9b bd 5b cf d1 bc 97 0f af 3d 1b 99 49 bc
       -0.075973265 -0.02561157 0.085478954 -0.01230457
000300 e0 09 02 3e 1f 93 30 3c 21 a6 2e bc bc c3 e7 3d
       0.1269908 0.010777264 -0.010659725 0.1131663
000310 ed b4 93 bd 2c 2a b7 bd fe 09 f5 3d fc 55 2f bd
       -0.07212243 -0.089435905 0.119647965 -0.04280661
000320 9e 79 9d 3d 2e 39 40 3d dd 6b 09 3d 06 d1 44 bd
       0.07689212 0.04692953 0.033550132 -0.048050903
000330 9d 01 47 bb a5 14 08 be ce 81 6a bc 12 04 ef bd
       -0.0030365952 -0.13289125 -0.014313174 -0.11670698
000340 48 a9 82 3d d9 da fe bc f3 0b e4 bd 44 e7 4d bc
       0.06379944 -0.031110214 -0.11135092 -0.012567345
000350 62 19 7c bd 2d bf ea bc bc 5d 07 bb 21 46 9c 3d
       -0.061547644 -0.028655613 -0.0020655235 0.076305635
000360 2e bd 2a 3d b7 29 9c 3b f9 08 0d 3d c3 b0 61 3d
       0.041684322 0.004765715 0.034432385 0.055100214
000370 fa 99 0c 3b 50 ba 0f bd 46 b7 b7 3c b8 23 ee bd
       0.0021454082 -0.03508979 0.022426259 -0.116279066
000380 82 41 70 3d 95 4f d0 bd b5 95 5b bc 5e ff a4 bd
       0.058656223 -0.10171429 -0.013402392 -0.0805652
000390 95 05 99 3b 75 ab 86 3d 9f b4 3f bd d5 b1 bc 3d
       0.004669855 0.065756716 -0.046803113 0.09213606
0003a0 de df c6 bd be d6 0c be 72 81 12 bd 90 3e 8f ba
       -0.09710668 -0.13753793 -0.03576798 -0.0010928679
0003b0 3d cf 75 bd b9 4a 1a bd c3 ee 79 3c cd 5d e8 bc
       -0.06001209 -0.037668917 0.015254679 -0.02836504
0003c0 73 0d e5 3d 28 84 56 bc 89 5d 09 3e fa 48 c7 3d
       0.11184206 -0.013093032 0.13414587 0.09730716
0003d0 48 c5 0c 3b e4 40 e6 bc cb 38 8d bd a3 d3 5b 3d
       0.0021479893 -0.028107114 -0.06895598 0.05366863
0003e0 d6 ab 9e bd 8a 52 4b 3d 8c ce e8 3c eb d0 f1 bc
       -0.07747619 0.049639262 0.028418802 -0.029518565
0003f0 6c 62 81 3d 5d dc 5b bd ca 6a fb 3b 0a 05 ef 3d
       0.063176006 -0.05367695 0.0076726424 0.11670883

fc1.bias f4 [512]
000000 05 4e a8 bd 98 93 26 bd ee 91 8b bd 1e c7 ab bd
       -0.08218006 -0.0406681 -0.06814943 -0.08387588
000010 1f 54 9a 3d c5 7c 26 3d 0f 60 4a 3d 2f 61 07 ba
       0.07535576 0.040646333 0.049408015 -0.0005164323
000020 d1 ef 2c bc aa 95 0b bd 8f f3 2a 3d dd 7d b1 3d
       -0.010555224 -0.034078278 0.04173618 0.08666585
000030 ad ee e7 bc 7b 70 3b 3c 7c 81 52 bd 98 7e 92 bd
       -0.028312052 0.011440392 -0.051393017 -0.07153052
000040 ab c2 86 bc f4 e4 14 bd 2f e3 c0 3d a2 80 24 bd
       -0.016450247 -0.03635116 0.09418332 -0.040161736
000050 7c df 96 b9 a0 66 92 bd c4 67 6e 3d 8b 44 17 bd
       -0.00028776738 -0.071484804 0.058204427 -0.036930602
000060 38 4d 52 bd 9b a3 32 bd ee ce 9e 3d b0 ae 53 bc
       -0.051343173 -0.043613058 0.077543125 -0.012920067
000070 72 11 15 3b 34 19 40 3d fb 0a 2e bb 6e 86 36 3d
       0.0022745994 0.046899036 -0.0026556838 0.044561796
000080 e4 0d c7 3a 18 91 4b bd c7 7e 9e bd 2a 19 8a bd
       0.0015186635 -0.04969892 -0.077390246 -0.06743081
000090 a0 69 2f 3d f0 a0 39 3d 6e 99 d1 3b ac 27 1a 3d
       0.04282534 0.045319498 0.006396464 0.03763549
0000a0 bf a5 0c bd 58 0c c1 3d 05 e8 2e bd 56 cc 96 bd
       -0.034337755 0.094261825 -0.04270174 -0.07363193
0000b0 17 34 d6 3c 16 b7 a5 bc 3a d3 91 3d 6f 12 30 3d
       0.026147885 -0.020228904 0.071203664 0.04298633
0000c0 06 27 38 bd 39 0a 8d bb 3a 5f 3c 3d f1 2f bc bd
       -0.04495909 -0.004304197 0.045989253 -0.091888316
0000d0 c6 a2 c0 bd 9f 44 6c bd 34 04 07 3d 82 01 6c bc
       -0.094060466 -0.05768263 0.032962993 -0.014404656
0000e0 77 4b 0c bc 97 2c 6f 3d ed d2 c6 bc 0d 29 84 bd
       -0.008562914 0.058392134 -0.0242705 -0.06453142
0000f0 3b d4 95 bc bb 7b b5 bd ec 07 59 bd f4 06 c8 bc
       -0.018289676 -0.0886149 -0.05298607 -0.024417378
000100 7e 16 a8 3d 80 97 c1 bd 1f 91 cd 3c d7 bb 3a bd
       0.08207415 -0.094527245 0.025093613 -0.045589294
000110 25 20 35 3d 23 33 98 bd 80 ac f5 bc 15 3a cc bc
       0.04422011 -0.074316286 -0.029989481 -0.02493004
000120 2a d9 98 bd 88 bf 92 3d e8 3d e2 bc 51 bf 83 3d
       -0.07463296 0.07165438 -0.02761741 0.06432975
000130 57 c4 45 ba d0 f3 4b bd 4f a7 aa bd 5a 28 56 3d
       -0.00075442105 -0.049793065 -0.08332693 0.052284576
000140 70 0f 03 3d 9f f5 a5 3d 21 7d 66 bd 86 70 1c 3c
       0.031997144 0.08103489 -0.056271676 0.009548312
000150 ea 34 8e 3d ce c0 75 bd 81 e3 07 3c 15 b2 c4 3d
       0.06943686 -0.059998326 0.008293987 0.09604279
000160 8a 5a af bd 0e 99 b0 3d bc 21 22 bb cb 46 88 3c
       -0.08562191 0.08622943 -0.0024739346 0.01663532
000170 b2 be 9b bc e3 d8 fe 3c c9 de ca bc b5 d1 a4 bb
       -0.019011829 0.031109279 -0.024764435 -0.005029882
000180 a7 5f 25 bd 0c f6 3f 3b 03 ea df bc 69 68 bd bd
       -0.040374424 0.0029290942 -0.027333265 -0.0924843
000190 97 ed 98 bc 9d 38 ac bd 09 f4 8f 3d bd 87 88 3d
       -0.01866798 -0.084092356 0.07028968 0.06666515
0001a0 04 f4 bb 3d e0 21 9b 3d c1 9a 61 bd bb a8 66 3d
       0.09177402 0.075748205 -0.055079225 0.056313258
0001b0 1f ad 49 3c 34 eb e3 bb b2 80 2d 3d d6 7b 26 3d
       0.012309342 -0.0069555286 0.04235906 0.040645443
0001c0 6d c1 ef 3c 65 18 6f 3d ec 3c 4f bd 43 5b ee 3c
       0.029267037 0.058372874 -0.05059521 0.029096251
0001d0 96 6e 9e bd b5 f8 12 bd ec 48 bc 3d f7 3f 1a 3d
       -0.07735936 -0.035881717 0.09193596 0.037658658
0001e0 86 cf 6f 3d 24 a5 c1 3d 5a a6 0f 3d b0 9a 2b bd
       0.05854752 0.09455326 0.035070755 -0.04189557
0001f0 04 27 a2 3d aa 29 2f bd 80 97 57 3c 0c fc cf 3c
       0.07917598 -0.042764343 0.013158679 0.02538874
000200 af 28 73 3c e0 fb d2 bd 4e 43 71 3c f0 b7 6b bd
       0.014841243 -0.103019476 0.014725519 -0.057548463
000210 a4 78 48 3d 6d db d8 bc 2b 75 7c bd 45 84 11 3d
       0.048943177 -0.026471818 -0.061635178 0.035526533
000220 4c c6 c0 3d 28 7b 16 bc 81 5c 87 bd 88 22 98 3d
       0.09412822 -0.009184636 -0.066094406 0.07428461
000230 42 6b a9 3c d2 8c c6 bc 68 e3 0f bd c2 d0 24 bd
       0.020681027 -0.02423707 -0.03512898 -0.04023815
000240 74 7b 3d 3d fc e8 1a 3c aa ad ab bd fb e6 21 3c
       0.046260312 0.009454962 -0.08382733 0.00988173
000250 bb 5f 3e 3d 1c e4 7d bd ab 0b bb 3d 8e d8 8a 3d
       0.046478014 -0.06198512 0.09133085 0.06779586
000260 b9 16 b6 3d b2 01 43 3c 4b 5d c9 bd 7d 62 0e 3d
       0.08891053 0.01190226 -0.09832247 0.034761894
000270 43 6f 10 bd 7a fd 1d bd ba b5 83 bd 76 56 fb bb
       -0.035262357 -0.038571812 -0.06431146 -0.007670219
000280 64 2b 86 bd 51 21 93 bd 67 df 5c 3d e1 e6 7a bd
       -0.06551245 -0.07184089 0.05392399 -0.06125534
000290 d6 df a4 3c 2c 82 0d 3c d6 c4 a1 3c 59 9a b7 bd
       0.020126265 0.008636992 0.019747179 -0.08964986
0002a0 bf 58 ab bc e9 23 92 3c e3 ca 06 bb cc f5 a7 3d
       -0.02091634 0.017839389 -0.0020567707 0.08201179
0002b0 fd 16 04 3d 60 4d 0e 3d cb 8e ab 3d 9a d7 3a bd
       0.032248486 0.03474176 0.08376845 -0.04561577
0002c0 51 dc 83 bd 84 ac 03 bc ca 77 42 bd d2 5a 76 bd
       -0.064385064 -0.008036736 -0.04747752 -0.060145207
0002d0 7a f4 3f bc d0 96 bb 3d 88 6f 66 3d 81 de 9e bc
       -0.011716003 0.091596246 0.05625871 -0.019393208
0002e0 1e 17 ba 3c b7 01 af bd 44 3d 02 3d 1f ab a6 bd
       0.022716101 -0.08545249 0.03179671 -0.081381075
0002f0 d0 23 10 3d 25 e9 bf bd a7 0b c9 3c 7b ad 03 bd
       0.035190403 -0.09370641 0.02454169 -0.032147866
000300 10 b5 2c 3d df 4a aa bd c6 ef e9 bc eb 91 af 3d
       0.042164862 -0.08315062 -0.028556716 0.085727535
000310 0f 77 5e bd 8d da af bd c9 47 a4 bd 70 14 80 3d
       -0.054312762 -0.08586607 -0.080215044 0.06253898
000320 f7 ab c1 bd 39 a5 5a 3d 0e 1e 1b 3d a3 c3 f1 3c
       -0.09456628 0.053380225 0.03787046 0.029512232
000330 56 0c 7e bd 79 b2 b3 3d 7c 2a 82 bd 1f f6 9d bd
       -0.062023483 0.08774275 -0.063557595 -0.077129595
000340 ff f1 e4 3c 67 8d 89 bd e1 07 32 bb 48 e1 92 3d
       0.027947424 -0.067164235 -0.002716534 0.07171875
000350 81 99 a5 3d 2c 22 9b 3d b1 44 bd bd cf d8 aa 3b
       0.08085919 0.07574877 -0.092416175 0.005213834
000360 31 fd c2 3d a2 87 94 bd 0b a6 a6 3d a5 91 9d bd
       0.09520949 -0.072524324 0.08137139 -0.07693795
000370 ee ad 61 bc cd ac aa bc a7 f3 f8 ba 79 63 b1 3d
       -0.013774378 -0.020834351 -0.0018993512 0.08661551
000380 a3 33 99 3d 6d 55 ec bc c7 1d b8 bc de 12 c4 bd
       0.07480552 -0.028849328 -0.022475136 -0.09573911
000390 dc fc 84 bc 14 11 cc 3d 35 fe 22 3d 8f 55 0e 3c
       -0.016233854 0.09964195 0.039793212 0.008687391
0003a0 00 df 38 bc 8c 8a 21 3c 85 c8 97 bd 6b 11 82 bc
       -0.011283636 0.009859692 -0.07411293 -0.015877446
0003b0 c5 19 82 3d cc 3e 19 bd b7 e8 0f bc 0a 6f 68 3d
       0.063525714 -0.037413403 -0.008783511 0.05674652
0003c0 a4 c9 d0 3d 03 94 5e 3c ea 72 a6 3b 55 4b 8c bd
       0.1019471 0.013585093 0.005079617 -0.06850306
0003d0 ef 47 14 3d d4 96 27 bc dd 34 ca 3d f2 4f ab 3d
       0.036201414 -0.010228831 0.09873364 0.08364858
0003e0 54 9f ef b8 ed 80 0f 3d d6 89 aa bd 09 6d 3b 3d
       -0.00011426085 0.035035063 -0.08327071 0.04575828
0003f0 bc a9 96 3c 0d 1c bd 3d 67 fc b1 3d 3e 47 a3 3d
       0.018391483 0.09233866 0.0869072 0.07972573

bn1.weight f4 [512]
000000 77 33 a3 3f 9b c0 9c 3f bf 9e 9c 3f 82 1f 8e 3f
       1.2750081 1.2246279 1.2235945 1.1103365
000010 2d 67 ae 3f 17 0a a4 3f ae 69 a3 3f 0b d9 a0 3f
       1.3625237 1.2815579 1.2766626 1.2566236
000020 e0 25 a5 3f 53 36 a0 3f bd 6b ae 3f ff d5 a4 3f
       1.2902184 1.2516578 1.3626629 1.2877806
000030 82 1a 9d 3f ab bf a7 3f aa 11 94 3f 0d e7 a6 3f
       1.2273715 1.3105367 1.1567891 1.3039261
000040 4a 64 9c 3f d9 e3 93 3f 3b 16 9f 3f a7 25 97 3f
       1.2218106 1.1553909 1.2428659 1.1808366
000050 2e 55 9b 3f 0f 98 a0 3f 61 d7 9f 3f 94 c5 a9 3f
       1.213537 1.2546405 1.2487603 1.3263421
000060 56 4c a9 3f cd 87 98 3f ce 7c af 3f 53 ee a7 3f
       1.3226421 1.1916443 1.3709962 1.3119606
000070 d9 86 90 3f 2a 67 a9 3f 06 51 a3 3f 7c 90 a2 3f
       1.1291152 1.3234608 1.2759101 1.2700343
000080 e4 25 9e 3f ba e8 95 3f c8 c7 a1 3f 89 58 93 3f
       1.2355313 1.1711648 1.2639093 1.1511394
000090 ed fc 9d 3f fa 52 a5 3f b9 89 a3 3f 06 4b ae 3f
       1.2342812 1.2915947 1.2776405 1.3616645
0000a0 4d d9 a7 3f 5d a5 a9 3f ef b6 ab 3f 30 48 ab 3f
       1.311319 1.325359 1.3415202 1.3381405
0000b0 af 3e 9d 3f a5 10 a1 3f e6 67 a9 3f 98 bd a6 3f
       1.2284755 1.2583205 1.3234832 1.302661
0000c0 3a 60 a3 3f 50 ce a0 3f 2f 33 9e 3f c7 56 ae 3f
       1.2763741 1.2562962 1.235937 1.3620232
0000d0 aa 35 b3 3f e9 f8 a1 3f 9d c5 98 3f 86 5e a9 3f
       1.4000752 1.2654086 1.1935307 1.3231971
0000e0 a4 8f 90 3f c7 b9 bb 3f a2 7e a5 3f ec 43 a5 3f
       1.1293836 1.466607 1.292927 1.2911353
0000f0 c9 69 a0 3f 9c dd a1 3f 26 43 a5 3f bd 13 a0 3f
       1.2532283 1.2645755 1.2911117 1.2506024
000100 81 c6 a9 3f aa c1 a9 3f ed e3 a5 3f 28 cf 9c 3f
       1.3263704 1.3262227 1.2960182 1.2250719
000110 ff 4d 9f 3f c8 3d 9d 3f 09 93 a4 3f d9 aa a9 3f
       1.2445678 1.2284479 1.2857372 1.3255264
000120 45 c0 ac 3f 17 61 8e 3f 4e b8 a4 3f 11 bb a5 3f
       1.3496176 1.112338 1.2868745 1.2947713
000130 58 39 95 3f 9e 37 9f 3f 37 04 a7 3f e1 25 86 3f
       1.1658125 1.2438848 1.3048161 1.048031
000140 85 59 a6 3f 05 27 aa 3f f6 62 a5 3f f1 5b a8 3f
       1.2996069 1.3293158 1.2920825 1.3153058
000150 4d af 91 3f 58 40 a9 3f 70 0e 9d 3f c5 a5 97 3f
       1.1381623 1.3222761 1.2270031 1.1847464
000160 05 32 9e 3f ab e3 a2 3f b9 60 a6 3f d7 0b aa 3f
       1.2359015 1.2725729 1.2998267 1.3284863
000170 5b f9 a5 3f a4 61 98 3f ab d1 9e 3f df ea a8 3f
       1.2966722 1.1904798 1.2407736 1.3196677
000180 87 a3 a7 3f 5c a0 92 3f ad 15 9d 3f 5b 7f 9c 3f
       1.309678 1.1455188 1.227224 1.2226366
000190 8b c0 a4 3f 54 d9 a8 3f d8 88 a7 3f ab 7d ab 3f
       1.287126 1.3191323 1.3088636 1.3397726
0001a0 9c c1 94 3f 23 d1 97 3f dd 35 9d 3f c3 e4 a6 3f
       1.1621585 1.1860698 1.2282063 1.3038563
0001b0 c2 d4 a0 3f b4 99 9c 3f 4f ca a3 3f c7 fd af 3f
       1.2564929 1.2234406 1.2796115 1.3749322
0001c0 ea 9b ac 3f f5 29 98 3f 55 d1 9d 3f 83 e2 9f 3f
       1.3485081 1.1887804 1.2329508 1.2491001
0001d0 09 7a ab 3f 97 05 90 3f d8 39 a3 3f 25 a9 a8 3f
       1.3396617 1.1251706 1.2752028 1.3176619
0001e0 4e b9 9c 3f b8 d8 a2 3f a4 bd 8c 3f e3 93 a5 3f
       1.224405 1.2722387 1.0995374 1.2935756
0001f0 90 0d a3 3f 6f 84 aa 3f 82 eb a5 3f 72 c4 9f 3f
       1.2738514 1.3321666 1.2962496 1.2481825
000200 9b 97 a4 3f c0 39 a7 3f 43 82 ac 3f 1a 7e 99 3f
       1.2858766 1.3064499 1.3477253 1.1991608
000210 f2 14 9e 3f d2 24 a6 3f 4f e8 9c 3f 4c 7f aa 3f
       1.2350142 1.2979987 1.2258395 1.3320098
000220 d9 13 a1 3f fc eb 9e 3f dd 4f a7 3f 68 1c ab 3f
       1.2584182 1.2415767 1.3071247 1.3368044
000230 50 71 a3 3f 5a 8c a3 3f 6d 79 a2 3f 9b b8 97 3f
       1.2768955 1.2777207 1.2693306 1.1853212
000240 77 e2 ae 3f 0d 27 a0 3f a1 e9 9c 3f b5 c8 9b 3f
       1.3662862 1.2511917 1.2258798 1.2170626
000250 6d a7 ac 3f 4c c1 9d 3f b0 53 a4 3f 6a 17 9c 3f
       1.3488594 1.2324615 1.2838039 1.2194645
000260 1a 83 9d 3f 36 71 af 3f df 1c ad 3f 12 e9 a7 3f
       1.2305634 1.3706424 1.3524436 1.3118002
000270 e9 50 99 3f dd 11 a6 3f 4d 12 a1 3f 20 ff a1 3f
       1.1977817 1.2974201 1.258371 1.2655983
000280 11 70 97 3f 10 3e 93 3f 0d 4e a0 3f 0a 41 a7 3f
       1.1831075 1.1503315 1.2523819 1.3066723
000290 71 02 9a 3f b2 97 9a 3f f7 36 aa 3f d1 ed aa 3f
       1.2031995 1.2077544 1.3298024 1.3353826
0002a0 b9 6d 95 3f e2 f6 a5 3f f9 ab a0 3f ec 9b a0 3f
       1.167411 1.2965968 1.2552482 1.2547584
0002b0 0c 6d a6 3f 1a a9 a6 3f 65 38 92 3f 23 8c a1 3f
       1.3002028 1.3020356 1.142346 1.2620891
0002c0 2b 4a a4 3f ab 52 97 3f 61 8c a4 3f a3 70 aa 3f
       1.2835134 1.1822103 1.285534 1.3315624
0002d0 ea 40 a0 3f f8 35 a4 3f d3 2a 90 3f 75 c1 a5 3f
       1.251981 1.282897 1.1263069 1.2949663
0002e0 81 3d a1 3f 8f 6a 8a 3f e4 e2 97 3f 5a 2d 99 3f
       1.2596895 1.0813769 1.1866117 1.1966965
0002f0 e6 1c a0 3f e3 f0 a8 3f b7 80 a4 3f 0f 26 ac 3f
       1.2508819 1.3198513 1.2851781 1.3449115
000300 ba 70 a1 3f 3c 1e a9 3f 47 d7 a0 3f 08 d0 aa 3f
       1.2612526 1.3212352 1.2565697 1.3344736
000310 fd d1 a0 3f 2d 5e a6 3f 4c 9b 9f 3f 39 c5 91 3f
       1.2564083 1.299749 1.2469268 1.1388313
000320 0e 39 9a 3f 3e 2d 9d 3f bc bf 9f 3f 10 7f 9f 3f
       1.2048662 1.2279432 1.2480388 1.2460651
000330 9a f8 97 3f f7 70 9f 3f 4a bb a3 3f a4 9f 9b 3f
       1.1872742 1.2456349 1.2791531 1.2158093
000340 80 f8 97 3f cd 17 ab 3f 2c b8 a3 3f 48 14 9d 3f
       1.1872711 1.3366638 1.279058 1.2271814
000350 9d aa a6 3f 65 03 a0 3f f0 75 94 3f 69 77 a3 3f
       1.3020817 1.2501036 1.1598492 1.2770816
000360 08 bb aa 3f f7 e5 9d 3f a5 0c 9d 3f 99 be b2 3f
       1.3338327 1.2335805 1.2269484 1.3964416
000370 95 bd a9 3f 1a 6e af 3f 2d 43 a6 3f 07 c7 a1 3f
       1.3260981 1.3705475 1.298925 1.2638863
000380 5f b9 a8 3f fb 92 a5 3f 70 87 96 3f f4 92 9f 3f
       1.3181571 1.293548 1.1760082 1.2466722
000390 fa ed 98 3f c6 c8 a2 3f a3 80 a0 3f f5 fe a4 3f
       1.1947625 1.2717521 1.2539257 1.2890307
0003a0 6f 1c a1 3f 0d 01 a7 3f c2 20 9f 3f ed 19 af 3f
       1.2586802 1.3047196 1.2431872 1.3679787
0003b0 09 dc a2 3f 9a f7 a9 3f 43 bd 91 3f a8 78 a2 3f
       1.2723399 1.3278687 1.1385883 1.2693071
0003c0 7e a3 a7 3f f8 b4 9e 3f 66 e3 ab 3f 20 94 a0 3f
       1.3096769 1.2398977 1.3428771 1.2545204
0003d0 9a c9 9d 3f c2 e3 a0 3f 79 28 a8 3f 2e 5a 9b 3f
       1.2327149 1.2569506 1.3137351 1.2136896
0003e0 b2 8d a4 3f f9 f6 95 3f 3b 58 a4 3f 34 18 af 3f
       1.2855742 1.1715995 1.2839426 1.3679261
0003f0 03 78 99 3f 74 18 97 3f e8 af a3 3f 04 29 a8 3f
       1.198975 1.1804338 1.2788057 1.3137517

bn1.bias f4 [512]
000000 4a 1a c8 be f3 62 a9 be a3 e1 b9 be e6 83 a2 be
       -0.39082557 -0.33083305 -0.3630496 -0.31741256
000010 73 df a6 be b0 b7 9f be 1d 96 80 be ac 56 af be
       -0.32592353 -0.3119483 -0.25114527 -0.34245813
000020 e2 43 b8 be 25 65 77 be 44 ed a1 be 4e 6b ec be
       -0.3598929 -0.24159677 -0.31626332 -0.46175617
000030 2d 57 a4 be c4 ac 73 be 89 da a7 be 39 ac af be
       -0.3209776 -0.23796374 -0.32783917 -0.34311083
000040 c4 cc cb be 80 65 87 be b3 b3 b9 be 96 80 8c be
       -0.3980466 -0.26444626 -0.36269912 -0.27441853
000050 c9 de 94 be 61 b7 95 be 31 6d cc be a6 3f c6 be
       -0.29076222 -0.2924147 -0.39927056 -0.38720435
000060 5c 9b b6 be ed b7 bd be e8 ac b4 be 64 c5 b8 be
       -0.35665405 -0.37054387 -0.35288167 -0.36088097
000070 9d 78 39 be cd f6 cf be d0 00 d8 be ef c8 8d be
       -0.18112417 -0.40617982 -0.4218812 -0.27692363
000080 b8 e2 c8 be a9 5c d8 be 95 35 97 be 76 16 9b be
       -0.39235473 -0.42258194 -0.29533067 -0.30290574
000090 d7 ee a3 be 7a 8a bc be 46 96 fe be 66 10 d8 be
       -0.32018158 -0.368244 -0.49724025 -0.4220001
0000a0 e8 ae b0 be 9d 4d e9 be 3f 07 ae be 99 5d 64 be
       -0.34508443 -0.45567027 -0.33989903 -0.2230133
0000b0 a6 b0 9a be 20 e4 c6 be ef fd d5 be 16 72 cf be
       -0.30212897 -0.3884592 -0.41795298 -0.40516728
0000c0 2e 0b cc be c6 7b 76 be e8 34 95 be 09 d7 dc be
       -0.3985228 -0.24070653 -0.29141927 -0.4313281
0000d0 b8 ab c1 be 6b 91 7f be 21 9b b0 be e2 bc c6 be
       -0.37826324 -0.24957816 -0.34493354 -0.3881598
0000e0 56 bc af be 0a bb ce be 4d 0f b3 be fa ee c0 be
       -0.34323376 -0.40377074 -0.3497261 -0.37682325
0000f0 3d b1 aa be ae ab d2 be f4 05 fc be 5c c6 9c be
       -0.33338347 -0.41146606 -0.49223292 -0.30620086
000100 5a 35 55 be a3 7d aa be 25 33 ac be d7 a4 8b be
       -0.20821133 -0.33298978 -0.3363277 -0.272742
000110 cb 85 bc be 1a ad 62 be 3c 73 25 be 09 c6 ca be
       -0.36820826 -0.22136346 -0.1615724 -0.39604214
000120 33 80 f7 be af c3 88 be 21 dc 8f be bc e6 d3 be
       -0.48339996 -0.26711795 -0.28097633 -0.41386974
000130 9b bf 31 be b3 f0 87 be 5a bb 48 be c5 f2 7d be
       -0.17358248 -0.26550826 -0.19602719 -0.2479964
000140 7c ac d2 be bf 48 aa be f3 df 8e be ef e0 7b be
       -0.4114722 -0.33258626 -0.27905235 -0.24597524
000150 cd 08 88 be dd 57 c9 be 5c 85 8a be 61 2f 5f be
       -0.26569214 -0.39324847 -0.2705487 -0.21795417
000160 a4 be cc be 60 c5 c9 be 60 26 c8 be 44 1e 9d be
       -0.39989197 -0.39408398 -0.39091778 -0.30687153
000170 15 f8 a8 be b2 d6 aa be 39 6d a2 be 55 94 eb be
       -0.33001772 -0.33366925 -0.31723955 -0.46011606
000180 eb 34 e1 be f6 a2 22 be 35 fd b3 be 49 97 9c be
       -0.43985686 -0.15882477 -0.3515412 -0.3058417
000190 3f c1 a9 be 11 6b f9 be a5 2a bd be d3 98 a9 be
       -0.33155248 -0.48714498 -0.36946598 -0.33124408
0001a0 9c e8 bb be a7 12 4f be 14 e2 a4 be ed 4d c6 be
       -0.36700904 -0.20221959 -0.32203734 -0.38731328
0001b0 ea ee a2 be fe 1b 8b be 4e 8b 08 bf 9f 0f dd be
       -0.31822902 -0.27169794 -0.5333756 -0.4317598
0001c0 b4 04 c9 be 8a 3a b1 be 58 ec ae be 5a 78 8b be
       -0.392614 -0.34614974 -0.3416469 -0.27240258
0001d0 e5 d5 d0 be ec 42 95 be 23 ac f8 be 08 e6 c7 be
       -0.4078819 -0.2915262 -0.4856883 -0.39042687
0001e0 88 57 aa be 7d 4d 9a be 86 e5 a5 be 22 34 cb be
       -0.33269906 -0.30137244 -0.32401675 -0.39688212
0001f0 79 67 b5 be 5a 08 d4 be 3c 05 ab be da ff 82 be
       -0.35430506 -0.41412622 -0.3340243 -0.25585824
000200 ec dc e3 be 4e 37 dd be a3 a1 ba be 12 a2 a2 be
       -0.44504488 -0.43206257 -0.36451444 -0.31764275
000210 f1 12 a9 be e4 d0 9b be 6e 8a c0 be 91 bb c8 be
       -0.33022264 -0.30432808 -0.37605613 -0.39205602
000220 e6 81 bb be c9 25 75 be d6 90 a0 be 5a 8e d9 be
       -0.36622542 -0.23940195 -0.313605 -0.42491418
000230 2e 2c 7e be aa 59 76 be a1 28 97 be 11 39 bc be
       -0.2482154 -0.24057642 -0.29523185 -0.36762288
000240 66 69 be be 1b 14 ba be 7b a3 9c be 2e 3b d0 be
       -0.37189788 -0.36343464 -0.30593476 -0.4067015
000250 08 a6 bc be 01 f1 9f be 25 fb cc be 89 98 c8 be
       -0.36845422 -0.3123856 -0.40035358 -0.39178875
000260 e5 09 b9 be fa 99 9c be 17 ea b9 be a5 38 bf be
       -0.3614036 -0.30586225 -0.3631141 -0.37347904
000270 5f 2a b5 be 90 4e d8 be d3 e4 cd be ac 5b aa be
       -0.3538389 -0.42247438 -0.40213642 -0.33273065
000280 2e bc 98 be 3d ee 75 be 8f f3 9f be ee f0 70 be
       -0.2983107 -0.24016662 -0.31240508 -0.23529407
000290 75 42 e1 be 2a ca c0 be 27 00 90 be cf bc fb be
       -0.43996015 -0.3765424 -0.28125116 -0.49167487
0002a0 3d 93 4f be b9 22 bd be be 0b d8 be 9f db ab be
       -0.2027101 -0.36940554 -0.4219646 -0.33565995
0002b0 52 cc c0 be b4 e9 9e be 77 92 9d be 7b 85 99 be
       -0.37655884 -0.31037676 -0.30775806 -0.2998465
0002c0 3b 70 86 be 3d ea 88 be ef ac 87 be 49 aa a0 be
       -0.262575 -0.2674121 -0.26499125 -0.31379917
0002d0 83 e9 9c be 60 53 a2 be ad eb 87 be fe cd d5 be
       -0.30646905 -0.31704235 -0.26546994 -0.41758722
0002e0 46 0c ae be ab 5c 27 be 95 b8 8f be 8d 1b ae be
       -0.3399374 -0.16343944 -0.28070512 -0.34005395
0002f0 5d e7 92 be 25 0d 7b be 75 f0 91 be b0 f5 a3 be
       -0.2869214 -0.24516733 -0.28503767 -0.32023382
000300 52 e8 97 be b3 03 71 be ae b8 cd be 97 e6 78 be
       -0.29669434 -0.23536567 -0.40179962 -0.24306713
000310 33 bb a2 be ba 58 f1 be a1 cd d0 be 2c 65 8e be
       -0.31783447 -0.47138005 -0.40781882 -0.27811563
000320 78 91 a7 be 52 e7 84 be 47 14 60 be 16 8b 89 be
       -0.3272817 -0.25957733 -0.21882735 -0.26863927
000330 01 ce 8e be a9 98 c6 be d0 21 8c be 07 bf a6 be
       -0.27891544 -0.38788345 -0.27369547 -0.32567617
000340 41 2c 94 be 0b 17 9e be 88 20 db be 97 b5 81 be
       -0.28940013 -0.30876955 -0.42798257 -0.25333855
000350 2e 1f d0 be f4 3b be be 18 d7 db be 1d 83 98 be
       -0.40648788 -0.37155116 -0.4293754 -0.29787531
000360 a8 17 b9 be f9 7e ce be 4a 39 b4 be 2f 6b ca be
       -0.3615086 -0.40331247 -0.35199958 -0.395349
000370 6b bd ce be 9b 1d 96 be d9 45 b1 be 3e dd 9d be
       -0.4037889 -0.29319462 -0.34623602 -0.30832857
000380 95 60 9e be ff 42 bb be 1a dd a6 be 62 f0 c8 be
       -0.3093306 -0.3657455 -0.32590562 -0.39245898
000390 2f 7e a9 be fd df 89 be fd 38 52 be 9c fc d9 be
       -0.33104083 -0.26928702 -0.20529552 -0.42575538
0003a0 0a 3b d7 be 7a dd cf be c1 58 63 be 64 1c ce be
       -0.4203723 -0.4059866 -0.22201826 -0.40256035
0003b0 3d e0 f1 be 37 64 8d be a8 e3 62 be c0 d5 93 be
       -0.47241393 -0.2761552 -0.22157156 -0.28874016
0003c0 4e d3 dc be 95 01 d7 be 14 bb c6 be d7 28 a5 be
       -0.43129963 -0.41993394 -0.38814604 -0.3225772
0003d0 e4 0b 95 be f7 d5 c6 be b5 bb c2 be b5 98 e9 be
       -0.29110634 -0.38835117 -0.38033834 -0.4562432
0003e0 ca 63 dd be 85 41 b0 be 19 f9 b7 be 37 f5 aa be
       -0.43240196 -0.34424987 -0.35932234 -0.3339021
0003f0 3f 89 d4 be 1f 59 a7 be aa 62 c8 be 5c cf c2 be
       -0.4151096 -0.32685181 -0.39137775 -0.38048828

bn1.running_mean f4 [512]
000000 5a fa 00 be 8e 77 66 bd 3a 25 5e bd 30 ac 77 bd
       -0.12595502 -0.05626636 -0.05423472 -0.060466945
000010 d8 6a 31 3e 06 43 45 3d e4 ad 88 3c 4c d3 8c bd
       0.17325914 0.04815962 0.01668448 -0.06876239
000020 19 72 b0 bd 30 59 ed 3c ac 80 e0 3d 5c 3f d5 3d
       -0.086155124 0.028973192 0.10962042 0.104124755
000030 a8 91 8b bc 1f 5b 18 bc eb d5 6e bd 16 73 02 be
       -0.017037228 -0.009299069 -0.058309477 -0.12739214
000040 e4 8e c9 bc 23 e7 0a bd 94 36 61 3d 80 de d6 39
       -0.024604268 -0.033911835 0.05498369 0.00040983036
000050 a0 d3 3a 3a 91 1a d1 bc 0b 36 58 3d c3 77 51 bd
       0.00071268715 -0.025525363 0.052785914 -0.051139604
000060 a0 e7 e7 bd 71 03 c8 bc ea 0e 0f 3e 72 f5 8e bd
       -0.11323476 -0.024415703 0.13970533 -0.06980409
000070 08 68 4e 3d d8 1f a0 3d dd 1f 35 3d 1c 61 43 bc
       0.05039218 0.07818574 0.04421984 -0.011925008
000080 cc 02 ce bd 44 53 8d bd d9 57 7e bd 49 b3 bb bd
       -0.10059127 -0.06900647 -0.062095497 -0.09165055
000090 fc 28 54 3c 02 06 7d 3d c4 5b f3 3b 5a 9a 90 3d
       0.012949225 0.061773308 0.007426711 0.0706069
0000a0 2c cc a9 bd 14 08 eb 3d c8 04 02 be aa 7a 11 be
       -0.08290896 0.1147615 -0.12697136 -0.14206949
0000b0 3d 31 7d bc 00 5a 32 bc 6e dd 0c 3d 32 17 23 3d
       -0.015453634 -0.0108857155 0.03439086 0.039817043
0000c0 e4 84 ab bd ee 5f f8 3c a6 4c ef 3c ab 5c cb bd
       -0.08374956 0.03031918 0.029211354 -0.099297844
0000d0 e2 f3 60 bd f6 9b 18 bd c0 14 7b 3c 10 92 4c 3d
       -0.054920085 -0.03725811 0.015324771 0.049943984
0000e0 c4 79 e4 bb 60 04 ee b9 10 10 44 bb fc 3a b2 3d
       -0.0069725234 -0.00045398157 -0.00299168 0.087026566
0000f0 04 04 81 3d 4f c9 78 bd 2b 47 dc bc 76 6f 20 3c
       0.06299594 -0.060738858 -0.026889404 0.009792199
000100 88 b6 8c 3d 5a 29 1e bd ef 8b 03 3d 14 4e 21 be
       0.068707526 -0.038613655 0.032115873 -0.1575244
000110 a8 f8 13 bc 08 da b9 bc 60 aa 0c bd 9d ba 6a bd
       -0.009031452 -0.022686973 -0.03434217 -0.057306875
000120 8e 92 04 be cb d8 b6 3c 83 8f 88 bc 9a 36 13 3e
       -0.12946531 0.022320172 -0.016669994 0.14376298
000130 65 b6 36 3c 7b 13 3e bd 47 fe 18 be d2 04 a6 3d
       0.011151885 -0.046405297 -0.14940749 0.08106388
000140 b7 07 08 bd 8c 46 9e 3d 2e 63 17 be d0 02 d4 bb
       -0.033210482 0.077282995 -0.14783928 -0.006470062
000150 a4 67 eb bc 80 99 f8 b9 cc b8 4c 3d d0 82 b9 3d
       -0.028735943 -0.00047416613 0.049980924 0.09058154
000160 ea 4b d8 bd 3d 73 04 3e 80 85 ef ba 60 bf 8a 3d
       -0.105613545 0.12934585 -0.0018274039 0.06774783
000170 88 d0 f6 bc 85 07 38 3d bc 00 3c bd 2e 06 41 bd
       -0.030128732 0.044929046 -0.045899138 -0.047125034
000180 88 a5 9d bb dc c7 17 3d d0 30 a5 bd 05 90 23 bd
       -0.0048109926 0.037055835 -0.08065951 -0.03993227
000190 e6 26 0b bd 02 de a8 bd 54 8c 96 3d 3b bd 2c 3e
       -0.033972643 -0.0824547 0.07350984 0.1686906
0001a0 a6 51 c2 3d b6 f3 91 3d b6 a0 32 bc 00 d2 91 3d
       0.094882295 0.07126562 -0.010902574 0.071201324
0001b0 64 bd 82 3c a6 df ed 3c 82 79 05 3c 88 ac 27 3c
       0.01595945 0.029037308 0.0081466455 0.010234006
0001c0 89 cf b5 3d b8 79 90 3d 5a 04 a3 bd 81 a5 90 bc
       0.08877475 0.07054466 -0.07959814 -0.017657043
0001d0 b8 bf de bd 54 29 54 bd 9d 0e e6 3c 01 32 92 3d
       -0.10876411 -0.051797226 0.02808314 0.07138444
0001e0 09 ba 40 3d ec a5 9f 3d 24 0b 55 3c a0 f2 14 be
       0.047052417 0.07795319 0.013003144 -0.14545679
0001f0 21 64 0b 3e 96 8c e1 bd cd 7d 00 3e cc 43 03 3d
       0.13612415 -0.11013143 0.12547989 0.032047078
000200 54 50 64 bb ba 49 0c be 87 19 4e 3d f5 9f d6 bd
       -0.0034837918 -0.137 0.050317314 -0.10479728
000210 c5 3f 73 3d 01 78 72 bd 0e bd 1d bd d5 c1 08 bd
       0.059386987 -0.059196476 -0.038510375 -0.033387978
000220 c6 48 ad 3d bf c0 8b bd 14 53 42 bd ad 92 0e 3e
       0.08461146 -0.06823873 -0.04744251 0.1392314
000230 a8 cc ac bd b0 45 ca 3b ab 4e 07 bd f2 89 ec bd
       -0.084374726 0.006172858 -0.033034008 -0.115497485
000240 ec 31 99 3d e0 b3 87 3c da 93 97 bd e4 ee 14 bd
       0.07480225 0.016565263 -0.07401247 -0.036360636
000250 d3 4b f0 3d 52 82 aa bd 2d 05 2d 3d ea 3b 9d 3d
       0.11733212 -0.08325638 0.042241264 0.07677443
000260 80 0a 04 bb e4 9d 7d 3d 45 20 c0 bd 56 65 0c 3e
       -0.002014786 0.061918154 -0.09381155 0.13710532
000270 88 8d 00 be ea d8 a3 bc 61 e9 26 bd 4d 59 13 3d
       -0.1255399 -0.020000894 -0.04074991 0.035973836
000280 33 98 90 bd 3d 31 7c bd 78 7b aa 3d 5e b6 9d bd
       -0.0706028 -0.061570395 0.08324331 -0.077007994
000290 60 ea e6 bb c9 64 75 bd d0 d8 99 bb 97 5e a1 bd
       -0.0070469826 -0.05991057 -0.0046950355 -0.0787937
0002a0 4b 30 9a bd e0 ee 5a 3c f6 80 ef bc 9f 08 6e 3d
       -0.075287424 0.013362616 -0.029236298 0.05811369
0002b0 c4 b9 9e 3c d6 a3 83 3d b4 49 b9 3c f0 46 ec bc
       0.01937569 0.064277336 0.022618152 -0.02884242
0002c0 a4 5d 32 be a4 e0 29 bd 77 85 93 3c 26 a7 72 bd
       -0.17418534 -0.041474 0.018007977 -0.059241436
0002d0 15 fb 24 bd 0e 84 ba 3d a9 c8 f4 3d f0 b5 65 bc
       -0.040278513 0.09107219 0.119523354 -0.014020428
0002e0 b3 9e e9 bc 89 2e 03 be 2b e4 22 3d f9 bf d4 bd
       -0.028518056 -0.1281072 0.03976838 -0.103881784
0002f0 5a 91 30 3d c5 f4 b5 bd ef 3d 91 3c 9e c1 40 3c
       0.043107368 -0.08884577 0.017729728 0.011764912
000300 de 45 f3 3b c2 d8 3b be ee e8 4d 3d c0 a1 1d 3c
       0.0074241003 -0.18344405 0.050270967 0.009621084
000310 cf 10 e9 bd fc 53 2d bc 12 8f de bd c4 01 d6 3d
       -0.11380159 -0.0105791055 -0.10867132 0.104495555
000320 89 22 05 be fb 83 a5 3d 82 28 63 bd b8 21 9b 3d
       -0.13001455 0.08081814 -0.055458553 0.07574791
000330 36 58 ab bd ac fe b8 3d 6e c3 b2 bd 32 44 93 bc
       -0.08366434 0.0903295 -0.087286815 -0.017976854
000340 09 98 d1 3d a2 be f1 bc fe 69 f3 bc 94 9f 2a 3d
       0.102340765 -0.029509846 -0.029713627 0.04165609
000350 50 ba d6 3d e5 b7 0b 3e 56 88 9c bd 10 88 80 bb
       0.10484755 0.13644369 -0.076431915 -0.00392247
000360 ac c1 f5 3d d0 71 3d bc 00 0a 19 3c 00 c4 87 bd
       0.119998306 -0.01156278 0.009340763 -0.06629181
000370 34 f5 7f 3b 4c 0a 6a bd ce b4 64 bd 74 94 e1 bc
       0.0039056065 -0.057138726 -0.05583649 -0.027536608
000380 08 44 f3 3d 20 0b d7 3b cc 49 25 bd ed 9a 83 bd
       0.1187821 0.0065626055 -0.04035358 -0.06426034
000390 1c 78 aa 3c be b8 c6 3d b7 e7 47 3d 85 87 cb 3c
       0.020809226 0.097032055 0.048804965 0.024844894
0003a0 59 3b df 3d d9 51 17 bd e3 eb 32 bd af 3d 86 bd
       0.108999915 -0.03694329 -0.04368199 -0.06554734
0003b0 74 61 2f 3d 5e 23 98 bd 2c 93 8a bb e5 91 71 3d
       0.042817548 -0.07428621 -0.00422897 0.058977026
0003c0 2b 7d f4 3d 0b 58 22 bc 17 d9 44 3d d4 e2 13 bd
       0.119379364 -0.009908686 0.048058596 -0.036104992
0003d0 b4 b2 8e 3d 56 97 a2 bd c0 20 d0 3d 26 a2 27 bd
       0.06967679 -0.07939021 0.101624966 -0.04092612
0003e0 1c 50 91 bb 90 0c 71 3d bd f5 ae bd 14 ef fa bc
       -0.0044345986 0.05884987 -0.085429646 -0.03063158
0003f0 90 17 a5 bd 33 62 ee 3c 29 97 0b 3e 4b 52 ef 3d
       -0.08061135 0.02909956 0.13631882 0.11685618

bn1.running_var f4 [512]
000000 57 7b a1 3e 91 af d6 3e 7b 55 12 3f 36 fd a3 3e
       0.31539413 0.41930822 0.5716168 0.32029122
000010 e1 8b 28 3f d1 6a b0 3e 44 d4 24 3f c2 83 ce 3e
       0.6583844 0.34456494 0.6438639 0.40334898
000020 b4 db be 3e 6c 9e 56 3f d5 ec a5 3e 75 31 f1 3e
       0.37276995 0.8383548 0.3240725 0.47108045
000030 26 12 4d 3f 9a 8f 9e 3e 78 1a f7 3e 19 37 c1 3e
       0.8010582 0.30968934 0.48262382 0.3773735
000040 07 5d a4 3e 8a ba d1 3e 3e ee 0b 3f b1 a2 a1 3e
       0.32102224 0.4096263 0.54660404 0.31569436
000050 ba 06 ac 3e 2b 24 17 3f a8 a4 9e 3e c1 03 c0 3e
       0.33598882 0.5903956 0.30984998 0.37502864
000060 6f 34 b9 3e 7b 16 1d 3f 74 c5 a3 3e 2d c9 90 3e
       0.36172816 0.6136243 0.31986582 0.28278485
000070 35 ab 23 3f f8 00 b0 3e c1 35 a1 3e 97 24 c5 3e
       0.63933116 0.3437574 0.31486323 0.38504478
000080 66 f1 9f 3e fe 48 fa 3e b7 68 cf 3e 94 76 ed 3e
       0.3123886 0.48883814 0.4050958 0.4637953
000090 24 68 fe 3e 40 4f de 3e 6a b5 db 3e eb 60 92 3e
       0.49688828 0.43419838 0.42911845 0.28589568
0000a0 43 e7 b7 3e 01 8e 9e 3e 29 53 bd 3e 3a d4 94 3e
       0.35918626 0.30967715 0.3697751 0.29068166
0000b0 1c 97 db 3e d5 c2 c9 3e b3 3d 88 3e 7a cf 83 3e
       0.42888725 0.39406458 0.26609573 0.2574423
0000c0 be 3d 90 3e dd 93 07 3f 9f 13 1c 3f 73 ee b8 3e
       0.28172106 0.52959996 0.6096744 0.36119422
0000d0 29 9e 07 3f bd 1d b4 3e ef 27 ea 3e 6a 62 b1 3e
       0.5297571 0.35178939 0.45733592 0.34645396
0000e0 8b 92 29 3f a5 75 e3 3e ea 7d d3 3e a4 67 cf 3e
       0.6623923 0.44425693 0.41307002 0.4050876
0000f0 f3 8a d9 3e 63 42 ed 3e a4 f5 fd 3e 86 11 ad 3e
       0.42488822 0.46339712 0.4960147 0.33802432
000100 73 8d 0d 3f 0b 47 b3 3e be 5d 2a 3f 77 42 f9 3e
       0.5529396 0.3501514 0.6654929 0.4868352
000110 a1 1f d8 3e af 22 e4 3e 97 a7 27 3f 3b 02 a6 3e
       0.4221163 0.4455771 0.65490097 0.32423577
000120 98 ff 02 3f 7a 35 0d 3f 24 8b a7 3e d7 13 ac 3e
       0.51171255 0.55159724 0.32723343 0.33608887
000130 a6 03 ee 3e 13 16 15 3f 45 1d a7 3e 4a 26 27 3f
       0.4648716 0.5823681 0.32639518 0.652928
000140 24 b5 80 3e 85 92 aa 3e 77 4a 18 3f 72 77 e8 3e
       0.251382 0.3331491 0.59488624 0.4540363
000150 89 d3 c1 3e 7b c6 80 3e cd f5 f9 3e 14 1d 94 3e
       0.378567 0.2515143 0.48820344 0.28928435
000160 fb 11 a7 3e 14 1a 94 3e 87 35 ac 3e 44 0c d3 3e
       0.32630906 0.28926146 0.33634588 0.41220295
000170 da 8e 8d 3e f4 ef b4 3e 81 68 02 3f b0 a8 9f 3e
       0.2764805 0.3533932 0.5094071 0.31183386
000180 68 97 e7 3e a1 e7 4c 3f 2f 0a b3 3e e5 87 94 3e
       0.452327 0.8004094 0.34968707 0.2900993
000190 3a ad cf 3e ba a8 d8 3e c1 ec af 3e 8a 99 a0 3e
       0.4056185 0.42316228 0.34360316 0.3136714
0001a0 6c a9 b1 3e 81 d9 8d 3f 01 78 d8 3e e1 a7 0b 3f
       0.3469957 1.1082002 0.42279056 0.5455304
0001b0 a0 ae c5 3e e9 cd c7 3f 20 20 bb 3e f7 ab 18 3f
       0.3860979 1.5609714 0.36547947 0.596374
0001c0 2d 83 03 3f 75 33 b8 3e cf 6e ea 3e 55 96 08 3f
       0.51372033 0.3597676 0.45787665 0.5335439
0001d0 c6 ac b7 3e 05 1b f9 3e 83 ec cd 3e 37 4d 05 3f
       0.35874003 0.48653427 0.40219507 0.52070946
0001e0 ab 93 c9 3e 3d 21 06 3f 83 4b c2 3e c1 a6 f3 3e
       0.39370474 0.5239447 0.37948236 0.4758816
0001f0 44 ab a7 3e 5f 74 d3 3e 44 0d 8c 3e b2 4f e7 3e
       0.32747853 0.41299722 0.2735387 0.4517799
000200 58 fa 7e 3e 80 aa c7 3e 14 2f 8f 3e e0 4a da 3e
       0.24900186 0.3899727 0.27965605 0.4263525
000210 c2 6a 8e 3e ed 57 96 3e 3d f6 e1 3e 7b 87 c3 3e
       0.27815825 0.29363957 0.44133177 0.381893
000220 50 a4 90 3e e5 cd 0d 3f 54 16 d2 3e c6 b8 db 3e
       0.2825036 0.55392295 0.4103266 0.42914408
000230 8a 5b c8 3e b7 0f 28 3f d0 ee ba 3e bf 78 04 3f
       0.3913234 0.6564898 0.36510324 0.51746744
000240 27 9f a7 3e 2f ff f8 3e 83 5f ca 3e 12 e2 df 3e
       0.3273861 0.4863219 0.39525995 0.43727165
000250 2a e2 d0 3e f1 5e bd 3e bc 3d d7 3e 9d 9a f9 3e
       0.4079755 0.36986497 0.42039287 0.48750773
000260 81 9f 1f 3f 4a eb b2 3e fe fe c5 3e 95 d4 df 3e
       0.6235276 0.34945136 0.38671106 0.43716875
000270 92 4e f4 3e 0c 48 e9 3e f4 a4 de 3e 1b a9 bb 3e
       0.47716194 0.4556278 0.43485224 0.36652455
000280 50 8b a0 3e 69 01 b7 3e 08 e4 c0 3e f8 c4 bc 3e
       0.31356287 0.35743263 0.37673974 0.36869025
000290 6a 22 59 3f fb d0 fa 3e e6 f9 b5 3e bd c6 02 3f
       0.84818137 0.48987564 0.3554222 0.510845
0002a0 84 47 d8 3e fc 89 9f 3e 70 07 ab 3e 02 f3 11 3f
       0.42242062 0.3115996 0.33404112 0.57011425
0002b0 7f 80 c5 3e 56 4d d2 3e 4d fb b2 3e 91 50 ef 3e
       0.38574597 0.41074628 0.34957352 0.46741155
0002c0 8f 5f 44 3f e5 ab 01 3f b1 8b d2 3e af b1 a7 3e
       0.7670831 0.50652915 0.411222 0.3275275
0002d0 9e 78 a6 3e 05 f4 e1 3e b6 d0 ec 3e af 10 a5 3e
       0.325139 0.44131485 0.46252984 0.3223929
0002e0 3c 58 d8 3e 43 0a c2 3e 89 fb c5 3e 43 3b c1 3e
       0.42254817 0.37898454 0.3866847 0.37740526
0002f0 80 eb 11 3f bc d9 81 3e ce 02 53 3e ae e6 b4 3e
       0.5699997 0.2536143 0.20606539 0.35332245
000300 40 ab 94 3e 70 f9 0d 3f bc 54 d4 3e 72 43 70 3e
       0.29036903 0.55458736 0.41470897 0.23463228
000310 d1 69 ea 3e 6b 16 ad 3e 6b 0c b6 3e 32 b8 10 3f
       0.45783857 0.33806166 0.3555635 0.5653106
000320 b6 03 c2 3e 05 b4 0c 3f f9 91 0f 3f 2a f8 1c 3f
       0.37893456 0.5496219 0.5608211 0.6131617
000330 64 4d bd 3e 3c 66 e7 3e c3 bf aa 3e 25 48 cb 3e
       0.36973107 0.45195186 0.33349428 0.3970348
000340 de e7 e5 3e 10 eb c7 3e 48 5b 3c 3f 72 43 0d 3f
       0.44903463 0.39046526 0.73576784 0.5518104
000350 1e 25 d5 3e bc 4a 0c 3f 73 04 f3 3e ba b4 09 3f
       0.4162988 0.54801536 0.47464332 0.5379139
000360 34 c1 23 3f 2a c8 e9 3e c5 52 bf 3e d9 e5 78 3e
       0.6396668 0.45660526 0.37367836 0.2430643
000370 3b 2f a6 3e 61 60 bc 3e ec d2 c8 3e 2a 4d 16 3f
       0.3245791 0.3679228 0.3922342 0.58711493
000380 cf a7 9f 3e 06 f0 b8 3e d1 f3 be 3e 30 05 05 3f
       0.31182715 0.36120623 0.37295392 0.5196104
000390 14 b3 b5 3e 5d 64 fc 3e 28 99 f4 3e a6 12 bb 3e
       0.35488188 0.4929532 0.477731 0.36537665
0003a0 1c c2 98 3e 5f 0b eb 3e 2c ec bc 3e 1e 9a 9e 3e
       0.29835594 0.45907113 0.36898935 0.30976957
0003b0 7e 9f a0 3e e2 dc ed 3e 32 ad 6d 3f 15 94 c3 3e
       0.31371683 0.46457583 0.928424 0.38198915
0003c0 fa a6 00 3f 12 aa 20 3f 1e f0 a3 3e 2c cc 55 3e
       0.50254786 0.62759507 0.32019132 0.20878667
0003d0 ac 3b bb 3e db 4c 5f 3f c1 f4 98 3e 7d 5a 40 3f
       0.36568964 0.8722665 0.29874232 0.75138074
0003e0 6d c8 d8 3e c0 3a ac 3e 35 b6 f5 3e 99 5c d0 3e
       0.42340413 0.33638573 0.47990575 0.40695646
0003f0 81 d3 d8 3e b6 6b 1b 3f bb 89 01 3f 4c f9 e2 3e
       0.42348865 0.6071123 0.50600785 0.44330823

fc2.weight f4 [256, 512]
000000 57 09 8c bc bb 57 c5 3b b6 d2 25 bd a9 b0 21 bd
       -0.017094297 0.006022421 -0.040484153 -0.039475117
000010 7a 37 7c bc 35 4a 24 bd 69 fd 70 3d ae ba e3 bd
       -0.015394086 -0.04010983 0.05883542 -0.11119591
000020 23 ca a5 bc ba 23 43 3b 0b d1 52 bc 39 ce 42 3d
       -0.020237988 0.0029775933 -0.012867223 0.04755995
000030 59 ba a6 3d ed ef ed 3c 47 ca 62 bc 7d 48 ba 3c
       0.08141012 0.02904507 -0.013842172 0.022739643
000040 5d 87 c9 bd 7d 66 9f 3d 2e 4f 32 3d 72 06 a3 bb
       -0.098402716 0.0778322 0.043532543 -0.0049751336
000050 e6 fa 96 bc 6d f5 79 3d 46 c6 33 ba b1 05 77 ba
       -0.018430185 0.061025072 -0.0006857853 -0.00094231503
000060 3b bb d1 3a 21 62 32 3c ab 89 d0 bd 8b a1 24 bd
       0.0016001234 0.010887654 -0.10182508 -0.040193122
000070 d5 38 a5 bb 4a f3 67 bd 6d 47 99 bd ab 28 09 bd
       -0.0050421753 -0.056628503 -0.074843265 -0.03348605
000080 bc 02 57 bd e4 2f d2 3c 38 ba 9f bc e3 1d 33 3c
       -0.052492842 0.025657602 -0.019497976 0.0109324185
000090 61 a3 19 bd 5e cf 16 3d 32 e0 f1 3c c9 a5 43 bd
       -0.037509326 0.036818855 0.02952585 -0.047765527
0000a0 18 68 1b bc ba 44 2e bd db 57 1e bd b1 54 3b bd
       -0.009485267 -0.04254601 -0.038658004 -0.045735065
0000b0 a8 7a cd bc 87 13 4f 3c f7 5c fc bd aa 3e 7b 3c
       -0.025082901 0.012638933 -0.12322419 0.0153347645
0000c0 66 cf 8c bc 8c 53 87 3b a1 49 ec 3c 79 95 4e bd
       -0.017188739 0.0041298326 0.028843703 -0.050435517
0000d0 b0 46 56 3d d4 f5 37 bc 0b e4 0e 3d e1 36 4e 3d
       0.052313507 -0.011228044 0.034885447 0.050345305
0000e0 91 45 89 3d 34 b7 19 3d 00 32 1e 3d dd b8 a0 3b
       0.06702722 0.03752823 0.038621902 0.00490485
0000f0 db a5 1d 3d ba 56 14 3b b6 e5 f1 bb 6e f3 a3 3a
       0.03848825 0.00226347 -0.00738212 0.0012508461
000100 1c e2 12 bd 64 c8 02 bb fc 7f f0 3d 35 91 93 3d
       -0.035860166 -0.0019955868 0.11743161 0.072054304
000110 31 6b 25 bb 9a ce 8b 3c e9 a1 a5 3d fb 21 1f bb
       -0.0025240893 0.017066289 0.080875225 -0.0024281729
000120 a5 9c 16 3c 9e 98 6c 3d 27 b4 8f bc ac f5 14 bd
       0.00919262 0.057762735 -0.017541958 -0.036367103
000130 d2 23 b4 3d 15 a6 93 3b 1d 6b 29 bc 63 b5 38 bd
       0.08795895 0.0045058825 -0.010340479 -0.04509486
000140 63 4d 69 bd 3f f2 93 3c f3 e6 3b bb 2e 0f 0e 3d
       -0.056958567 0.018059848 -0.0028671592 0.034682445
000150 9b ad 2f ba 04 c8 2e bc 93 2d fe 3c cf 71 e5 bb
       -0.00067015894 -0.010667805 0.03102759 -0.0070020924
000160 8e 68 80 3d e7 2a d4 3c ea 1d f7 3c 50 c6 81 bd
       0.06269942 0.025899364 0.030165631 -0.06336653
000170 59 2c 6a bc 8a f5 66 bd 8b 8e 2f 3d 3c 5a a1 3d
       -0.0142928 -0.056386508 0.04286055 0.07878539
000180 d9 f9 96 bd 0f 1a 33 3b 82 7e 86 3d a0 87 fc bc
       -0.073718734 0.0027328765 0.06567098 -0.03082639
000190 52 c9 0e bd 13 b4 aa bc 95 5a 38 bd 7d fb 96 bc
       -0.034859963 -0.02083782 -0.04500826 -0.018430466
0001a0 d3 2a 18 bd 55 ad dd 3c 97 05 9b bc 2e 92 96 3c
       -0.037150215 0.02706019 -0.018923564 0.01838025
0001b0 e5 51 03 3d b2 a5 44 3d 4d 4d 1d 3d f6 36 a1 3d
       0.032060523 0.048009582 0.038403798 0.07871811
0001c0 35 fe 8f 3c 29 94 1a bd 5d 44 2c 3d 80 10 17 3d
       0.01757727 -0.037738953 0.042057384 0.03688097
0001d0 cb 41 74 3d 49 c9 c3 bb 73 4c 17 bc 98 18 0c 3d
       0.059633058 -0.005974923 -0.0092345355 0.034203142
0001e0 7b 31 bd bb c9 d3 ad 3d 00 e7 81 bc d7 27 e2 bb
       -0.005773721 0.084876604 -0.01585722 -0.006901722
0001f0 45 33 34 bd ff 15 ca 3a c0 59 38 bc a0 bc 25 bc
       -0.043994207 0.0015417932 -0.011251867 -0.0101157725
000200 c5 1e 04 bc a9 cf 28 bd 60 22 e2 bc 2e 3e c1 3c
       -0.008063977 -0.041213665 -0.027604282 0.02358922
000210 7d 31 a9 bd 9b 1e 44 3d d0 ba fb 3c 68 f0 4f 3b
       -0.08261392 0.04788075 0.030728728 0.0031728987
000220 a4 35 8a bd db 5f de ba d6 e7 83 3d f6 09 1b 3c
       -0.067485124 -0.0016965823 0.064407036 0.009462824
000230 1c b0 bd 3d a2 a4 a2 3d f8 ca 15 be c0 d7 a5 bc
       0.09262106 0.079415575 -0.14628208 -0.02024448
000240 7e 49 c8 bd 8a ac ea 3c d1 12 ef bd 73 e4 22 3c
       -0.097796425 0.028646726 -0.11673511 0.009942162
000250 fd 23 de 3c 1d 19 a3 3d cd 53 7d 3c e2 21 b6 3c
       0.02711677 0.07963774 0.015461874 0.022232953
000260 55 33 31 3c d3 56 25 3c 02 16 aa 3c 05 8f 00 bc
       0.010815461 0.010091501 0.020762447 -0.0078465985
000270 b5 83 16 bd 90 af e6 3c dd 7c 08 3c 5d 57 c3 bb
       -0.0367467 0.028159887 0.008330551 -0.0059613422
000280 ca cc ba 3d 34 8e a3 bc 32 ba 7a bd 04 f9 14 bd
       0.09121092 -0.019965269 -0.061212726 -0.036370292
000290 7a d2 85 3d c6 79 4e bd 18 50 36 3d 7e 2a 86 3d
       0.06534286 -0.0504091 0.044509977 0.065510735
0002a0 61 cd aa bb 1f 65 01 bd 4f 8a 2b 3d c8 46 82 bc
       -0.0052124714 -0.031590577 0.04187995 -0.015902892
0002b0 c0 a7 a2 3d 43 58 94 3c 90 b3 a0 bb b6 e4 cc 3c
       0.07942152 0.018108493 -0.004904218 0.025011402
0002c0 c3 4b 17 3d 08 3c d1 bc 54 cd fc bc 6d e7 4a 3c
       0.036937486 -0.02554132 -0.030859627 0.012384278
0002d0 a1 e4 61 bc fe 33 bc bc 46 f9 ee bd 00 f2 36 bd
       -0.01378742 -0.02297401 -0.11668639 -0.044664383
0002e0 48 55 54 bc 8d b3 02 3d d4 5a 42 3d cb ee f1 bb
       -0.012959786 0.031909514 0.0474499 -0.0073832027
0002f0 50 1e f3 bc 25 20 d0 bc 62 0b b8 bd 87 14 77 bd
       -0.02967754 -0.025405953 -0.08986546 -0.06032231
000300 4d 0a 59 bd 1e 87 e1 bc d6 aa 82 3c db 6f 34 bd
       -0.05298834 -0.02753025 0.015950602 -0.044051986
000310 a8 a5 7c 3d 9e 3e 6f bd c3 de 00 be d4 20 4b bd
       0.06168142 -0.058409326 -0.12584977 -0.049591854
000320 07 9f 80 bd 82 9a 30 3d 0f ff fb bc 16 37 a8 bd
       -0.06280332 0.0431161 -0.03076127 -0.08213632
000330 e8 df 8a bb 6a c8 37 3c e8 65 61 bd ad dc 21 bd
       -0.0042381175 0.011217216 -0.055028826 -0.039517093
000340 c5 ef 3d bb 2c 82 58 3d 90 51 42 bd a2 ff 5e bc
       -0.0028982025 0.052858517 -0.047441065 -0.013610752
000350 ca d9 28 3c 8a 0b bc bc bf 49 c5 bc 8c 4b 12 bd
       0.010305831 -0.022954721 -0.024083016 -0.03571658
000360 a7 91 f2 bc 3e 2d 48 3c f0 6c 58 3d a2 c0 6e 3d
       -0.029610468 0.012217818 0.052838266 0.058289178
000370 45 cd b5 bd fd 36 5f 3d cd 1d b0 3d 8a c5 4d 3d
       -0.08877043 0.0544958 0.08599434 0.050237216
000380 dc dc 07 be e8 93 56 bd f2 47 4c bd 17 0b ca 3d
       -0.13267845 -0.05238715 -0.0498733 0.098653965
000390 31 19 78 bc 23 d9 83 3a 91 65 68 3c 76 11 50 3c
       -0.015142725 0.0010059219 0.014184372 0.0126994755
0003a0 26 c3 0e bc 94 3b 9c bb 21 a2 00 bd 4d 07 80 bc
       -0.008713519 -0.0047678445 -0.03140462 -0.015628481
0003b0 91 46 4c 3d 5f 69 1e 3d c0 72 35 bd 03 a8 e1 bc
       0.049871985 0.03867471 -0.044298887 -0.027545935
0003c0 f1 f4 1a 3b bd 4f 03 3b 4d 1a 15 3d ff f3 bf bc
       0.0023644532 0.0020036541 0.036402036 -0.023431776
0003d0 8e 2d 97 bd 19 8f df 3d 49 8c fe 3c e7 b3 5e bd
       -0.07381736 0.109159656 0.031072753 -0.054370787
0003e0 c9 64 80 3b 1f 20 b1 3c ee df 66 3c fd 72 6e 3c
       0.0039182645 0.021621762 0.014091475 0.0145537825
0003f0 56 60 16 bd ec bc 4e bd c4 ee d8 bd 3b 81 d8 3c
       -0.036712967 -0.05047314 -0.10592416 0.02642881
