NN/Model/fnn_model.pth (torch, 753870 bytes, 14 tensors)

fc1.weight f4 [512, 100]
00000000: 03ec 123b 59c2 b73d 5b9e a6bb eb83 51be
00000010: 08f1 20bd 01cd 01be d3d1 013d a4e7 82bd
00000020: 3d27 113c 27f6 a2bd b14b 4d3d 4a0f 08bd
00000030: 8693 8fbd 9b00 183e 19ac 703d b4f0 25bd
00000040: 5afa 15bd 7bc4 613d f083 c63d d118 35bd
00000050: 1514 dcbd 2b6a 8dbd 1c11 de3d 93be b73c
00000060: d152 d8bb 07d5 ce3d dfd8 47bd 3efb 5f3c
00000070: 61d8 bbbd 9384 07bd 7729 153d 5cf2 b43d
00000080: b812 22bb dad9 bebc 6044 1ebd e43d b4bd
00000090: c1c3 353e 5459 58bb 8242 c23d ea1d 4e3c
000000a0: 4b40 05be e840 b1bd 1de1 c4bd 3e47 fabd
000000b0: ec26 22bd 51ce 52be d408 d03c a034 49bd
000000c0: 2a27 df3d ef6b bcbd 6571 b03d d9e3 433d
000000d0: eb70 103d 28e6 66bd 8d7d e03d f003 58bd
000000e0: d658 ac3d 6c13 40bc cf5e d1bd ef9c 3abc
000000f0: a9f0 1abe 45c0 2f3d ebe0 113d 6547 8cbd
00000100: 063c 8abd ab35 9f3d 6f68 d0bd 2014 2cbc
00000110: f8a2 97bc 5b53 b63d d07a ad3d 2aa5 2fbd
00000120: dd0f 1c3d a14a 7f3d 930f 61bb 4422 893d
00000130: 6e9b d5bd ed42 35bd a894 b9bd 8419 b03d
00000140: 93ee 35bd 1360 35be 4867 dbbd d97a f13b
00000150: bec5 f6bc ecbb 02be 8c49 193e 046c aebc
00000160: fed5 493d 4f45 c6bc c7f2 96bc 1c5a 42bd
00000170: d666 dbbd 83c3 ad3d a5aa 1f3c fc2e 27bc
00000180: 2e05 063c 0fa2 c6bb 3a64 92bd 8635 6cbd
00000190: 831c 2bbe 3daf f8bd ae36 4cbe a879 0db9
000001a0: 52ed 83bc 206d c53d 0cd5 27bc d139 f13c
000001b0: bae8 6b3d 4d47 993b 4e32 19be ed0e dabd
000001c0: ca97 bf3c f08c ce3d 1717 cdbc 714a 0fbe
000001d0: 28ef 6f3c 240b bb3d 2e49 e8bd 1530 4f3e
000001e0: 163f 9d3b 4bb2 9a3c c950 e13d 932b b9bd
000001f0: 78de 50be b249 e83d 30c5 00bc 056c bebd
00000200: 88c0 f6bc abe4 2bbd e867 24bd 3db7 703e
00000210: 2765 613c b815 203c 8aa8 dd3b 7720 76bc
00000220: 1093 8dbd be21 b03d 9492 6d3b 27c6 4fbd
00000230: c572 e4bc a540 7dbd 98e6 c5bd 2bd5 4dbc
00000240: 73eb 52bd 3465 1c3d 116b bbbb fce8 8abd
00000250: 0f7d bdbd 03a6 b5bc 79a2 b0bd 4fbb 6d3d
00000260: c794 15bd 1126 623c 5d83 083d 1342 d2bd
00000270: 9a3c 73bc a32a 093d 6834 00bd 8ca7 02bd
00000280: b37b 723c b017 763d a55b 1dbc 98c2 0abe
00000290: a6ac c5bd a99d ac3b 9ff2 63bc 78bd f6bc
000002a0: de8c aabd e0b1 18bd a204 c2bd 76a9 aa3d
000002b0: c44a 16bd 2869 f7bc 6657 8b3d a7b1 273c
000002c0: abbb 2abc 9c67 8fbc 0efe e5bd 68ff 14bc
000002d0: 7449 0bbd 05f2 aa3d 0cfc 3d3d 0a72 a6bc
000002e0: d686 653c 3aea 9b3d 0017 7536 b578 8a3c
000002f0: 1122 1d3d fdba b03d 2bc7 b9bd 375c 38bd
00000300: 7793 ed3c 3402 81b9 5870 8d3d e616 193d
00000310: aca4 7ebd 9c44 25bc bdec c3bd 3619 843d
00000320: 4a22 c13d b383 0ebd a4ea 293c f8ae 323e
00000330: 1d0a c3bd cfed d4bb f7fb a13b 0ffd 8339
00000340: 9227 b8bd 8100 9dbd 0d66 8abc f86d 13b9
00000350: d56b 83bd 4232 88bd 5c33 f1bd b184 183d
00000360: efa0 68bc 3585 513a 1873 12be d788 5c3c
00000370: 275c f5bc 822c cbbb 26ff 96bd 5452 84bd
00000380: ebf4 ccbc beb3 19bd 97e6 5fbd d372 c5bd
00000390: 458f 5a3d 581e 0e3e d159 ddbd 9540 01bb
000003a0: 4577 af3d 6bb5 aabd 80bb 56bd e4fc 533d
000003b0: 5c90 823d f20c b63d 520b 7cbd 242e 1b3d
000003c0: 4591 9fbb 97d9 79bd 3f47 413d b707 483d
000003d0: 73a4 afbc 62cd 39bd 04ec 9bbd 2cfb ed3d
000003e0: 72e5 863d 4fd6 dfbc a751 eebd a88c 29bd
000003f0: 922f 9fbd 452f 303c 295b 5bbd 3df1 a5bc
0.0022418506 0.08972616 -0.0050847954 -0.20460479 -0.039292365 -0.12675859 0.031694245 -0.06391838
0.008859453 -0.07957106 0.050121013 -0.033217706 -0.0701056 0.14843981 0.058757875 -0.040512756
-0.036615707 0.05511902 0.09693134 -0.04421312 -0.10746018 -0.069050156 0.10843107 0.02242974
-0.0066016694 0.100992255 -0.04879081 0.013670741 -0.091721304 -0.033085417 0.036416497 0.08835289
-0.0024730396 -0.02329724 -0.038639426 -0.08800867 0.17750455 -0.0033012228 0.094853416 0.012580374
-0.13012807 -0.08654958 -0.096132495 -0.122206196 -0.0395879 -0.20586516 0.025394835 -0.049122453
0.10896142 -0.09200274 0.08615378 0.047824714 0.035263937 -0.056371838 0.10961447 -0.05273813
0.084153816 -0.011723381 -0.102231614 -0.011389955 -0.15130867 0.042907972 0.03561489 -0.06849555
-0.0674973 0.07773908 -0.10176169 -0.010502845 -0.018510327 0.089026175 0.0847069 -0.042882122
0.038101066 0.06232703 -0.0034341558 0.06695989 -0.104300365 -0.04425328 -0.09061557 0.08598617
-0.044416975 -0.1771243 -0.10713059 0.007369381 -0.030123588 -0.12766999 0.14969462 -0.02129174
0.049276344 -0.02420297 -0.018426312 -0.047449216 -0.10712974 0.084845565 0.009745275 -0.010204073
0.008179946 -0.0060617994 -0.07148023 -0.05766823 -0.16710095 -0.12142799 -0.19942734 -0.00013492128
-0.016104374 0.096399546 -0.010243665 0.029446514 0.057594992 0.004677689 -0.14960596 -0.10647378
0.023387808 0.100854754 -0.025035424 -0.13993241 0.014644422 0.09132984 -0.11342083 0.20233186
0.00479878 0.018883845 0.11001737 -0.09041514 -0.20397365 0.11342181 -0.007859513 -0.09297947
-0.030121103 -0.04196612 -0.040138155 0.235074 0.013757027 0.009770803 0.006764476 -0.015022389
-0.069128156 0.08600186 0.0036250697 -0.050726082 -0.027886758 -0.061829228 -0.09663123 -0.01256303
-0.051494073 0.038182452 -0.0057195504 -0.067827195 -0.09252369 -0.022173887 -0.08624739 0.05803996
-0.03651884 0.013803021 0.033328403 -0.10266509 -0.0148459915 0.033487927 -0.03129998 -0.031898066
0.0148 0.060081184 -0.009604369 -0.13550794 -0.09652071 0.005267818 -0.013912826 -0.030119643
-0.083276495 -0.03727901 -0.0947354 0.08333103 -0.036692396 -0.03020151 0.06803779 0.010235227
-0.01042072 -0.01750546 -0.11230098 -0.009094097 -0.034005597 0.08346943 0.04638295 -0.02031805
0.014009198 0.076130345 3.6521233e-06 0.01690326 0.038362566 0.08629415 -0.090711914 -0.045009818
0.02900098 -0.0002460644 0.069061935 0.037375353 -0.062168762 -0.0100871585 -0.095666386 0.06450121
0.09430368 -0.034793567 0.010370884 0.17449558 -0.09523413 -0.0064980756 0.0049433666 0.0002517481
-0.089919224 -0.07666112 -0.016894365 -0.00014059979 -0.06417052 -0.06650211 -0.11777374 0.03723592
-0.014198526 0.00079925667 -0.14301717 0.01346036 -0.029951168 -0.006200374 -0.073728845 -0.06461015
-0.02501913 -0.03752493 -0.054663267 -0.096410416 0.05335929 0.13878763 -0.10808147 -0.0019722332
0.08567671 -0.08335384 -0.052424908 0.051754847 0.063751906 0.08889188 -0.061534233 0.0378858
-0.0048696124 -0.060998525 0.047187086 0.048835482 -0.02144072 -0.045361884 -0.07613376 0.11620173
0.06586732 -0.02732387 -0.11636668 -0.041393906 -0.07772745 0.010753457 -0.053553734 -0.020256633

fc1.bias f4 [512]
00000000: e36d 05bd 4307 ce3c f2df 563b fd64 1e3c
00000010: 1143 7fbd b1b1 ad3d cc99 74bc 9770 9e3d
00000020: 96ba 37bd 39c9 bcbc 22a6 c0bd b93c a4bd
00000030: 842e 99bd 34f0 6cbd 1a64 a93d 0427 8a3d
00000040: 855a 29bc 2ac7 38bd 6655 803d 3835 46bd
00000050: c83f 9bbd ba24 8ebd 4c54 b8bd 35bd e5bc
00000060: 847a af3d 88e7 0bbd 55f0 edbb 3878 3bbd
00000070: bf44 b93d 3be6 b1bd 5588 183b b395 d03c
00000080: 250d a63d bc5e a5bd aa80 56bd 65cd a93d
00000090: 17de 2c3b e4bf edbb 0db6 8ebd 46af a23d
000000a0: b362 f03c f583 843c 5942 bf3d fa6e c5bd
000000b0: f0fc 8dbd 7264 ca3c 1084 85bd 819f a73d
000000c0: 44f1 2bbd ba99 77bd 1eba 79bc 178c 90bd
000000d0: 4e7a b43a 81c4 413d d742 72ba 1a7f 86bd
000000e0: 7fb5 81bd 52d6 5fbc 503e 5fbd 7bc4 2bbd
000000f0: 2c9b ab3d 6e93 2ebd bd54 66bc cc43 463d
00000100: 6e03 6dbc 8f9d 7f3b 6523 243d 8949 9bbd
00000110: 7ff5 febc 4491 1b3c 98fb 963d c8f0 04bd
00000120: 1ca9 71bc b9be af3d 6f30 b13d e0c5 71bd
00000130: 28fb a43d 1941 41bd 3fa0 a73d 302e e2bc
00000140: b12c 853d 73e8 62bd aef8 3fbd bdb5 b63c
00000150: 35d1 123c 7622 933c 7d13 283c 6ece 9a3d
00000160: 29a3 86bc 2910 b4bd 1a07 c73d e09e d13c
00000170: 677b b7bd 8500 91bc feed c539 3edb a23d
00000180: a694 15bd b096 cd3d fd25 6ebc ec25 2ebd
00000190: 7606 1a3c 25a5 8c3d a775 09bc 2c83 02bd
000001a0: 8932 7b3c 14e8 5c3d d6c9 3abc 80aa 4bbd
000001b0: 5de9 92bd 5ae8 cbbd 3c0f 4cbc c0d5 7e3d
000001c0: 4101 8ebd 8901 c63d 13a3 c0bc 6091 213d
000001d0: 7b8b 353d 3515 b33d 13c4 3a3d 4baf db3c
000001e0: 2755 d3bc a33d db3c 0975 ac3d 217b 88bd
000001f0: e13c 2e3d 55e8 4a3d 6219 86bd b7ce 833d
00000200: 541b ad3c b211 323d f5b4 4bbd f870 913c
00000210: e81f b23d 067e ad3d ad14 bebd 6e3c 92bd
00000220: 1e1a 523d 41fc 70bd c7ac d03c d341 a0bd
00000230: 7dd8 44bd 94c6 93bd 7648 973d 5fe7 313d
00000240: 7d43 d8bb 217f 103d 30e7 243d a39e 9dbc
00000250: f92c 9ebd 608a 783d cfdf a23d 1c0b ffbc
00000260: 0870 bb3d f843 ca3d 8fd9 a1bd 2dba ac3d
00000270: 7923 0ebc 710c b0bd ea71 5abd 0e38 c53d
00000280: 24f0 683d de9e 84bd d8c6 033c a94b a23d
00000290: 10b1 b1bd 856b 9fbd 1046 973c 32b2 b63d
000002a0: be85 d2bc c32f b73d e865 00bd abd9 ba3d
000002b0: b380 b63d aae2 b33d e6e5 91bd 956e 793d
000002c0: 27ca 953d 542c ae3d f5b5 82bc 6c2e 3fbd
000002d0: 00f3 f6bc 6a30 4ebd c026 7c3d dea7 573d
000002e0: 3e9f 8d3b 619b 70bd 3bb9 933d d268 2d3c
000002f0: 08ab fb3c a892 403b d638 c13b 26e7 893d
00000300: 9345 c1bc b05e bebd 9315 8fbb 500e 903d
00000310: 2324 c7bd a003 b1bd ad5e 873d b874 52bd
00000320: 4619 a93c 6ce0 ca3c b346 b63d e017 8cbd
00000330: e5b2 5dbb 7a3b 1fbd 205f 663d 834b 273c
00000340: 9f34 a0bd 5f6a 8e3d 45b3 bd3d bb8c d43c
00000350: 13fa 5f3d c4e9 8b3d e4b6 86bc cef5 c8bd
00000360: 13f4 423d 1da6 083b 2590 5bbd 1cbe 37bc
00000370: 0a80 bdbd ab8f 61bd 6d74 143b d0fc f53c
00000380: 18ee e93a 23c9 82bd e80f b13d 46e2 0f3d
00000390: b074 85bd 1160 7e3d eeb1 a1bd f23d 273d
000003a0: 8bfe 61bd 1b58 4ebd 8755 1c3d a180 c4bd
000003b0: 1dfd 8ebd 2e09 5b3c d17a 1fbd ffc7 c5bd
000003c0: 647b 01bd 214e 58bd b26e 10bd e6d6 be3d
000003d0: f57f b63c 6220 1ebc 1ef8 b2bd 3242 89bc
000003e0: 678b 4bbd 9dbf 5cbc 4cc3 97bb 4de1 363c
000003f0: 5664 76bd 457f c9bd 57c0 03bd fde8 18bd
-0.0325755 0.025149947 0.003278729 0.009667632 -0.06231982 0.084811576 -0.014929246 0.077363186
-0.044855677 -0.02304517 -0.09406687 -0.080193944 -0.07479575 -0.057846263 0.08271046 0.06745723
-0.010336523 -0.045111813 0.062662885 -0.048390597 -0.07580525 -0.06940599 -0.09000453 -0.028044323
0.0856829 -0.034156352 -0.007261316 -0.045768946 0.090463154 -0.08686491 0.002327462 0.025462007
0.08107976 -0.0807471 -0.052368797 0.08291129 0.0026377493 -0.007255541 -0.06968317 0.07943587
0.029343938 0.016176203 0.09338827 -0.09640308 -0.069330096 0.0247061 -0.065193295 0.0818472
-0.041978136 -0.06044934 -0.015242128 -0.0705797 0.001376936 0.04730654 -0.00092415273 -0.065672114
-0.06333446 -0.013661938 -0.054502785 -0.041935425 0.08379206 -0.04262107 -0.014058289 0.0484045
-0.01446615 0.0039003824 0.040072817 -0.07582385 -0.031122921 0.009495083 0.073722064 -0.03245619
-0.0147497915 0.08581299 0.08651816 -0.0590266 0.08055717 -0.047181223 0.081848614 -0.027609915
0.06502665 -0.055397462 -0.04686802 0.022303456 0.008961012 0.017960768 0.010258553 0.075589046
-0.016435223 -0.08792145 0.097181514 0.025588453 -0.08959084 -0.017700443 0.00037752086 0.079519734
-0.036518715 0.10038507 -0.014535424 -0.042516634 0.0094009545 0.06867436 -0.008389867 -0.031863376
0.015331873 0.053932264 -0.0114006605 -0.04972315 -0.07173417 -0.09956427 -0.012454804 0.062215567
-0.06933833 0.096682616 -0.02351526 0.03944528 0.044322472 0.08744279 0.045597147 0.026816985
-0.02579744 0.02676279 0.0842076 -0.0666411 0.042538527 0.049537975 -0.0654781 0.06435912
0.021131195 0.043473907 -0.04973312 0.017754063 0.08697492 0.08471303 -0.09281287 -0.07140432
0.05129444 -0.058834318 0.025473012 -0.07825055 -0.04805802 -0.0721561 0.07386868 0.043433543
-0.006599842 0.03527749 0.04025954 -0.019240683 -0.077234216 0.06067884 0.07952844 -0.031133227
0.09152228 0.09876245 -0.07902824 0.08433948 -0.0086754495 -0.08596123 -0.053331293 0.09629832
0.05686964 -0.06475614 0.0080430135 0.07924587 -0.0867635 -0.077841796 0.018466026 0.08920707
-0.025698539 0.08944657 -0.031347185 0.09123548 0.08911266 0.08783467 -0.07123928 0.060896475
0.07313948 0.08504549 -0.015955904 -0.04667513 -0.030145168 -0.05033914 0.061560392 0.052650325
0.0043219617 -0.05874193 0.07213064 0.010584073 0.030721202 0.002938429 0.005896668 0.06733541
-0.023592746 -0.09295404 -0.0043665855 0.0703398 -0.097236894 -0.086432695 0.06609855 -0.051380843
0.020641934 0.024765216 0.089002036 -0.06840491 -0.0033828553 -0.03887508 0.056243062 0.0102108745
-0.07822537 0.069538824 0.092627086 0.025946012 0.05468185 0.06831697 -0.01644463 -0.098125085
0.04759605 0.0020850964 -0.053604264 -0.011214759 -0.09252937 -0.055068653 0.0022652403 0.030027777
0.0017847447 -0.0638602 0.08645612 0.0351279 -0.06516397 0.062103335 -0.078952655 0.04083056
-0.05517439 -0.050376993 0.038167503 -0.095948465 -0.06981871 0.013368888 -0.038935486 -0.09657287
-0.031611815 -0.052808885 -0.035261817 0.093183324 0.022277812 -0.009651275 -0.08738731 -0.016755197
-0.04969349 -0.013473419 -0.0046314355 0.011162114 -0.06015428 -0.09838728 -0.03216585 -0.03733157

bn1.weight f4 [512]
00000000: f0d1 c33f d0bf 843f 8ead 893f 0d88 7f3f
00000010: d6f3 833f 42f5 d93f 26c5 823f e764 a73f
00000020: d4ef 783f 4b20 883f cd6b 843f f4a8 8f3f
00000030: 888f 943f 7e1e 953f 815e 803f 37fd a53f
00000040: 88f2 973f cec1 873f 3539 863f f152 993f
00000050: 1117 923f a0f4 a23f 577a 893f c1ab 933f
00000060: 45cb d33f 036c a93f bcbc ad3f 691e b43f
00000070: df24 853f 3466 8b3f dc8c 803f 343c da3f
00000080: 8c93 823f 3380 883f f627 a83f 9eb3 b83f
00000090: fbfe a73f 0ed3 8e3f 1fc0 5b3f 6047 8b3f
000000a0: 16b6 b63f 1590 823f 040b 8d3f 80b1 863f
000000b0: efc5 933f 4505 843f b11c 863f 4834 923f
000000c0: 13e0 9a3f 863f 8d3f 5c04 9d3f f1c6 ab3f
000000d0: 1665 993f b306 a73f 313e 8b3f 3916 9d3f
000000e0: c63a 8f3f eb64 af3f 588c 9b3f 1e19 8e3f
000000f0: c017 993f 46e6 9a3f 17a5 8b3f b9c0 863f
00000100: d028 733f 7687 a23f c216 873f f090 903f
00000110: 0137 833f d4ca 973f 4642 9a3f 4a06 8b3f
00000120: e496 a13f 1327 dd3f 5e94 943f 1ced 833f
00000130: 3b59 9c3f 4052 a13f 0f74 7d3f 62c2 973f
00000140: 4671 873f d37f ca3f 8b08 a03f cceb 8a3f
00000150: ef45 b03f 6b7d 833f 5070 bb3f 5824 843f
00000160: 9e4d b23f d438 923f 1ec8 783f 7e9e 9c3f
00000170: b499 cb3f bbd2 a33f 9eb6 803f fada 9c3f
00000180: 3b75 8d3f bcde c43f 9239 8f3f 1a27 7b3f
00000190: 7ed1 913f 8bc8 783f ff2a 8a3f e059 863f
000001a0: e214 873f 5a79 9a3f 1c41 863f a696 7f3f
000001b0: ec01 b23f f061 a03f 86d2 b43f 2ecd 783f
000001c0: 9fe5 893f 05ba 873f bbe6 a93f f4e3 803f
000001d0: 2ec6 913f e62d a63f f97c 843f a197 b63f
000001e0: c993 c63f d955 b03f 3cc4 893f 4bde 843f
000001f0: 307b 8d3f b1a4 813f 8d8e b23f 9aef a23f
00000200: 5d44 a23f d638 8b3f e5a2 963f 3ff0 7b3f
00000210: cb30 9a3f 5abb be3f f7e4 8c3f 13c4 993f
00000220: e352 a33f a33b 983f b726 8d3f cd11 b13f
00000230: 6593 c43f 2eaa 843f 4ba4 a93f 9294 df3f
00000240: 6aa8 e13f 7d21 c23f 01c6 a03f fbce 973f
00000250: fd46 793f 8c13 c03f aa77 953f 02cd c33f
00000260: 8035 643f ecc9 b83f 2409 813f b1dd 923f
00000270: dd24 9f3f cb16 853f d169 913f 6ca1 983f
00000280: 05da 953f d4db bf3f 1e0b 6f3f 0376 cd3f
00000290: e120 953f fae7 833f a8d0 9d3f fd62 963f
000002a0: 5808 c83f c74c 8b3f ed4a b53f e79f 933f
000002b0: f002 cc3f 4749 a93f efa0 8f3f 3a63 b63f
000002c0: 6fb1 a93f 1386 943f 0209 d63f 6952 833f
000002d0: f914 9a3f ecac b13f a69a a53f 8fac a83f
000002e0: 36ed 983f 1374 953f a21b a73f b0b4 913f
000002f0: 71d4 a73f 0ff1 813f d40c 9c3f 376b 8f3f
00000300: 4cc9 cc3f c98f 863f 067c 8a3f b958 833f
00000310: 2ee4 8c3f f47b 8e3f 7b6e 863f 8b6b 873f
00000320: 35a6 b43f 8c0c 883f a543 943f 60e6 823f
00000330: ae9f bc3f dd05 8c3f 9970 8b3f 8c8f 8a3f
00000340: 317a 803f 1b36 8a3f 995b 8a3f fdf3 8d3f
00000350: 609f 903f b0aa 9d3f 4842 b43f a2f3 a13f
00000360: e4e0 983f 26f7 903f a0f8 6c3f 3be9 a83f
00000370: 5773 763f 790e 893f 33c6 813f bb23 a73f
00000380: 493e 883f af94 ac3f 05fe 8d3f a28a 873f
00000390: 9c3d bc3f 2028 903f f188 803f 49a1 823f
000003a0: e455 803f 0009 9c3f bb10 a13f 82b3 8a3f
000003b0: 9513 913f 9d07 823f 7556 8a3f 3e03 e13f
000003c0: ea90 aa3f 668d a53f 0f88 8c3f 674b aa3f
000003d0: f087 983f 6203 893f f410 8d3f e811 953f
000003e0: b78d 723f 7c13 893f 3126 b83f 889e b43f
000003f0: 11f7 883f 0f13 ab3f 97de 6d3f 01fb ce3f
1.5298443 1.0371037 1.075609 0.9981697 1.0308788 1.7027972 1.0216415 1.3077668
0.9724095 1.0634855 1.0345398 1.1223435 1.1606302 1.164993 1.002884 1.29679
1.187089 1.060602 1.0486208 1.1978437 1.1413289 1.2730904 1.074046 1.153679
1.6546408 1.3236088 1.3573222 1.407178 1.0401877 1.0890565 1.0042987 1.7049623
1.0201278 1.0664123 1.3137195 1.4429815 1.3124689 1.1158159 0.8584003 1.0881157
1.4274318 1.020022 1.1018987 1.0522919 1.154478 1.0314108 1.0477506 1.1422205
1.2099632 1.1035011 1.2266955 1.3420087 1.1983974 1.304892 1.0878354 1.2272407
1.1189811 1.3702673 1.2152205 1.1101415 1.1960373 1.2101524 1.0909756 1.0527564
0.9498415 1.2697589 1.055382 1.1294231 1.0251161 1.1858773 1.2051475 1.0861294
1.2624173 1.727755 1.1607778 1.0306735 1.2214731 1.2603226 0.99005216 1.1856196
1.0581443 1.5820259 1.2502607 1.085321 1.3771342 1.027265 1.464365 1.0323591
1.3929937 1.1423593 0.97180355 1.2235868 1.5906281 1.2798685 1.005573 1.2254326
1.1051401 1.5380473 1.1189444 0.9810654 1.1392057 0.97181004 1.0794371 1.0496178
1.0553248 1.2068284 1.048862 0.99839246 1.3906837 1.2529888 1.4126747 0.9718808
1.07732 1.0603644 1.3273538 1.0069566 1.1388605 1.2982757 1.0350639 1.4265023
1.551385 1.3776199 1.0763011 1.0380338 1.1053219 1.0128385 1.3949753 1.272937
1.2677113 1.087672 1.1768461 0.9841346 1.204614 1.4900925 1.1007375 1.2012962
1.275967 1.18932 1.102744 1.3833557 1.5357481 1.0364435 1.3253263 1.7467215
1.7629521 1.516647 1.2560426 1.186004 0.97373945 1.5005965 1.1677144 1.5296938
0.89144135 1.4436622 1.0080914 1.1473905 1.2433125 1.0397581 1.1360418 1.1924262
1.1707159 1.4988961 0.9337634 1.6051639 1.1650659 1.0305169 1.2329302 1.1748959
1.5627546 1.0882806 1.416349 1.1533173 1.5938396 1.3225487 1.1220988 1.4249032
1.3257273 1.1603416 1.6721499 1.0259525 1.203765 1.3880897 1.293782 1.3177661
1.1947391 1.1676048 1.3055308 1.1383266 1.3111707 1.015169 1.2191415 1.1204594
1.5998931 1.051263 1.0819099 1.0261451 1.1007135 1.1131577 1.0502466 1.0579695
1.4113222 1.0628829 1.1583143 1.0226555 1.473623 1.0939289 1.0893737 1.0825057
1.003729 1.0797762 1.0809203 1.1090084 1.1298637 1.2317715 1.4082727 1.2652476
1.1943631 1.1325424 0.9256687 1.3196176 0.96269745 1.0707542 1.0138611 1.3057779
1.0644008 1.3482875 1.1093146 1.0589182 1.4706302 1.1262245 1.0041791 1.020547
1.0026212 1.2190247 1.2583231 1.0836031 1.1334101 1.0158573 1.0807635 1.7579114
1.3325474 1.2933776 1.0979022 1.3304261 1.1916485 1.0704157 1.1020799 1.164609
0.9474749 1.0709071 1.4386655 1.411088 1.0700399 1.3365191 0.9291777 1.617035

bn1.bias f4 [512]
00000000: 8d14 12bf 248e eabd eab3 7abe 9b4b e3bc
00000010: dae1 adbc e466 4dbf 93f8 8abe fc4e b0be
00000020: 508f aabd 1c6a bebe 85bd 94be a023 64be
00000030: 7b72 ebbe 3524 dbbe 6872 15be 47f9 03bf
00000040: 31c4 b4be 4c8d 533b 7e6e 9d3b 95a9 8ebe
00000050: 8164 95be b3a0 d1be b689 91be 441e 8abe
00000060: 220c 17bf dc54 d3be b0a2 0ebf 9293 20bf
00000070: 06ea 5fbe aeca 10be eaf0 d7bd 6cee 2ebf
00000080: ddb4 00be c6a0 a0bd 65dc 1cbf a33a 05bf
00000090: 432e 0abf 13a4 d3be dec2 68bd 1c5d 57be
000000a0: 0c39 1cbf d106 1dbe b1b4 90be 2b0e 86be
000000b0: 2074 adbe f67e cfbd ad91 00be 126b b6be
000000c0: 5583 47be 8402 cdbe 0921 10bf 22f9 09bf
000000d0: 74e8 e9be 3223 b9be e09c 48be 9209 adbe
000000e0: cbb4 81be 6616 f3be 6e1e 9dbe 84f8 35be
000000f0: 60ed b5be e19f 02bf 8b13 97be 3b19 99be
00000100: 30ed 1bbe 6a0a acbe 6320 0ebe 585a 72be
00000110: 8af9 74be e609 32be 6734 fdbe 8a6c c6be
00000120: c991 cabe b41a 43bf b0fe d1be 8350 21be
00000130: e95c 79be 49ff 04bf 5db3 9abe 56e8 77be
00000140: 2202 d6bd af5a 1bbf 57e2 64be 5df9 40be
00000150: dbb9 23bf 9a12 33be ae6f 2ebf ff8c 50bd
00000160: 9c19 febe d6d2 e4be f183 30be 8fe0 6fbe
00000170: 1250 f5be a760 20bf 5040 1fbe 32a1 cabe
00000180: df7a 85be a671 0dbf b261 8abc c76b 34be
00000190: fdc8 88be d20b 24be 086c 23be 0623 72be
000001a0: 4199 edbe e59a a6be 58a4 c4be 647e f4bd
000001b0: b1ef 0abf 7583 00bf ec42 0bbf 2324 1cbe
000001c0: 0b2d 66be af3a 51be 0566 0ebf 87eb 94bd
000001d0: 1502 e3be 90c9 bfbe 5f1c 3abe df3d 70be
000001e0: e212 04bf 0074 eebe bc88 93be 42b2 58be
000001f0: 67b0 8abe 543d 60be 82dc 20bf b13e b9be
00000200: d5b6 90be cd95 82bd de9e d8be 7c2b 28bd
00000210: 34ec 80be f816 21bf 5825 8bbe 6409 7cbe
00000220: dd05 00bf b160 bcbe c26b a9be bd9a dcbe
00000230: c12c 20bf f511 75be 78be e3be 7427 50bf
00000240: c19d 40bf 37c2 c1be 75df e5be b3f0 95be
00000250: 3846 d0bd a6d2 32bf 9725 1abe 29ec 22bf
00000260: fa98 1dbe d024 1dbf 2912 893c 9368 84be
00000270: 0510 babe 4ddd a9be 7cc6 cfbe 55fc aebe
00000280: ceeb 00bf 3f70 17bf f02e a0be 2f8d 2fbf
00000290: 9b66 70be 9dd7 83be 85cc e9be 4bdc d6be
000002a0: a51c 00bf 6441 b5be cce2 18bf 260e a1be
000002b0: 0435 02bf 4c17 ecbe 569f bcbe bceb 10bf
000002c0: fd59 04bf 2c07 d8be 54b2 4abf 8b6b a8bd
000002d0: 9799 85be 0024 08bf 04aa dcbe 1efd 10bf
000002e0: 9050 03bf d086 90be b912 f7be 0916 8bbe
000002f0: 4a01 96be 73d1 49be 5430 09bf 2a5d 86be
00000300: 800e 32bf 4deb 9ebd 31ee 68be 9298 2fbe
00000310: 2f91 9fbe c719 82be 0aed d5be eda1 d5be
00000320: b50e 16bf acda 22be 3672 cebe 866d 1dbe
00000330: d13c ddbe 9525 19be 218f 8ebe 8eb6 dcbd
00000340: 1bf1 8abe 40f3 48be 04b6 95be 965d c9be
00000350: 6081 72be 3185 68be 6db2 10bf 217d f8be
00000360: de50 bbbe e652 6ebe d9f1 10be fe55 dbbe
00000370: 790f 09be ba22 c0be e7e0 3ebe f1dd 1ebf
00000380: 12c8 b6be 6cce 0fbf 82f6 8ebe 0f72 4cbe
00000390: b6f3 b4be 58ec a2be 804f 4bbe b30a b9bd
000003a0: e6b2 dbbd 284b 64be 5b60 08bf 1028 9ebe
000003b0: 69e4 8dbe 9be9 4dbe 13ee 89be 8e4f 02bf
000003c0: 28b5 d9be 7d2b 8cbe 3f54 c9be ff09 fabe
000003d0: 0fe7 c6be a48d c0bd 5b92 3dbe eab5 66be
000003e0: e152 8ebd c5fb 65be a4ff 19bf 1aed 19bf
000003f0: 5090 e7bd db53 06bf 6296 65be e94b 39bf
-0.5706261 -0.114528924 -0.24482694 -0.027746012 -0.021225858 -0.80235124 -0.27142772 -0.3443526
-0.08328116 -0.3719033 -0.29050842 -0.22279215 -0.4598578 -0.4280106 -0.14594424 -0.5155224
-0.35305932 0.0032280264 0.0048044315 -0.27863756 -0.2917824 -0.40942916 -0.28425378 -0.26976216
-0.5900289 -0.4127568 -0.5571699 -0.62725174 -0.21866617 -0.14139816 -0.105439976 -0.6833255
-0.12568994 -0.07843165 -0.61273795 -0.520426 -0.5397684 -0.41336116 -0.056826465 -0.21031612
-0.61024547 -0.15334632 -0.28262857 -0.26182684 -0.3387766 -0.10131638 -0.12555571 -0.35628563
-0.19483693 -0.40040982 -0.5630041 -0.5389577 -0.4568516 -0.36159664 -0.19591093 -0.33796364
-0.25333247 -0.47478026 -0.30687279 -0.17770582 -0.35532665 -0.51025206 -0.29507098 -0.29902062
-0.15227199 -0.33601695 -0.13879542 -0.23667276 -0.23923317 -0.17386588 -0.49454042 -0.38754684
-0.3956435 -0.7621262 -0.41014624 -0.15753369 -0.24351849 -0.51952034 -0.30214968 -0.24209723
-0.104496256 -0.6068525 -0.22351967 -0.18845125 -0.6395547 -0.17487565 -0.6813916 -0.050915714
-0.49628913 -0.44692105 -0.17237832 -0.23425506 -0.4791265 -0.6264748 -0.15551877 -0.39576107
-0.26070306 -0.5525154 -0.016892288 -0.17619239 -0.26715842 -0.16020134 -0.1595918 -0.23646173
-0.46405986 -0.3254005 -0.38406634 -0.119381696 -0.5427199 -0.5020059 -0.5439899 -0.1524816
-0.2247812 -0.20432542 -0.5562442 -0.07271486 -0.44337526 -0.37458467 -0.18174885 -0.23461102
-0.5159131 -0.46572876 -0.28815258 -0.2116175 -0.2708771 -0.21898395 -0.6283647 -0.36180642
-0.2826449 -0.063762285 -0.42308706 -0.041057095 -0.2518021 -0.6292567 -0.2717693 -0.24612957
-0.50008947 -0.3679252 -0.33090025 -0.43086806 -0.6256829 -0.23932631 -0.44481254 -0.813102
-0.75240713 -0.37843487 -0.44897047 -0.292852 -0.10169643 -0.69852674 -0.15053402 -0.636416
-0.15390387 -0.61384296 0.016732292 -0.25861034 -0.36340347 -0.33176652 -0.4058112 -0.3417689
-0.5035981 -0.5915565 -0.3128581 -0.68574804 -0.23476641 -0.25750437 -0.4566385 -0.41964945
-0.5004371 -0.35401452 -0.59721065 -0.31456107 -0.50862145 -0.46111524 -0.36840314 -0.566097
-0.5169981 -0.42192972 -0.7917836 -0.08223637 -0.26093742 -0.5317993 -0.43098462 -0.56636226
-0.51294804 -0.28227854 -0.48256472 -0.2716525 -0.29297858 -0.19708805 -0.5358937 -0.26242954
-0.69553375 -0.07759724 -0.22747113 -0.17148045 -0.31165454 -0.25410292 -0.4178241 -0.41725102
-0.5861619 -0.15903729 -0.4032151 -0.15373811 -0.43210462 -0.14955743 -0.27843574 -0.10777007
-0.27137074 -0.19624043 -0.2924043 -0.39329213 -0.23682165 -0.22707058 -0.56522256 -0.48532966
-0.36585134 -0.2327381 -0.14154758 -0.42839044 -0.13384809 -0.37526494 -0.18640481 -0.62057406
-0.35699517 -0.5617435 -0.27922446 -0.19965385 -0.35342187 -0.3182094 -0.19854546 -0.09035244
-0.107274815 -0.22294295 -0.53272027 -0.3088994 -0.27713326 -0.20108645 -0.2693945 -0.5090264
-0.42521024 -0.2737693 -0.39322087 -0.4883575 -0.3884816 -0.09402016 -0.18512861 -0.22530332
-0.06949402 -0.22459324 -0.601557 -0.60127413 -0.11306822 -0.52471703 -0.22420648 -0.72381455

bn1.running_mean f4 [512]
00000000: f4f2 00bd 4874 d03c cc9f 363b dc6b fe3b
00000010: 26ed 83bd 0075 af3d 74b9 6dbc fb8a 9e3d
00000020: 155f 32bd 6f9d b0bc 7ce6 c0bd 6d90 a3bd
00000030: c83d 9cbd aa38 6bbd cc9c a83d a540 8a3d
00000040: ee5f 28bc 60e0 3abd e748 823d 8497 49bd
00000050: 4078 9bbd 1866 90bd 6290 b7bd a93f d9bc
00000060: ae7a ae3d 227a 06bd 0b6f f7bb 3a27 3abd
00000070: 8cf1 b73d 5bd8 b1bd 989d 1a3b c65e d03c
00000080: c7c7 a43d e38a a8bd d221 57bd 3dbc ab3d
00000090: 8157 643b f536 09bc 9e3f 8fbd 4880 9d3d
000000a0: 8b1f ee3c 2506 903c 647b c23d df1b c4bd
000000b0: 3d45 8ebd 5787 d33c 7a5f 84bd 5083 a83d
000000c0: 933c 2abd c63c 78bd 0e4f 76bc b7ad 8dbd
000000d0: bfdc 9f3a 5b74 3c3d 9a6b a93a cb2b 85bd
000000e0: 274a 84bd c35a 64bc 44d5 62bd 819f 2dbd
000000f0: 59a8 a83d 56c0 2bbd f8bc 66bc 10eb 483d
00000100: 255a 71bc 673f 5f3b a202 273d 8c79 9bbd
00000110: 2339 f5bc 63d4 0c3c 0e3e 963d fa94 06bd
00000120: 60bb 4abc 1ecb ad3d af2b b03d ec6a 75bd
00000130: 3c5f a33d 93d9 42bd 2336 a83d 4f77 d4bc
00000140: bd59 843d c384 61bd 2db9 3ebd 58d7 b53c
00000150: 47df 193c 8d3a 883c 6478 1e3c d2f0 983d
00000160: 0a9b 77bc dda8 b2bd 8e2a c73d 824b cb3c
00000170: 3ddb babd bb21 87bc c251 93ba 1c4d a23d
00000180: c0a7 1abd 380c cd3d 90f3 60bc 6739 2ebd
00000190: 1290 0e3c 3c66 8c3d 89f4 04bc e859 f9bc
000001a0: 1bc0 7d3c caa6 5e3d 3b74 2dbc 7ff6 4fbd
000001b0: a470 91bd f662 cdbd 25a9 4abc 7e9a 813d
000001c0: 8f0b 8dbd 7925 c43d 22fa babc d83e 1a3d
000001d0: ce50 3e3d f82f af3d 0f58 393d a8b4 d83c
000001e0: ba1a dbbc 29cb df3c 6c40 ac3d be01 88bd
000001f0: 7d97 2d3d 4cd0 4b3d 32cc 83bd 7b5f 833d
00000200: 236f af3c def2 323d f363 40bd b9ff 813c
00000210: e62d b03d 7581 ae3d 0340 bcbd 1388 8fbd
00000220: 58f9 4f3d b795 6ebd 5e15 d73c fcd8 a0bd
00000230: cc11 49bd b1cc 95bd 2532 943d 8978 2d3d
00000240: 713b c3bb 2ce0 133d 1a8b 1f3d b625 9dbc
00000250: 94fc a0bd 1911 783d f65b a13d cb83 fbbc
00000260: e0e0 b93d 993c cb3d 7e98 a4bd 81a8 ab3d
00000270: 9e9c 0cbc 711d adbd 942a 57bd 719c c53d
00000280: e1a9 653d d9eb 84bd 4ffd 0e3c 375b a03d
00000290: 22be b1bd 620f a0bd 2ad2 ad3c 327e b43d
000002a0: 25cb cfbc e2dc b73d e22e fbbc 4760 be3d
000002b0: 81f0 b73d 2d1b b23d 1a53 8dbd 2803 783d
000002c0: 429c 953d f3b4 aa3d 66f9 74bc ce68 45bd
000002d0: 1431 f4bc 58b5 4dbd 0e25 823d 5331 593d
000002e0: 52d0 863b f8fd 74bd e039 933d 8b2b 1f3c
000002f0: 16e2 f63c dbc8 c73a f0a4 be3b 19f4 873d
00000300: bded c4bc c41c c0bd 6f45 8ebb bbca 933d
00000310: 3d8c c2bd d841 b3bd b3c0 893d a527 51bd
00000320: e05f b93c e63c bc3c ed38 b73d 06b8 8cbd
00000330: 8599 86bb 141e 20bd 0891 613d 44e9 2b3c
00000340: 70b1 a2bd e93d 8e3d f298 be3d 84e1 df3c
00000350: fb33 5b3d 03b7 8a3d b1ac 91bc f44e cabd
00000360: 4cb7 433d 25a4 343a a339 5cbd 5683 3dbc
00000370: f768 bfbd f9a6 63bd 8bfe 883b 296b f63c
00000380: 158c 113b 80aa 88bd fc2c b23d dd39 113d
00000390: 02a9 80bd 9f35 823d de33 a0bd e8fe 273d
000003a0: b387 61bd 7700 50bd d558 1a3d 097a c5bd
000003b0: 646e 8ebd 2d37 6c3c e6ff 1cbd c481 c7bd
000003c0: 6cc4 06bd a70b 5bbd bf76 10bd da59 c03d
000003d0: 235d b73c 224a 24bc 8e3f b2bd 490b 7bbc
000003e0: 9b24 4bbd 5637 73bc 4222 aebb cc44 253c
000003f0: 1a6e 79bd 9786 cbbd 7666 0abd 21a9 18bd
-0.0314817 0.025446072 0.0027866242 0.0077643227 -0.06441717 0.08567238 -0.0145095475 0.07741352
-0.04354771 -0.021559445 -0.094189614 -0.079865314 -0.07628971 -0.057427086 0.08233032 0.06750611
-0.010276778 -0.045624137 0.06361561 -0.049216762 -0.07591295 -0.07050723 -0.08963086 -0.026519613
0.08519493 -0.03283132 -0.007551079 -0.045447566 0.08981618 -0.08683845 0.0023592468 0.025435816
0.08045917 -0.082296155 -0.052522488 0.08385513 0.0034842195 -0.008374919 -0.06994556 0.07690483
0.029067775 0.017581055 0.09496191 -0.095756285 -0.069468 0.025821371 -0.06463523 0.08228171
-0.041561674 -0.060604833 -0.015033497 -0.06917899 0.0012196525 0.046009403 0.0012925745 -0.065024935
-0.06459456 -0.013937655 -0.055379167 -0.042388443 0.08235235 -0.041931473 -0.01408314 0.049052298
-0.014730965 0.003406489 0.040773995 -0.075915426 -0.029934471 0.008595559 0.07336055 -0.03285692
-0.012373775 0.08486007 0.08602082 -0.05991642 0.07977149 -0.047570776 0.08213451 -0.025935797
0.06462429 -0.055058252 -0.046563316 0.02219741 0.009391612 0.016629482 0.009672258 0.07467808
-0.015112648 -0.08723614 0.097249135 0.024816278 -0.09123848 -0.016495576 -0.0011239576 0.07924864
-0.037757635 0.10012096 -0.013729945 -0.042535212 0.008701341 0.06855437 -0.008114942 -0.030438378
0.015487696 0.05435828 -0.010586794 -0.050772186 -0.071015626 -0.10028641 -0.012369429 0.06328295
-0.0688697 0.0957746 -0.02282435 0.03765759 0.04646378 0.08554071 0.045249995 0.026453331
-0.026746143 0.027318554 0.08410725 -0.06640957 0.0423808 0.049759194 -0.064354315 0.06414696
0.021415299 0.043688647 -0.04697032 0.015869008 0.086025044 0.08520786 -0.09191897 -0.07008376
0.050774902 -0.058248248 0.026255306 -0.078538865 -0.049089238 -0.073144324 0.07236127 0.04235128
-0.0059580137 0.03610246 0.038951017 -0.019183021 -0.078606755 0.06056318 0.07878868 -0.030702492
0.090760946 0.099236675 -0.08036898 0.08381749 -0.008582262 -0.08452881 -0.05253084 0.096489795
0.056070212 -0.06490297 0.008727386 0.07829898 -0.08678843 -0.07815434 0.021218378 0.08813132
-0.025365422 0.08977677 -0.030662004 0.09295707 0.08981419 0.086965896 -0.06900616 0.060549885
0.073051944 0.083352946 -0.014952039 -0.048195653 -0.029808559 -0.05022177 0.06354724 0.053025555
0.004114189 -0.059812516 0.07188773 0.009714971 0.030137103 0.0015242355 0.005818002 0.06638355
-0.024039144 -0.093804866 -0.004341773 0.07216402 -0.094994046 -0.08752793 0.067262076 -0.0510632
0.022628725 0.022978257 0.089464046 -0.06871037 -0.0041076564 -0.039091185 0.055069953 0.010492627
-0.07944 0.06945402 0.09306516 0.027329214 0.05351637 0.06773188 -0.017782541 -0.0987834
0.047782227 0.00068909145 -0.053765904 -0.011566957 -0.09346192 -0.05557916 0.0041807345 0.030080395
0.002220874 -0.06673145 0.08699986 0.035455573 -0.06282236 0.06357884 -0.07822393 0.041014582
-0.055061053 -0.050781693 0.037682373 -0.09642417 -0.06954649 0.014417452 -0.03832998 -0.09741548
-0.032902166 -0.05347791 -0.035269495 0.09392138 0.022383278 -0.01002744 -0.08703528 -0.015322515
-0.049595457 -0.014844736 -0.0053141424 0.010087203 -0.060896017 -0.0993778 -0.03378912 -0.03727067

bn1.running_var f4 [512]
00000000: 318f 1a3f 7b54 3a3f b96d 073f 4e5a 873f
00000010: 37f1 c73f cf13 fa3e 34e5 0b3f 0b27 8d3e
00000020: 6365 4a3f a387 c03e d4cd 283f 861d 113f
00000030: f0f9 383f 1d77 2c3f 2b7a d23e d62c b73e
00000040: c11a 213f 24da 563f 373d 2a3f f5f5 d83e
00000050: 23af 313f b671 be3e 7615 e13e 9b52 2d3f
00000060: 7059 ff3e 77c5 033f 670b 063f a645 e73e
00000070: fdec 023f 3530 2a3f 03cc 383f 39c4 ca3e
00000080: cf5f 513f 3ddf 773f bd3f 113f d557 063f
00000090: c766 db3e 8d20 053f fb72 5b3f bf9f 873f
000000a0: a4bc fb3e b0ba 383f 9160 a83e 2e6a d43e
000000b0: 1300 073f dcae 593f 4d54 993f 72bb 053f
000000c0: f22a 3f3f 3809 2b3f 55c2 023f 4932 f33e
000000d0: 10b6 143f a371 013f aef0 773f aecf f93e
000000e0: c239 2b3f 3e51 f13e 25f8 053f 7440 573f
000000f0: 0118 2a3f 19d7 0e3f d7a6 323f 7a31 0b3f
00000100: c11e 243f 8d5e dc3e e9f5 623f a5d3 103f
00000110: f8de 5a3f 78ed 1d3f c040 153f c4c4 f33e
00000120: fbde 2e3f 55c6 a13e 5652 2a3f f965 5b3f
00000130: 4fc7 123f 1907 f33e 503f 2f3f 1567 213f
00000140: 6c47 3c3f d229 013f 52d3 e13e 27b5 393f
00000150: 06aa f73e 9499 fe3e 018b d03e d7d7 883f
00000160: 3f36 f93e c19e 053f 02f6 0e3f 0cff 383f
00000170: 31b0 fe3e dce7 b63e 9759 9e3f 8b84 d03e
00000180: 5024 ae3e eb85 b13e 7a51 3c3f 91f9 ec3e
00000190: eca5 fc3e 8fda 493f 557d 0f3f f62a 1d3f
000001a0: 05a9 593f 8616 1c3f cd07 143f c379 4c3f
000001b0: 483a 3f3f a8a0 fe3e 192a d73e 4574 613f
000001c0: b3aa 153f 0202 773f 7487 db3e 6a0f 863f
000001d0: f5bb 233f 98bf f83e b908 283f b557 5e3f
000001e0: d27d cf3e df7d 143f 52fa 0d3f 780d 1c3f
000001f0: 0aa0 123f 21d0 0b3f cbf3 283f bffa 363f
00000200: 82b0 163f 764f 0a3f ddee 233f e6c2 c13f
00000210: 456e 083f 8a53 dc3e 6127 263f 78ae 013f
00000220: c8b4 0d3f 775d c33e 00f4 1c3f 1bab e33e
00000230: 5684 043f 8a80 793f 59e6 d73e d31a 043f
00000240: 4cfe 953e 3419 143f 649b 2b3f fb8f d53e
00000250: dfd4 b23f f706 ae3e 5de3 153f fed1 f03e
00000260: c653 5d3f 439a d33e 719e 3e3f 2992 323f
00000270: e936 123f c482 343f d8fd 103f ce08 183f
00000280: 73a4 ac3e 3c19 ae3e 2831 113f 663a cd3e
00000290: 62f2 5a3f c26f 013f 7172 543f 7b85 033f
000002a0: f519 bf3e 0e6c 413f 19cc 193f 933b 0b3f
000002b0: ef7b ca3e eb34 b23e c33e 353f fa80 ec3e
000002c0: 3fd9 083f 4d05 263f 0537 d13e 7835 a33f
000002d0: 41a2 023f c008 3f3f 9757 4c3f 9df6 a03e
000002e0: 6724 143f 1315 f83e ecf8 c33e bd0c 163f
000002f0: 9caa 9b3e e52c d53e 7dec 273f 8ede 4b3f
00000300: ea5d 1f3f bf34 923f baea 133f 0805 ed3e
00000310: c0af 283f c30f 2d3f 78f2 543f 92ce d73e
00000320: d5e1 c83e b38a c63f 99a4 333f 411b 0e3f
00000330: dffa 743e 569c 0b3f 5264 0c3f 6c10 e63e
00000340: 622d 0f3f 9d9c e13e 994f 033f d474 063f
00000350: d2d1 0f3f e3b6 3a3f 5450 b83e 3337 b33e
00000360: 3f10 083f 9b88 343f 3c01 373f 7879 263f
00000370: 2fc0 433f 2a45 193f 3507 1e3f fe2f 113f
00000380: c216 0a3f ca0b d63e 75db 1a3f 51e1 e23e
00000390: 05be 853f c01f 2f3f be6c 263f 929e 313f
000003a0: e5d3 6b3f 5ad9 323f 94bb d03e c407 123f
000003b0: 2465 073f 209a 1e3f cf8b 033f 6b1c 1b3f
000003c0: e52a 063f 34b0 3f3f c8dd ac3e b65a 193f
000003d0: 4397 e23e bae2 0e3f 7a38 1d3f ee0e 1d3f
000003e0: e27a 433f 00dc 153f a1a4 d53e 3fa9 1c3f
000003f0: e8aa 503f c815 b73e 2841 5c3f 4dba d33e
0.6037474 0.72785157 0.529018 1.0574434 1.5620488 0.48843238 0.5464661 0.2756885
0.79060954 0.37603483 0.6593907 0.56685674 0.72256374 0.6736925 0.41108832 0.35776395
0.6293145 0.83926606 0.66499656 0.4237515 0.6940786 0.3719613 0.43961686 0.6770417
0.49872923 0.5147318 0.5236115 0.45170325 0.51142865 0.6647981 0.721863 0.3960283
0.8178682 0.9682501 0.5673788 0.5247777 0.4285185 0.52002794 0.8572232 1.0595626
0.4916736 0.7215986 0.32886174 0.4148726 0.5273449 0.8503244 1.1978852 0.52239144
0.74674904 0.6681094 0.5107778 0.47499302 0.58090305 0.5056402 0.96851623 0.4879126
0.66885006 0.47132295 0.52331764 0.8408272 0.6644288 0.5579696 0.6978583 0.5437237
0.64109427 0.43040887 0.8865648 0.56572944 0.85496473 0.61690474 0.58301926 0.47611058
0.6830899 0.31596628 0.66531885 0.8570247 0.5733537 0.47466353 0.6845598 0.63047916
0.7354648 0.5045444 0.44106537 0.7254204 0.48371905 0.49726546 0.40731052 1.0690869
0.486742 0.52195364 0.5584413 0.7226417 0.49743798 0.3572377 1.2371091 0.40726122
0.3401208 0.34672484 0.73561823 0.46284154 0.49345338 0.7884912 0.56050617 0.6139368
0.8502353 0.6097187 0.57824403 0.79873294 0.74698305 0.49731946 0.42024305 0.8806804
0.5846359 0.9648744 0.4287678 1.0473454 0.63958675 0.48583674 0.6563831 0.8685258
0.4052568 0.58004564 0.55460083 0.6095805 0.5727545 0.54614455 0.65997 0.7147636
0.5886308 0.540275 0.6403635 1.5137603 0.5329326 0.43032485 0.6490384 0.50656843
0.55353975 0.38157246 0.61309814 0.4446648 0.5176443 0.9746176 0.4216793 0.5160343
0.29295576 0.57850957 0.6703398 0.4171141 1.3971213 0.3398969 0.58550054 0.4703521
0.86455953 0.4132863 0.7446051 0.6975427 0.57115036 0.7051203 0.56637335 0.59388435
0.33719215 0.34003627 0.5671563 0.40083617 0.85526097 0.50561154 0.82987124 0.5137555
0.3732449 0.75555503 0.60077053 0.5438778 0.3954768 0.34805998 0.7079889 0.4619215
0.5345649 0.6485184 0.4086229 1.2750692 0.5102883 0.74622726 0.7982115 0.3143815
0.57868046 0.48453578 0.3827585 0.5861319 0.30403602 0.41635814 0.6559523 0.79636467
0.62252676 1.1422347 0.5778004 0.462929 0.65893173 0.67602175 0.8318248 0.42149788
0.39234796 1.5511078 0.7017303 0.55510336 0.23923825 0.54535425 0.54840577 0.44934404
0.55928624 0.440648 0.5129333 0.52522016 0.56179535 0.72935313 0.35998785 0.3500305
0.5314979 0.70520943 0.7148626 0.65029097 0.76465124 0.5987116 0.6172975 0.56713855
0.53940976 0.4180587 0.60491115 0.44312528 1.0448614 0.6840782 0.6500968 0.69382584
0.921202 0.698629 0.4076811 0.570431 0.52888703 0.61953926 0.51385206 0.6059024
0.524092 0.7487824 0.33762956 0.5990404 0.4425603 0.5581471 0.614143 0.61350906
0.7635938 0.5853882 0.41727164 0.6119575 0.8151078 0.35758805 0.8603692 0.41353074

fc2.weight f4 [256, 512]
00000000: 296d d33b 1c18 213d 2db9 f1bc c63f 8fbc
00000010: b88e 08bd 604d 37bd 3167 87bd 3f52 abbb
00000020: 1ff1 4b3c 7345 bdbb 3573 b03c 3983 92bd
00000030: 74c2 64bd 45be 053d cb44 9abd a3f0 a73c
00000040: 0389 47bc a814 10bd eb0f a73c 0afe 89bd
00000050: 189b 7ebd de38 86bd 6537 9cbc 837b 02bd
00000060: cd69 bcbd 0d23 4d3c e0fb 83bc a81d 963c
00000070: ba84 753b c2d8 97bd 5f56 f33c 6ee6 6cbd
00000080: d782 003c e8c1 4d3d 4523 8dbd fd62 b4bd
00000090: b147 4b3d 7a1a 743d ea60 233c 2ab6 9c3d
000000a0: d2a2 5ebd ea09 00bd 36b1 1cbd dc22 38bc
000000b0: 1cd5 ebbb 0d68 bfbc 0026 633d b875 0f3d
000000c0: b1c3 23bc 283a a6bd fb7c d33c f7f8 30bd
000000d0: 11de 53bc 97f0 433d 3036 33bd 11ae 2bbc
000000e0: 7ea2 70bd d566 d6bc 6e2b c83b f134 013d
000000f0: fb16 22bb 05da 9abd 5683 713d 89bf 703c
00000100: 6373 4fbc c4e4 8d3b 2336 2ebc 007f a03c
00000110: 121f d2bc 495d 123d fa4e ad3b 5584 553d
00000120: d4b1 b2bb dca3 c33c 921c 3dbd d525 c1bc
00000130: 5f15 87bc 17dc b5bc 16ea 8cbb ee42 2cbd
00000140: 90ff 30bb 3c73 cbbd c2c6 5bbd 0650 7e3c
00000150: 5e15 8dbc 3397 67bc a9dc c0bd 78be e43c
00000160: 4368 2ebd 5993 93bd 072d 473d 849d e0bc
00000170: b0a3 a93c 7de1 8a39 c94c 113d c868 debd
00000180: 50f3 393d d988 2c3b b261 30bd f5dd c9bc
00000190: d27a 08bd c1c8 b3bc 646c e3bc d29c 7ebd
000001a0: 2e58 a6bd 4582 40bd aa25 0fbc 5f80 bebb
000001b0: db69 40bc 2ef0 47bd 251a c5bc 1583 763d
000001c0: 19ea 90bd daab 6cbd ac51 79bc 954e da3c
000001d0: 631f 0fbd 68c0 85bd 40d0 73bd 1db8 89bc
000001e0: ad2e 573d da07 d9bc 5eaa c5bd 6244 65bc
000001f0: e11c 13bd f94d 893b bfce ae3c 6986 54bc
00000200: 1771 15bd a537 b13d cdb6 12bd b872 d83c
00000210: 2cca 25bc 0626 21bd b39c bcbd ba7f 6bbc
00000220: d2db 603a 7c37 0d3d 2ab7 75bd df71 c6bc
00000230: 4c83 ebbc 2506 d93c e1e6 9abd 8649 05be
00000240: 8500 5bbe 7ec6 fb3b f543 8ebd 3c30 54bd
00000250: ad45 2ebc 7c42 0ebc 7df8 bfbc b2f5 6e3d
00000260: 971c 01bd ce9f 29bd 8cd6 cdbc 6d80 97bb
00000270: 3377 aebd 2823 0abd f685 8d3a 35c7 88bb
00000280: 76a7 4a3d c002 cc3c 00e5 593b d924 823d
00000290: 1ccc 32bd 6373 1d3d fe59 febc d4d3 93bd
000002a0: ece1 4d3c 1e8d df3c 2a87 b83c c1c1 46bd
000002b0: 48b5 9dbc dff9 943c d741 713d b9ab 28be
000002c0: 0a3c bf3b 175c aebb e30f 423d 3b1b 343c
000002d0: e843 a23c 4c36 563d 13dd 9bbc 157e d43c
000002e0: ef25 cabb a6b7 23bd 5a22 55bd 9ff1 0b3c
000002f0: 0a84 a0bd 03a7 6a3d c5cb cdbc e406 0cbd
00000300: 420b 083c d613 64bd 5044 fdbb 2681 7bbd
00000310: 00c6 e1bc 4b40 a9bc 0803 6a3c dcc2 a83c
00000320: 3ec1 afbd dbb4 05bc 1528 0d3d 6f4c 1f3d
00000330: e0c3 993b 6075 f23c f588 71bd 92e3 3fbd
00000340: f230 743c c3af 3d3c e1af 64bd 6583 8bbd
00000350: 7cc7 b3bc 6a7b 3d3d 2843 51bc 2692 07bd
00000360: 2b4e 9bbc 3d87 38bd 2f5c 813c 0209 6abd
00000370: 9d94 ec3b 0d96 2bbd 6a96 09bd 8c65 6abd
00000380: 85e7 513d 24f2 9638 17c1 c5bc 0c25 43bd
00000390: 54a5 053d 075a 113c 9965 7cbd ca8f cdbd
000003a0: 90fe 05bc 0faf ee3c 2d1d 25bd f42c 6c3c
000003b0: bf76 e1bc 8e98 9bbc a670 98bc 58b6 19bd
000003c0: 209e 5c3d 5456 f8bd bf42 62bd 35d2 7dba
000003d0: ac97 92bb 921d 123d 12bd 8abc 3239 a8bd
000003e0: 8ab1 c93b 434b 77bc 8af5 bbbc 792d e1bc
000003f0: 812d 563c 15d0 f13c bd43 0abd 1e00 773d
0.006452222 0.039329633 -0.029507244 -0.017486464 -0.033339232 -0.044751525 -0.06611479 -0.0052283104
0.0124476245 -0.0057761013 0.02153931 -0.07153935 -0.055849507 0.03265216 -0.075326525 0.020500487
-0.012178662 -0.03517595 0.020393332 -0.06737907 -0.062159628 -0.06553815 -0.019069383 -0.03185607
-0.091998674 0.012520564 -0.016111314 0.018324688 0.0037463144 -0.0741439 0.02970427 -0.057836942
0.007843695 0.05023375 -0.06891493 -0.08807943 0.049628917 0.059595563 0.009971837 0.076519325
-0.054354496 -0.031259455 -0.03825494 -0.01123878 -0.0071970355 -0.023365045 0.05545616 0.035024375
-0.009995387 -0.08116561 0.025816431 -0.04320618 -0.012931363 0.047836866 -0.04375285 -0.010478512
-0.058748715 -0.026172081 0.006108693 0.03154463 -0.0024732936 -0.07561115 0.058963142 0.014694103
-0.012661788 0.0043302495 -0.010633024 0.019591808 -0.025649581 0.035733495 0.0052889558 0.052128155
-0.0054533277 0.023881845 -0.046169825 -0.02357761 -0.016489683 -0.022199674 -0.004300366 -0.042056017
-0.0027007796 -0.099340886 -0.053656347 0.015522009 -0.017222103 -0.01413517 -0.094170876 0.027922854
-0.0425799 -0.07205839 0.048626926 -0.02741886 0.020707935 0.00026489413 0.03547362 -0.10859829
0.045398057 0.0026326685 -0.04306192 -0.02464197 -0.033320256 -0.021946313 -0.027761646 -0.062161274
-0.08122288 -0.046999235 -0.008737007 -0.005813643 -0.011743988 -0.048813038 -0.024060318 0.060183603
-0.070759006 -0.057781078 -0.015217226 0.026648799 -0.034942042 -0.06530839 -0.059524775 -0.016811425
0.052534748 -0.026493002 -0.096516356 -0.0139933545 -0.035916213 0.0041902033 0.021338819 -0.012971499
-0.036484804 0.086531915 -0.035818864 0.02642189 -0.010119002 -0.039342903 -0.092095755 -0.014373714
0.00085776777 0.034476742 -0.059989132 -0.02422422 -0.02874913 0.026492188 -0.07563568 -0.13016328
-0.21386917 0.007683574 -0.069465555 -0.051803812 -0.010636729 -0.008682843 -0.023433918 0.058339782
-0.031521406 -0.041412167 -0.025126718 -0.004623464 -0.08518829 -0.033724934 0.001079737 -0.004174138
0.04947611 0.024903655 0.0033248067 0.063546844 -0.043651685 0.03844012 -0.031048771 -0.072181374
0.012566071 0.02728897 0.022525389 -0.048524622 -0.01925148 0.018185554 0.05890068 -0.16471757
0.0058360146 -0.0053210366 0.047378432 0.01099282 0.01980777 0.052297875 -0.019026315 0.025939027
-0.006169073 -0.039970063 -0.052034713 0.008541494 -0.078376845 0.05728818 -0.025121579 -0.03418626
0.008303465 -0.05568298 -0.0077290908 -0.061402462 -0.027560234 -0.02066054 0.014282949 0.020600729
-0.0858178 -0.008160795 0.034462053 0.038891252 0.0046925396 0.029596984 -0.058968503 -0.046847887
0.014904248 0.011577549 -0.055831794 -0.06812171 -0.021945707 0.046260275 -0.012772359 -0.033098362
-0.018958172 -0.04505085 0.015791027 -0.057137497 0.0072198645 -0.041891146 -0.03359071 -0.05722575
0.051246185 7.1976596e-05 -0.024139924 -0.047642753 0.032628372 0.008871562 -0.06162033 -0.10037191
-0.008178368 0.029136209 -0.040311027 0.014415015 -0.027522443 -0.018993642 -0.018608402 -0.037527412
0.053861737 -0.12125841 -0.055239435 -0.00096825074 -0.004473647 0.03567273 -0.016935859 -0.08214034
0.0061551975 -0.015093627 -0.02294423 -0.027487503 0.013072372 0.029518167 -0.033756007 0.060302846

fc2.bias f4 [256]
00000000: a373 863c ad06 133d 4dd2 c5bc cf70 093b
00000010: 95f7 d2bc e884 f13c 8141 35bc 0c17 203d
00000020: 2999 483c 0a3f e1bc fd7c e03c 6e11 883c
00000030: 5372 40bc 22eb 2e3d 9b0d 8fbc 6c1a a0bc
00000040: b80b 2cbc 50a7 32bd 9de2 cfbb 8445 ccbc
00000050: 3c83 063c d477 923c 862c 81bc 14d1 d6bc
00000060: 437a f7bb 3cc5 48bc 3473 1fbc 0d4a d13c
00000070: 5bd1 dabc 57b1 b8bb 6388 ebba 6e39 d93c
00000080: 68da 303d 80d2 81bc 5122 85bc dec8 fcb9
00000090: b7ac f83c 90e6 1a3d 7251 80bc 4904 d23b
000000a0: 6054 d0bc 9495 533c 8d83 44bc e6e8 9c3c
000000b0: 3359 ce3c 0a67 12bb 111b 6c3c e27a f5bb
000000c0: e2d0 32bd c1b9 a13c ae23 1ebc ab5c 2f3b
000000d0: a27c 823b ee68 bfbc 599b 18bd 2ef7 05bd
000000e0: 0dcb f23b d859 66bc 5ac6 0dbd fda6 b73b
000000f0: 6112 e43c 47d5 853c 8910 b1bb 1162 913c
00000100: 3b3b d93b ea95 cc3c 3d55 103c 282b 60bb
00000110: 0023 c03b 0ba2 05bc 6281 de3c ef71 cb3c
00000120: ccb8 e2bc 51b5 66bc 8aed 1f3d 38b6 00bd
00000130: b190 df3c cc7f 97bc ac9b 26bd c702 4a3c
00000140: a97b 67bc 52ad b3bc b04e cd3c a412 22bd
00000150: e464 1fbd 733a 18bd 76a0 2dbd 408d 133d
00000160: a236 12bc 3eff 18bd 5536 143d 15ad 28bd
00000170: 4154 f5bb 0d91 6c3b 1674 28bd 42f1 753c
00000180: 20ff b1bc 5fc6 813c a6d2 3e3d 1dc3 00bc
00000190: 5ec1 81bc b834 443a 2fc1 38bc 8048 17bd
000001a0: 5600 37bc 56e6 0cbc 98b8 343d 6e43 36bc
000001b0: 2149 233d fe34 ac3c a09d c8bc d39a 883c
000001c0: 4144 aebb 3845 d3bc 3647 65bc e432 1b3d
000001d0: 1c52 1e3d 84f8 3b3c 04e1 b43c 2d09 5b3c
000001e0: ebdc 063d 5592 c438 6d5d bb3c e590 44bd
000001f0: dbc4 383c 9cb1 c03b 1110 7e3b 4aa1 03bc
00000200: 7ba6 2dbb 8f0a 37bd 793f e43b 71fd 0fbd
00000210: f553 ce3c c590 df3b 4d85 80bc 3c49 463d
00000220: c78c 1bbd c35f 86bc a32f 2fbd dce8 13bd
00000230: 2b69 0dbc 3268 ccbc 757e 11bd edf7 2ebd
00000240: 40e5 59bc a66f 4fbc c22d e0bb 0e32 0c3d
00000250: b5be 34bd c635 a8bb 58f0 24bd 067d 143d
00000260: 9068 b23c 2b0c 26bd 6207 fb3c a62b dd3c
00000270: 9c9e 033d aef1 f33c 6856 343d 659a 403c
00000280: 013c 2a3d b018 f8bc 3565 e93b d0a0 8f3c
00000290: 0c69 193c ebaa be39 604f 243b c2a4 e9bc
000002a0: 7a70 9abb 466d 523c d9dd 14bc 543c cc3b
000002b0: f795 df3c 8e55 593b 253d 103d 74cb c83b
000002c0: f11c f9bc ccc0 b33c deaa 063d e0f6 9bbc
000002d0: d3bd 13bb 22c5 a53b 89bd e83b 6724 2dbd
000002e0: 815b 923c c9ef 29bd 1e6c 243d 78c0 92bc
000002f0: 0999 8a3c 5f1b a2bc dea8 153c 1b31 3ebd
00000300: 0ec5 6d3c 961b 72bc 3882 bfbc c71b 373d
00000310: 7d91 903c 2d44 ea3b b4be 123d b701 f73c
00000320: 8b3c c83c b247 d0ba 7951 01bd e8aa 363c
00000330: 45bc 9cbc 02d2 903c 66df a0bc 16c7 f4bc
00000340: c53f 573c a817 0bbc 0d86 053d f87a 4a3c
00000350: 9921 973c 5cb6 23bd 6823 a93c 622d 753c
00000360: 925c a8bc fcf7 c23b 0b59 33bd 1b62 1d3a
00000370: d58b de3c fc6e 79bc 0df7 b5bb 9688 1abd
00000380: 71a4 31bc 7d81 0d3d d934 903c 0a6e d03c
00000390: 1a05 013d 9bdc 00bd def2 163d abfb 30bc
000003a0: 58fc bebb 50c5 07bd 49fd 3ebd 6d89 cdbc
000003b0: 3aa1 05bd 564a 2b3a 184e c53c bf8a ba3c
000003c0: d1cd 28bd 897a 24bd e684 d7bc 7a80 b0bc
000003d0: 0216 573c 4162 88ba 3242 1f3d e9c1 623c
000003e0: 669f e1bc 86cc 0fbd 07fb ae3c d094 2bbd
000003f0: 39d5 20bd d985 cb3c a78a b6bc 1e92 c339
0.016412562 0.03589504 -0.02414813 0.002097178 -0.025752822 0.02948232 -0.011062981 0.03908448
0.0122435475 -0.02749588 0.027403349 0.016609874 -0.011746007 0.04270471 -0.017462542 -0.019543849
-0.010500841 -0.043616593 -0.006344153 -0.024935491 0.00821 0.017879404 -0.0157683 -0.026222743
-0.0075524165 -0.012254056 -0.009732056 0.025548005 -0.026711157 -0.005636375 -0.0017969724 0.026516642
0.04317704 -0.015847445 -0.016251715 -0.00048214843 0.030355794 0.037817538 -0.015663836 0.0064092022
-0.025430858 0.01291408 -0.011994255 0.019154023 0.025189018 -0.0022339248 0.01441075 -0.0074914554
-0.043656237 0.019741895 -0.009652061 0.0026758115 0.0039821425 -0.023365464 -0.037257526 -0.032706432
0.0074094594 -0.014059506 -0.03461299 0.0056046234 0.027840795 0.01633705 -0.0054035825 0.017746957
0.0066293753 0.024973828 0.008809385 -0.003420541 0.0058635473 -0.00815631 0.027161304 0.024834601
-0.027676009 -0.014081315 0.039044894 -0.031423777 0.027290674 -0.018493555 -0.040675804 0.012329764
-0.014128604 -0.021933232 0.025061935 -0.03956856 -0.038914576 -0.037165117 -0.042389356 0.03602338
-0.008924158 -0.037352793 0.036184628 -0.04118069 -0.0074868505 0.00360972 -0.041126333 0.015011134
-0.021728098 0.015841661 0.04658761 -0.007859019 -0.015839275 0.00074846623 -0.011276527 -0.036934376
-0.011169514 -0.008599838 0.044121355 -0.011124475 0.039864663 0.021021362 -0.024489224 0.016675388
-0.005318195 -0.025789842 -0.013994029 0.03789033 0.038652524 0.011472825 0.022079952 0.013368887
0.032925528 9.373265e-05 0.022871697 -0.047989745 0.011277403 0.0058805477 0.00387669 -0.00803406
-0.0026496935 -0.044687804 0.0069655743 -0.03515381 0.025186518 0.006822678 -0.015688563 0.048409685
-0.037976053 -0.016403085 -0.04277004 -0.036110744 -0.008631031 -0.024952028 -0.03552099 -0.04271691
-0.013299286 -0.012660896 -0.0068413923 0.034227423 -0.044127185 -0.0051333634 -0.040268272 0.036252044
0.021778375 -0.040538948 0.030643169 0.026998352 0.032133684 0.029778328 0.044027716 0.0117555605
0.04156113 -0.03028521 0.0071226605 0.017532736 0.009363424 0.00036366968 0.0025071725 -0.028520945
-0.0047131153 0.012843436 -0.009086096 0.0062327776 0.027293188 0.0033162567 0.035214562 0.006127769
-0.030409308 0.021942519 0.032877795 -0.019038618 -0.0022543564 0.0050589005 0.0071026725 -0.042271044
0.017865898 -0.041488443 0.04014217 -0.017914042 0.016918676 -0.019788442 0.009134499 -0.04643355
0.0145123135 -0.014777085 -0.023377523 0.044704225 0.0176475 0.0071492405 0.0358264 0.030152185
0.024442932 -0.0015890507 -0.03157184 0.011149146 -0.019132743 0.017678265 -0.019637775 -0.029880088
0.013137762 -0.008489527 0.032598544 0.01235842 0.018448638 -0.039968833 0.020646766 0.014964433
-0.020551953 0.005949972 -0.04378609 0.00060036936 0.027166286 -0.015224215 -0.0055531324 -0.037727915
-0.010842429 0.034547318 0.017603325 0.025443096 0.031499006 -0.031460386 0.03685271 -0.01080219
-0.0058284216 -0.033147156 -0.04662827 -0.025089944 -0.03262446 0.0006534209 0.02408509 0.022771237
-0.041211907 -0.04015592 -0.026308488 -0.021545637 0.013127806 -0.0010405259 0.03888149 0.013840177
-0.027541827 -0.035107158 0.021359934 -0.041889966 -0.039265845 0.024844097 -0.022282911 0.00037302164
